ICP/checkpoint_t2.pkl (torch, 387593 bytes, 54 tensors)

layer1.0.weight f4 [16, 3, 3, 3]
000000 2c 7c fe 3b 1b a1 11 3e 41 bb 00 3b 02 06 ef 3d
       0.0077662673 0.14221613 0.0019642862 0.11671068
000010 5a 46 96 bd 43 da ee bc 0b fb da 3d 22 e3 09 3e
       -0.07337637 -0.02915681 0.10692414 0.1346555
000020 39 b8 06 be d9 69 e3 bd b3 0b 0d be 72 4e ed 3d
       -0.13156213 -0.11104173 -0.13773994 0.11587228
000030 2a 05 58 3e 6b d3 d8 3d 27 91 a3 3d f4 fa 60 3e
       0.2109572 0.105872 0.0798667 0.21970731
000040 93 5f 0e 3c c9 76 ec 3c a4 31 5a be 04 46 f9 bd
       0.008689779 0.028865235 -0.21307999 -0.121715575
000050 21 15 0d be 4e 0f 72 be 3d 60 5f be 19 2d c3 be
       -0.13777591 -0.23638651 -0.21814056 -0.38120344
000060 87 6f 0d be 85 17 ad bc 7c 77 8c be 84 26 02 3e
       -0.13812076 -0.021129379 -0.2743491 0.12710005
000070 5a fc 04 3e 0b df bf bc 92 30 71 3e 2a b4 09 3c
       0.1298689 -0.023421785 0.23553684 0.008404771
000080 34 d9 3c 3e d7 59 94 3e 8a 27 54 bb 0a ae 89 3e
       0.18442231 0.28974792 -0.00323722 0.26890594
000090 ad ac f2 3d 4e fd 08 3d 9d d6 a4 3d 27 d0 74 3e
       0.118493415 0.033444695 0.08048747 0.23907529
0000a0 0e e1 82 bd 59 9b 41 3e 75 1c 98 3e a5 e5 96 3e
       -0.06390582 0.18906917 0.2970921 0.2947208
0000b0 9a 0b 87 3e be f7 d2 3d 48 eb 48 be c9 f8 58 3d
       0.2637604 0.10301159 -0.19621003 0.052971635
0000c0 77 3c 18 be 72 6f 8b 3d 52 a5 5b be 70 1d 04 be
       -0.14866816 0.06808366 -0.21449783 -0.12901855
0000d0 0b a7 2b bc 38 bb 4d bc 45 47 12 be 28 e8 3f 3e
       -0.010476838 -0.012556843 -0.14285 0.18740904
0000e0 cd 32 00 3e 77 fe a9 bd 83 f2 26 be 1c fe 16 3e
       0.12519379 -0.083004884 -0.16303448 0.14745373
0000f0 17 2c 12 be d3 20 48 3d a7 b9 4b 3e 78 89 0b bd
       -0.14274631 0.04885943 0.1989504 -0.034066647
000100 da 5d 33 be 22 22 6e be 7b 17 87 bd 63 47 8f be
       -0.1751627 -0.23255208 -0.065962754 -0.2798415
000110 af a9 ac bd 99 42 7f be e2 94 53 be 51 6d 8b be
       -0.08430802 -0.24927749 -0.20662263 -0.2723184
000120 8a 3b 0d 3e 10 fa 4b 3c b5 49 ac bd 17 2d 6a 3e
       0.13792244 0.012449756 -0.08412496 0.22868763
000130 11 2e ea 3d f8 29 38 3e 7b ed 25 3e 0b d2 c9 bc
       0.11434568 0.1798476 0.16203873 -0.02463629
000140 21 cd 9c 3c 5d 2a 47 be bc fd 02 3e 2f c3 96 be
       0.019140782 -0.19449754 0.12792104 -0.29445788
000150 d1 1b 2c 3e 89 4d 36 3e 86 9c 93 bc 22 67 8a bd
       0.16807486 0.17803015 -0.018018972 -0.06757952
000160 a5 06 30 3e 35 8f 50 bd 53 87 98 bd 16 85 02 3e
       0.17190035 -0.050917823 -0.07447686 0.12746081
000170 ed 0d 0c be a8 09 d9 bd 50 f4 d9 3d 4e bb 69 be
       -0.13677187 -0.10597545 0.10642302 -0.22825357
000180 3d 12 71 3e 16 3b e7 3d 53 d0 4c bd bf 44 1a be
       0.23542114 0.112905666 -0.05000336 -0.15065287
000190 9e c9 06 3e dc 76 b8 be 03 9f 60 3e b1 c6 4a 3e
       0.13162848 -0.36028183 0.21935658 0.19802357
0001a0 b5 fd 00 bd c5 48 87 3e 42 a2 45 3e 70 48 f1 bc
       -0.031491954 0.26422706 0.19300178 -0.029453486
0001b0 16 50 7f be 7c a2 8c be a8 26 13 bd 67 cc 81 bd
       -0.24932894 -0.27467716 -0.035925537 -0.06337815
0001c0 5e 71 5d 3e 8a 47 61 3e 26 eb cc 3d 62 47 a9 3e
       0.21625277 0.21999946 0.100057885 0.33062273
0001d0 47 1e ce 3e b4 f7 89 be 30 5c 1c bc 3d b0 9b 3d
       0.40257475 -0.26946795 -0.009543464 0.07601974
0001e0 91 28 46 be d4 df 5d be a6 ad d5 3d 86 ad bd bd
       -0.19351412 -0.21667415 0.104335114 -0.092616126
0001f0 28 ed 30 bd 4f c4 0c 3e 43 11 d8 bd d6 35 01 3d
       -0.04319492 0.13746761 -0.105501674 0.031545483
000200 4b f9 0f 3e 4b 86 f5 3d 78 d3 c5 3c ed 1b b7 3d
       0.14059941 0.11988505 0.024148688 0.08940873
000210 5c 46 a2 bd e6 cd 00 3e 1c 94 1e 3c be aa f1 3c
       -0.07923576 0.12578544 0.009678867 0.029500362
000220 bd ac 27 be 37 f0 b8 bd 2f c5 a5 bb 72 43 63 3c
       -0.16374488 -0.09030192 -0.0050589065 0.013871061
000230 b0 fc 85 3d 95 02 18 3d e3 67 b5 bd 8a 20 da bd
       0.06542337 0.037111837 -0.088577054 -0.106507376
000240 df 47 92 bc 38 4c 8e 3e 5d c5 4b 3e e4 df b1 3d
       -0.017856536 0.27792525 0.19899507 0.08685282
000250 04 75 bc bd 08 e9 3e be 85 e5 76 be 03 a9 01 bc
       -0.092020065 -0.18643582 -0.24110992 -0.007913831
000260 9d a1 3d be 39 cc 27 3e 5c 9e a3 bd 02 8b b4 3d
       -0.18518682 0.16386499 -0.07989189 0.08815576
000270 3a c2 b4 3c 76 fc 9e bd 61 b2 9f be 76 2a b2 be
       0.02206527 -0.07762997 -0.3119078 -0.3479802
000280 f6 18 b2 be 96 04 c2 be 89 6d 81 3d 7a c3 40 bd
       -0.3478467 -0.37894124 0.0631972 -0.04706142
000290 fe f4 03 be 81 00 b2 3d 6e 96 03 be f2 61 2c be
       -0.12886426 0.08691502 -0.12850353 -0.16834238
0002a0 82 0a f7 3d 9a 71 ad bd 89 82 e7 3d 2f d6 8f 3d
       0.12062551 -0.084689334 0.113041945 0.07023274
0002b0 0f 85 0b 3e 51 f3 73 be d1 e1 28 3e d4 f4 a6 bd
       0.13624977 -0.23823287 0.16492392 -0.08152166
0002c0 aa 13 9e bb 17 bb 54 3e 05 fb 02 3e ca 44 16 be
       -0.0048241215 0.20774494 0.12791069 -0.14674678
0002d0 23 be 16 be 59 67 37 be 11 4b f4 3c 09 44 ec 3c
       -0.14720969 -0.17910518 0.02982095 0.028841035
0002e0 e8 ba 0c be 8b b2 5a be a2 7e b5 3e 06 7e 38 3e
       -0.13743174 -0.21357171 0.35448176 0.18016824
0002f0 d0 88 0a be 18 43 0a 3e da 88 2f 3d fd 1d 50 3e
       -0.13528752 0.13502157 0.04285512 0.2032394
000300 9b c2 9a bd eb 38 32 3d 6d fe 44 bd 4a c5 88 be
       -0.07556649 0.043511312 -0.0480942 -0.2671302
000310 d5 4b 6f be 06 1c 64 be b0 37 22 3e f5 0d 2c 3e
       -0.23368771 -0.22276315 0.15841556 0.16802199
000320 23 2f a0 3e 0f 8e d4 bd bc 0c 50 3c 7a 94 61 3e
       0.31285962 -0.10378658 0.012698349 0.22029296
000330 99 f1 e8 3d 8b 6c 42 3e 47 62 f7 bd 7b 5b aa bd
       0.11374206 0.18986718 -0.12079292 -0.0831823
000340 c8 0d d0 3d ed c1 0c 3a cf f2 d8 bd 15 f8 48 3d
       0.101588786 0.00053694734 -0.10593187 0.049064714
000350 43 d3 19 3d 7c 3a 19 be de c7 16 be b5 d2 c3 3c
       0.03755499 -0.14963716 -0.14724681 0.023904184
000360 cb 52 8e 3e 19 02 d4 3d b2 65 2a 3e d2 ec b8 3d
       0.2779754 0.103519626 0.16640356 0.09029545
000370 9c 49 c0 3d 8a 0a 00 3e 63 57 8b 3e 41 e5 4b 3e
       0.0938904 0.1250402 0.27215108 0.19911672
000380 de d6 17 3e 2e a0 29 be 01 36 ee bd db 77 3b bd
       0.14828059 -0.1656501 -0.11631394 -0.0457686
000390 68 e3 98 bd f6 f0 37 be 7a 3e 30 3e d4 70 d9 3d
       -0.07465249 -0.17963013 0.17211333 0.106172234
0003a0 01 e9 8f 3d 06 e6 11 3e 2a b3 5f be 95 3d 47 be
       0.07026864 0.14247903 -0.2184569 -0.19457085
0003b0 9a e4 d8 3d ef 0f cb bd 3a e5 8b bd 77 d0 e8 bd
       0.10590477 -0.099151485 -0.06830831 -0.113678865
0003c0 33 3d a1 bc 28 f0 2e be 52 97 10 bd c7 2a 25 be
       -0.019682502 -0.170838 -0.03530056 -0.161296
0003d0 c5 09 98 3d e7 d3 46 3d 18 d4 25 be f5 3e 87 3d
       0.074237384 0.04854193 -0.16194189 0.06603805
0003e0 37 99 a5 3d 2e 5b 5d be 9d 15 6f bd 81 cd 2f bd
       0.08085864 -0.21616814 -0.05837022 -0.042920593
0003f0 31 3f 93 3e 69 bf aa 3e c2 ba bf 3e dd 51 81 3e
       0.2875915 0.3334916 0.37447172 0.2525777

layer1.0.bias f4 [16]
000000 71 81 05 3e c9 aa 15 3d 01 43 d1 3d 5c eb 13 be
       0.13037659 0.036539827 0.10217858 -0.14445251
000010 98 1e 19 3d 14 ff 80 3e 44 7f 08 3c 55 d0 0d 3e
       0.037382692 0.2519461 0.008331124 0.13849004
000020 7b 9d 8a 3d 5d e8 db bc 0d c6 9a 3d f8 f8 0e 3e
       0.06768318 -0.026844198 0.075573064 0.13962162
000030 27 18 66 3d 88 d3 2f be ad 00 eb 3c 8e db 26 3d
       0.056175377 -0.17170537 0.028686846 0.040736727

layer1.1.weight f4 [16]
000000 56 f8 89 3f af 50 81 3f 61 a4 8d 3f ca fd 6f 3f
       1.0778911 1.0102748 1.106579 0.93746626
000010 28 58 75 3f ad e1 69 3f 21 80 60 3f ec 1a 77 3f
       0.9583764 0.9135998 0.8769551 0.96525455
000020 12 47 8a 3f 14 63 63 3f 91 1c 74 3f cc b8 7e 3f
       1.0802939 0.88823056 0.9535609 0.9950073
000030 5e 44 8f 3f 00 58 7e 3f 81 08 89 3f e9 ce 6f 3f
       1.1192739 0.9935303 1.070572 0.93675095

layer1.1.bias f4 [16]
000000 ac a7 85 bd b3 e8 4f bc 4e ef 13 3e 3b 90 0b 3d
       -0.065261215 -0.012689757 0.14446756 0.034073096
000010 25 87 7d bc b6 be b2 be 5e c0 21 bd d4 a0 64 3e
       -0.0154741155 -0.34911126 -0.039490096 0.22326976
000020 cf 20 91 3e 17 34 09 be 14 4f 64 bd 8d df fb 3d
       0.28345343 -0.13398777 -0.055739477 0.12298498
000030 38 88 8a bd 2a 3e 48 bc ae fb 29 3e 30 a8 8b be
       -0.06764263 -0.012221852 0.16599914 -0.27276754

layer1.1.running_mean f4 [16]
000000 de 64 b3 be f4 15 a4 3f 22 14 8a be 07 21 be 3d
       -0.35037893 1.28192 -0.26968485 0.09283643
000010 f2 50 aa 3e 8e 80 31 bf 7b 4a af bd fb d2 86 3e
       0.3326488 -0.69336784 -0.08559128 0.2633284
000020 dd 69 e7 3e f7 2d 90 3f 3d 9a 9a 3f 87 bf da 3d
       0.45197955 1.1264027 1.207832 0.10681062
000030 0e c9 0a 3f 1e d9 8e bf c4 2e be be 89 35 77 bf
       0.54213035 -1.1160009 -0.37145054 -0.96566063

layer1.1.running_var f4 [16]
000000 0b 3c c5 3d b8 ce 4b 3e 6c b5 03 3d 6f b1 65 3c
       0.09630593 0.19903076 0.03215544 0.014019354
000010 9f b0 5e 3c 4f a2 24 3e 5c 6f 54 3b 03 bb 31 3c
       0.013591914 0.16077541 0.0032415008 0.01084781
000020 fe 30 4e 3d a4 c4 89 3e b5 8f 1f 3e 2e dc 1b 3c
       0.05033969 0.26907837 0.15582164 0.009512944
000030 b6 0b e8 3d 73 3e f5 3d 23 4f 02 3d 79 04 09 3e
       0.11330359 0.11974802 0.031813752 0.13380612

layer2.0.weight f4 [32, 16, 3, 3]
000000 d2 b6 6f 3d 00 a8 94 3d 8b f1 4c bd eb d7 77 3d
       0.05852396 0.07258606 -0.05003504 0.06050865
000010 d4 bc 10 3d 7a 3e 9a 3b c3 62 8f bc 42 5f ce ba
       0.03533633 0.004707155 -0.017503148 -0.0015744942
000020 60 c1 1d bb 1f 35 d2 bd c5 75 b9 bc d2 1e c9 bd
       -0.002407156 -0.10264038 -0.022639165 -0.09820332
000030 46 77 b9 ba 88 e3 b1 bb 4c ee 08 be 30 1f 1e 3c
       -0.0014149926 -0.005428735 -0.13372153 0.00965099
000040 90 0b f9 3c 57 8e f2 bd d6 b1 0c 3e 63 65 2e 3e
       0.030401021 -0.118435554 0.13739714 0.17030863
000050 53 ea 47 3e 38 87 b4 3b 4b a2 27 3e aa 80 2e 3d
       0.19522981 0.0055092834 0.16370504 0.042603172
000060 96 0a 9b 3c 41 d2 04 3e e6 8b 75 3d 99 15 e0 bd
       0.018925946 0.1297083 0.05994787 -0.109416194
000070 6f ad 98 bd 4f d2 05 bd 8a 0a a6 bb e2 db 1f bd
       -0.07454955 -0.03267127 -0.0050671743 -0.039028056
000080 c1 a4 a8 bc c7 26 10 bc 8e cc ab bd 2b 29 56 b9
       -0.020586373 -0.008798308 -0.08388625 -0.00020423967
000090 06 d4 cc bc dc 5c b6 3d e0 d8 c1 3d 8d 8b b4 bd
       -0.025003444 0.0890443 0.09465194 -0.0881568
0000a0 f3 5c 1b bd 05 ab ec bb 27 bd 5e bc 3a 13 2b 3c
       -0.03793044 -0.0072225356 -0.013594902 0.010441596
0000b0 14 4b c4 3b d1 0c 8b 3d 87 34 ba 3d ed c5 a0 bc
       0.0059903953 0.06789554 0.0909205 -0.019625628
0000c0 b6 0c 74 bd 52 a4 91 3d 27 1c 02 3d 07 8a 27 bd
       -0.059582435 0.0711142 0.03176513 -0.040903118
0000d0 5b 5d a1 3d 22 f5 c0 3c 66 e0 e4 bd a4 3a a2 bd
       0.07879134 0.023554388 -0.11175613 -0.07921341
0000e0 49 73 05 be 5a ce a2 3c 24 5d c3 bd ea 32 16 bd
       -0.13032259 0.019873787 -0.095392495 -0.03666965
0000f0 f1 da ef 3c 4e c3 19 bc 24 37 c1 bd 64 3b 90 bd
       0.029279204 -0.009384943 -0.09434345 -0.07042578
000100 9b ed 9a bd 79 65 f9 bb 83 a7 57 bd 06 94 b1 bd
       -0.07564851 -0.0076109734 -0.052649986 -0.08670811
000110 f9 75 68 bd 42 fa 05 be 55 ec d2 bd 7e 0b 4d bc
       -0.056753132 -0.13083747 -0.10298983 -0.012514947
000120 74 33 56 3e 44 ed 1f 3e 1b b1 62 3c 7e 7c 65 3e
       0.20918065 0.15617853 0.013836171 0.22410771
000130 b1 31 3d 3e d2 83 30 3e 1e 98 28 3e 32 95 20 3e
       0.18475987 0.17237785 0.16464278 0.15681913
000140 01 10 2e 3d ed 9f a0 bd 69 d0 8b 3b ad ab 93 3d
       0.04249573 -0.078430034 0.004266788 0.07210479
000150 ad 8a 92 bd 87 23 8f bd 7f 06 1d bd 21 e2 48 bc
       -0.071553566 -0.06989198 -0.038336273 -0.012260945
000160 a1 0f af bd f5 d1 a9 3b 0b 86 32 3b 06 b7 02 3c
       -0.08547903 0.0051824995 0.002724054 0.0079782065
000170 4e f8 c0 3d 4b c0 6d 3d e9 89 20 3d 71 3c 8d bc
       0.0942236 0.058044713 0.03919402 -0.017240735
000180 59 82 a1 bd 71 35 af ba d4 3c 10 bc 60 f7 83 bd
       -0.0788619 -0.0013367367 -0.008803565 -0.064436674
000190 b9 d3 ba bc b1 4b 19 bc 78 72 92 bd b5 13 9f bc
       -0.022806035 -0.009356425 -0.071507394 -0.019418577
0001a0 49 85 09 bd 4d 8a 64 bd 0b 20 7f 3c ac e6 68 3d
       -0.033574376 -0.055795956 0.0155716045 0.05686061
0001b0 47 99 61 3d ff 48 87 3d 55 72 4a 3e 2b cf 3f 3a
       0.055077817 0.0660572 0.19770177 0.0007316942
0001c0 75 cd da 3c 67 40 0d 3e 7b bf 1a 3c e7 9b d2 3d
       0.026709298 0.13794099 0.009445067 0.10283642
0001d0 6b d9 05 3e c8 25 8f be a1 23 5e be 62 f0 8b bd
       0.1307122 -0.27958512 -0.21693279 -0.06832959
0001e0 1b 1e 27 be 3c 87 6c be a3 36 56 be 7c 26 6d be
       -0.16320078 -0.23098463 -0.2091928 -0.23159212
0001f0 7c 10 34 be 1c db e3 bd f6 c5 ae be 65 f2 87 be
       -0.17584413 -0.11125776 -0.34135407 -0.2655212
000200 b5 5f 90 be 68 c4 a8 be af 27 80 be f3 ba ab be
       -0.2819802 -0.32962346 -0.25030276 -0.33541068
000210 86 c6 86 be b2 94 aa be 45 a9 c2 be 6d da 41 3c
       -0.26323336 -0.3331657 -0.38019767 0.011831862
000220 8b 9d ef bc 12 fe ae ba b3 e5 58 bd 1d 92 13 3c
       -0.029249927 -0.0013350865 -0.052953433 0.009007004
000230 f3 07 4d 3d fc de 5e 3c 9a 79 76 bd 86 2f 5a 3d
       0.05005641 0.013602968 -0.060174562 0.053267978
000240 ed 30 f7 3d d8 2c bd 3d f2 45 c8 3c 9b 14 9a 3d
       0.12069879 0.09237069 0.024447415 0.075234614
000250 b7 ef bf 3d 98 1c f1 3d 24 c6 eb 3d 03 86 a1 bc
       0.09371894 0.11773032 0.11512402 -0.019717222
000260 8f cd 8e bd 8b 0a 03 3d e2 a9 c3 3c 6e 64 05 bd
       -0.06972801 0.031992476 0.023884717 -0.03256648
000270 32 b8 0d 3c d1 99 87 bc 3c 12 da 3d 72 94 09 3e
       0.008649873 -0.016552838 0.10648009 0.13435534
000280 43 5c c0 3d d0 34 b9 3d 13 3b c5 3d 7c 36 b3 3d
       0.093925975 0.09043276 0.09630408 0.087506264
000290 13 7d b2 3c 67 86 49 3d b9 97 e5 3d 71 cc f1 3b
       0.021788156 0.04920044 0.112105794 0.0073791076
0002a0 c7 f3 6c 3d f0 45 d2 bc 1d 12 c3 bd d0 19 ab bd
       0.05784967 -0.025668114 -0.09524939 -0.08354533
0002b0 42 45 02 3d 76 71 04 bd e4 c9 24 3e a9 87 37 3d
       0.03180433 -0.032334767 0.1609264 0.04480711
0002c0 75 f1 d5 3d 6a 41 f4 3d 18 e4 39 3e a1 92 31 3e
       0.10446445 0.11926539 0.18153417 0.1734109
0002d0 95 64 25 bc ac c1 20 3c 61 23 51 3c 87 0e 37 3d
       -0.010094781 0.0098118 0.012764783 0.04469159
0002e0 24 50 60 3b 89 52 21 3d c1 0c 0c 3c e1 d4 07 3c
       0.0034227455 0.039385352 0.008547963 0.0082905
0002f0 02 ba c4 bc 5c 83 c2 3d f0 61 f9 3c 2e 21 e8 3c
       -0.024014477 0.09497711 0.030442208 0.028336134
000300 32 9f d5 3d a7 29 85 3d 14 29 66 bd db 36 ce 3d
       0.10430755 0.06502085 -0.05619152 0.100690566
000310 56 27 05 3d 4f 42 06 bd a0 60 2c 3d 09 4f 5f bc
       0.032508217 -0.03277808 0.042084336 -0.013629683
000320 86 f8 f8 bd dc 9d c9 3d 9e 4a 57 3d 15 ed 57 3d
       -0.12156777 0.098445624 0.052561395 0.052716333
000330 9c 29 21 3e e7 f8 f1 3c 18 cb 5e 3d 34 a2 c7 bd
       0.15738529 0.029537631 0.054392904 -0.09747735
000340 6e bb a4 bd e3 f7 7c 3c 31 b4 31 3d 25 b4 e3 bd
       -0.08043562 0.01543996 0.043384735 -0.11118344
000350 60 83 50 3d 82 80 0c bd fc 37 b9 bb b8 05 e2 3c
       0.05090654 -0.034302242 -0.005652426 0.027590618
000360 51 da f4 3e 86 4b e6 3e 31 c0 a7 3e 0c 72 b4 3e
       0.47822812 0.44979495 0.32763818 0.3524326
000370 e6 70 f3 3e 82 c0 b7 3e c8 52 84 3e 55 c5 4e 3e
       0.47547072 0.3588906 0.25844407 0.20192464
000380 4f bc 48 3d a4 e2 03 be 93 62 a4 bd c4 5c 02 be
       0.04900771 -0.12879425 -0.08026614 -0.127307
000390 82 0e 21 bd df e3 bc bc 95 c3 a8 bd d1 4a 49 3d
       -0.039320476 -0.023057876 -0.08240429 0.049143616
0003a0 ce 1c 23 3d c5 84 b9 3d a3 b5 28 3d 65 dc 80 3d
       0.039822392 0.09058527 0.041188847 0.06292037
0003b0 e2 92 7d bd 19 93 46 bb fc c7 fe 3c 4f 6d 1c 3d
       -0.061907656 -0.003030008 0.03110122 0.038190182
0003c0 a6 de be 3d b9 be e6 3d c3 2a 8c bc bb a4 d2 bd
       0.093198106 0.11266846 -0.017110234 -0.10285326
0003d0 35 14 f9 bd fd f4 47 bd c1 d5 9d bd f2 5b 2e be
       -0.12162057 -0.048817623 -0.07706786 -0.17027262
0003e0 5a 39 9c bd 01 b1 50 3d 9a 0c ec bc 09 80 a8 3d
       -0.076281264 0.050950054 -0.028814603 0.08227546
0003f0 90 30 22 3d af 60 34 bc f2 2f bf 3d dd ec cd 3d
       0.039597094 -0.011009379 0.09335317 0.10054944

layer2.0.bias f4 [32]
000000 ef 8e a4 3d 22 73 87 3d 03 e3 c5 3c 60 aa 4e 3d
       0.08035075 0.06613757 0.0241561 0.05045545
000010 3d bc 94 bd 5a 15 76 3d 9a a0 88 3d 7b 90 34 bd
       -0.07262466 0.060078956 0.06671257 -0.0440831
000020 02 ea 95 3d eb a6 9c bd 73 2c 93 bd 7a 9b 02 bd
       0.07320024 -0.076490246 -0.071862124 -0.031886555
000030 9e 14 97 bc 02 db 3e bd 95 a8 83 3d 70 1d 72 3d
       -0.018442448 -0.04659558 0.06428639 0.059110105
000040 7a b7 8b bd 9e a4 7d 3d 76 b0 29 bd 29 50 94 bc
       -0.06822105 0.06192457 -0.041428052 -0.01810463
000050 b5 60 bb 3c 74 b1 15 3c aa 28 ed 3c ac 32 44 bd
       0.022873262 0.009136546 0.028950054 -0.047899887
000060 88 9e f1 bc 24 fe 22 3c 0a 0f 1e 3d 13 a4 e0 3c
       -0.029494539 0.009948287 0.03858856 0.027421987
000070 b2 bb b4 3d c0 80 e9 3c c5 82 32 bd 25 da 4b bd
       0.088248625 0.028503776 -0.043581743 -0.049768586

layer2.1.weight f4 [32]
000000 b8 81 81 3f bb 14 6e 3f a1 27 7f 3f f2 c9 85 3f
       1.0117712 0.9300038 0.99669844 1.0452254
000010 05 6f 98 3f 72 4d 6b 3f 7a c0 80 3f 17 b2 57 3f
       1.190888 0.9191505 1.0058739 0.8425612
000020 70 60 80 3f f4 8b 94 3f 96 61 61 3f 89 f9 6b 3f
       1.002943 1.160521 0.8803953 0.92177635
000030 d6 1b 6e 3f d5 fe 86 3f d1 bd 94 3f 0d d6 74 3f
       0.93011224 1.0546519 1.1620427 0.95639116
000040 31 6d 5b 3f c6 d5 72 3f 10 7b 66 3f 6c 22 81 3f
       0.8571349 0.9485744 0.9003153 1.008863
000050 e8 97 8c 3f b5 47 89 3f f1 37 6d 3f 5a c2 9f 3f
       1.0983858 1.0725008 0.92663485 1.2481186
000060 5b f5 5d 3f 37 f3 82 3f ed 92 90 3f 05 d8 7a 3f
       0.8670251 1.0230473 1.1294838 0.9798587
000070 a1 c8 53 3f e6 43 79 3f 51 f1 71 3f c3 a8 90 3f
       0.8272801 0.9736923 0.94508845 1.1301502

layer2.1.bias f4 [32]
000000 63 3e 99 bd 81 6c 9b be d1 35 39 3d 16 17 23 bb
       -0.074826024 -0.3035622 0.04521734 -0.0024885586
000010 56 69 1a 3e 3f fd 5f be ca 32 57 be 1c 63 82 be
       0.15079245 -0.2187395 -0.21015468 -0.2546624
000020 76 8d 16 be ec bd 0f be d6 7f ba bd c9 db ba be
       -0.147024 -0.14037293 -0.09106414 -0.36495808
000030 78 64 00 bf 81 8b d5 bd 05 50 ed bd 5f 67 1d be
       -0.50153303 -0.10426999 -0.11587528 -0.15371464
000040 f5 88 c5 bd 31 a1 94 be d6 7e 9e be 8e 9f 86 be
       -0.09645263 -0.2902923 -0.30956143 -0.26293606
000050 d9 ed a6 be 6f db 82 be 5c f3 55 be 36 6a ba bd
       -0.32603338 -0.2555804 -0.20893615 -0.091022894
000060 24 1b 21 be 21 4f 6f be 7c 3f 9e be d7 61 7f be
       -0.1573301 -0.23370029 -0.3090781 -0.24939667
000070 6d 9f 1c 3b 4d fb ba bb 25 da cc be 23 d5 05 bd
       0.0023898736 -0.005706227 -0.4001018 -0.032673966

layer2.1.running_mean f4 [32]
000000 bf 46 c0 bf e4 da 22 40 c8 fc 83 c0 c4 f2 0e c0
       -1.502159 2.54461 -4.124607 -2.2335672
000010 35 85 2b c0 4a bc 64 bf 54 15 ad bf 52 ed cd be
       -2.6800053 -0.89349806 -1.3522134 -0.40220124
000020 68 16 0f c0 28 e0 87 c0 56 da f2 bf 1e 62 af bf
       -2.2357426 -4.246113 -1.8972881 -1.3701818
000030 93 a7 5d 40 bf 09 c1 bf f6 1f 0e c0 19 38 af 3f
       3.463353 -1.5081099 -2.2207007 1.3688995
000040 76 3c f8 bf b9 37 b1 bf 19 d4 95 3c 3b ba e2 bf
       -1.9393451 -1.384513 0.018289613 -1.7713083
000050 c6 78 46 c0 7e ff 31 c0 ce 6f 9a bf 9d 90 8c c0
       -3.1011214 -2.781219 -1.206537 -4.392653
000060 a7 9f 83 3f a8 de 48 3f 34 2d 18 c0 c6 0b 9b bf
       1.0283097 0.78464746 -2.377759 -1.2112968
000070 07 f3 49 bf 99 2f a0 bf 70 b7 3d 40 60 70 c3 3e
       -0.78886455 -1.2514526 2.9643211 0.38171673

layer2.1.running_var f4 [32]
000000 df 3e 47 41 4a 2f 18 41 df 22 03 41 e5 18 67 40
       12.452849 9.511545 8.196013 3.6108944
000010 7a cc ee 40 52 ea ec 40 7f 75 f6 3f d8 38 c8 3f
       7.4624605 7.4036036 1.9254607 1.5642347
000020 2a 7a e7 40 40 61 9e 40 56 5a 10 40 49 33 07 40
       7.2336626 4.9493713 2.2555137 2.1125052
000030 71 f1 a3 40 06 8d 85 40 8e 34 8a 40 5c 38 4c 40
       5.123223 4.173465 4.3189154 3.19094
000040 9f 6b 90 40 7c 93 2d 40 32 92 fe 3f b2 77 7b 40
       4.5131373 2.7121267 1.9888365 3.9291806
000050 cd 60 20 40 7b 6e f0 40 41 7d 1f 40 02 6b 3a 41
       2.5059083 7.5134864 2.49202 11.651125
000060 4f 4f 38 40 eb 81 34 40 7e 3b 32 40 66 88 b7 3f
       2.8798406 2.8204296 2.784881 1.43385
000070 d6 2e 36 40 15 9a 9d 40 7e 38 ef 40 1b d4 0d 41
       2.8466086 4.925059 7.475646 8.864284

layer3.0.weight f4 [64, 32, 3, 3]
000000 3f e8 af 3d ee 82 d7 3d 41 44 39 bd af 0f 51 be
       0.08589219 0.1052302 -0.045231108 -0.20416139
000010 b2 82 b8 3d ec f4 d2 3d 64 77 5c be 82 23 52 3c
       0.09009303 0.103006214 -0.21529919 0.012825849
000020 1f 91 e3 3d c5 46 2c 3e 81 70 51 3e c0 71 a0 bc
       0.11111664 0.16823871 0.20453073 -0.01958549
000030 1e a4 98 3c 8b 6c 44 3e 7a 5d 16 3e 71 ad 8c bd
       0.018632945 0.19182031 0.14684096 -0.06869019
000040 cd 05 e6 3d 87 2c 6c 3e 0f 17 36 bc 9a 23 3e be
       0.11231575 0.23063861 -0.011113896 -0.18568268
000050 9a d7 d1 bd f1 70 a2 bd 56 59 10 be 15 c6 f7 bd
       -0.10246201 -0.07931698 -0.14096579 -0.12098328
000060 6f 83 ad bc 62 96 98 bc b3 12 c0 bd 2b dc d0 bc
       -0.021180836 -0.018626396 -0.093785666 -0.02549561
000070 50 77 b4 bd 41 70 b4 bc 35 c8 32 3e df 1b 50 bd
       -0.088118196 -0.022026183 0.17459185 -0.05080783
000080 9d 0c 77 bd d7 c7 1a 3d 45 e3 c5 3d c9 a5 4a 3e
       -0.060314763 0.03778824 0.09662489 0.19789805
000090 b6 30 1c 3e 9a a6 a8 3d 67 e3 7a bd 17 6d 9c 3d
       0.15252957 0.08234902 -0.061252024 0.07637995
0000a0 75 10 9c 3d 33 36 ab bc 1e ea dd 3c 5d f7 85 3d
       0.076203264 -0.020899868 0.027089175 0.065413214
0000b0 e5 2a 97 bc f9 93 9a bd 4e 52 04 3d d9 c1 38 3e
       -0.01845307 -0.07547755 0.032305054 0.18042697
0000c0 9c 56 2e bd 3e ff b5 bc 40 a4 18 be d5 a0 59 3e
       -0.042563066 -0.022216436 -0.14906406 0.21252759
0000d0 21 78 48 bd 52 18 21 bd 48 fb c2 3e 3c 0e 0a 3e
       -0.04894269 -0.039329834 0.38082337 0.13481992
0000e0 c7 0d 4b be ea fc b0 3d 1f 04 7d 3e 95 4d 28 3e
       -0.19829474 0.086419895 0.24708603 0.16435845
0000f0 70 6e ab 3c 9a 2e ec 3d 2a dd a2 3e 77 ab ea 3d
       0.020926684 0.11532326 0.3180936 0.114584856
000100 b0 59 4b bc d6 e7 34 bd 54 1f ee 3d 3e ec 53 3e
       -0.01241152 -0.04416641 0.11627069 0.20695588
000110 0b 3a c0 3d a1 8d 33 3d 67 04 d2 3d ce 52 56 3e
       0.09386071 0.04383624 0.10254746 0.20930025
000120 ea 08 a0 3c 49 02 d5 bd 4c 93 10 3c 19 de 40 3e
       0.0195355 -0.104008265 0.008824181 0.18834724
000130 b6 c5 ca 3c e1 2c ca bb b2 e1 02 3e 07 fa b6 3d
       0.024752479 -0.0061699008 0.12781408 0.08934408
000140 94 a2 05 be 8b 7a 60 3c 69 55 75 bb 28 70 0a 3e
       -0.130503 0.0137010915 -0.0037434942 0.13519347
000150 09 59 78 3c 66 10 8b bd e3 db e7 3d 95 a9 f4 bc
       0.015157946 -0.06790237 0.11321237 -0.02986602
000160 38 b7 dc bb ae d9 1e 3d cf 15 07 3e 46 a3 3f 3c
       -0.0067357086 0.038781814 0.13191913 0.011696642
000170 61 c7 83 bd c9 e8 57 bc 8b 09 38 3d ec 65 bd 3d
       -0.06434513 -0.013178059 0.044930976 0.09247956
000180 82 15 df bd fb 1e 23 39 1a a3 18 3e 79 1e cc bb
       -0.10892774 0.00015556432 0.14905968 -0.0062292186
000190 09 87 66 3d e7 9b 45 3d 25 e5 90 3c d9 af 08 3d
       0.056281123 0.048244383 0.01768739 0.033370826
0001a0 5a a4 cc 3d 04 19 92 3d 0d a4 2e 3e d6 79 ad bd
       0.09992285 0.071336776 0.17054768 -0.08470504
0001b0 8c 61 72 3d a5 d3 88 bd c2 b6 44 3d 8e 27 4b be
       0.05917506 -0.06680993 0.048025854 -0.19839308
0001c0 04 1c 8b 3c 8b bd 36 be 6a 79 b8 3d bf c8 74 3b
       0.016981132 -0.17845742 0.09007533 0.00373511
0001d0 1a c4 8e bc 9d 00 02 bd 4a 55 9f bc fe c4 1e 3e
       -0.017427493 -0.031738866 -0.019449849 0.15504834
0001e0 3a 8a 2b 3c cc 1f 21 be b2 8e f7 3d 37 c2 68 3d
       0.0104699675 -0.15734786 0.12087764 0.056825843
0001f0 40 84 c1 bd 5d 86 5c bc af 94 70 3c 99 57 34 3d
       -0.09449053 -0.013459769 0.014683886 0.044028852
000200 9b 63 92 3d 57 a7 54 be 32 0c fc bc 60 68 1d 3e
       0.071479045 -0.2076696 -0.030767534 0.15371847
000210 91 51 07 be 3d a3 31 be 92 20 8e bc a2 9e b3 3d
       -0.13214709 -0.17347427 -0.017349515 0.08770491
000220 34 b4 b9 3c 4b d4 5c 3e 33 69 e6 3c 2c 6b f3 3d
       0.022668935 0.21565358 0.028126335 0.11885676
000230 11 3b 8b 3b 8d 82 c4 3d b6 dc 03 3e 28 65 e8 3d
       0.0042489846 0.09595213 0.12877163 0.11347419
000240 d5 13 5a 3e 73 e0 7c 3d b7 1b 9b bd 1e 72 80 3d
       0.21296628 0.06173749 -0.075736456 0.06271766
000250 b2 09 21 3d cb 67 fb 3d c2 de 47 3d 66 92 05 3d
       0.039315887 0.12275656 0.048796423 0.03261032
000260 99 f7 a0 bc f8 1c eb 3d 08 cf 81 bd a0 72 f5 3c
       -0.019649314 0.11480135 -0.06338316 0.029961884
000270 47 5d 9f 3d 67 97 9d 3d f7 9f 90 3c 46 f5 24 3e
       0.07781463 0.07694893 0.017654402 0.1610919
000280 74 eb ad 3d 7c f5 26 3c 2e 9d 48 3d fd 1a 91 3d
       0.08492175 0.010190364 0.048978023 0.07085226
000290 e5 2e 61 3c 4a 34 3f be cb 05 1b bd 19 ae 72 bc
       0.013744091 -0.1867229 -0.03784732 -0.014812016
0002a0 36 71 8c bd 80 c6 b2 3d 74 76 e4 3d a0 60 8c bc
       -0.06857531 0.08729267 0.11155406 -0.017135918
0002b0 4b c0 95 3c 32 bf 86 3b 65 4b 43 bd 0b c3 26 3c
       0.018280169 0.0041121477 -0.047679324 0.010178338
0002c0 85 95 78 3d e7 72 f5 3d 8a 20 8d 3d e8 46 bf bc
       0.060689468 0.119848065 0.06890972 -0.02334924
0002d0 00 fd 47 bd 37 99 1d be af a8 d4 bc 3f f9 c5 3d
       -0.048825264 -0.15390478 -0.02595934 0.096666805
0002e0 f8 72 ae 3d 07 c5 e5 bc 58 2c a4 3d a7 85 fa bb
       0.08518022 -0.028048052 0.080162704 -0.007645327
0002f0 0b d9 32 3d df 87 c7 3c d9 67 13 be 10 7f 8d 3d
       0.04366402 0.02435678 -0.14395083 0.06909001
000300 91 b4 dc 3d 53 32 6d 3d a4 6a af bc b2 8c 10 3e
       0.10776628 0.05790932 -0.021413155 0.14116171
000310 e0 3e cd 3d 53 cb 3f 3e eb f4 ea 3d 8f 36 bf 3d
       0.10021758 0.18729906 0.11472496 0.09336578
000320 54 8c 0a be 07 1f 9e bd 29 db 61 bd cc d9 c4 3d
       -0.13530093 -0.07720762 -0.055140648 0.09611854
000330 d7 04 51 bd 3d 7c a9 bd 94 c6 b2 3d 09 39 5d be
       -0.051030006 -0.0827565 0.08729282 -0.21603788
000340 0c 48 03 be 43 3d 89 bd 9e 98 e8 bc a5 39 55 be
       -0.12820452 -0.06701138 -0.028393086 -0.20822771
000350 ba 32 84 be 52 b2 d0 3c 88 09 85 be 03 65 74 be
       -0.2581995 0.025475655 -0.25983834 -0.23866658
000360 2b a2 e1 bd f3 6e 27 be 0b 19 ce ba 98 c2 63 bd
       -0.11017259 -0.16350918 -0.0015724016 -0.0556055
000370 2f a0 68 bd 88 de ea bd e0 bb 05 3e 92 97 a8 3d
       -0.056793388 -0.11468226 0.1305995 0.08232035
000380 c0 0f 17 3e c2 64 24 bc 2f ff 12 bd 0f 56 f1 3d
       0.14752102 -0.010033788 -0.035887893 0.117839925
000390 0e de 86 bd de be 19 bd b1 b4 35 be c1 ae 69 bc
       -0.06585322 -0.03753554 -0.1774471 -0.014262856
0003a0 c7 fc e7 bd bd 27 7c bd 53 6b 8e bd 1a 2b 19 3e
       -0.1132751 -0.061561335 -0.06954064 0.14957848
0003b0 4c 77 18 3e b1 09 5d 3d 35 ed 69 3d 1a 86 95 3e
       0.14889258 0.05396432 0.057110984 0.29203874
0003c0 94 5e 11 bc 0b 16 11 bc fb c6 35 bc a8 14 ab bd
       -0.008872647 -0.008855353 -0.011094804 -0.08353549
0003d0 89 b6 9b 3d 09 e2 2f 3e 9c a4 52 3d 08 9f c4 bd
       0.07603175 0.1717607 0.051426515 -0.09600645
0003e0 3c ec 74 3d d6 b1 ad 3c dd 08 34 3d 88 40 5b bc
       0.059795603 0.021202963 0.043953765 -0.013382085
0003f0 05 a7 46 3d 47 3d 5a 3d 79 af 0d 3e 77 48 63 bd
       0.048499126 0.053281095 0.13836469 -0.05548903

layer3.0.bias f4 [64]
000000 ab 82 c0 3c d1 09 0c 3c 07 19 6e 3d 47 2d 56 bc
       0.023499807 0.008547262 0.058129337 -0.013072318
000010 a5 53 6e 3d 0a 93 52 3d b1 72 8d bc 4e 5d 47 bd
       0.05818524 0.05140976 -0.017266603 -0.048672967
000020 a6 36 b6 bb a2 b8 ec 3c 41 e6 26 bd fc 7d 29 3d
       -0.005560714 0.028896634 -0.04074693 0.041379914
000030 af a5 25 3d c6 c1 fb bc 92 42 b7 3c fe 68 7c 3d
       0.04044121 -0.030732047 0.02237061 0.061623566
000040 4e b3 be bb 7a d2 91 bc 9b 3c 68 3d 8c 14 52 3d
       -0.0058197146 -0.017800558 0.056698423 0.051289126
000050 43 f1 52 3c 46 7a 41 3d db af 3f bc a6 e7 a0 bc
       0.012874904 0.04723575 -0.011699642 -0.019641709
000060 5b 46 7a 3d bd 0e 39 bb 3c d8 b3 3d 93 63 1e bd
       0.061102252 -0.0028237544 0.08781478 -0.03866918
000070 40 7f 3a 3d 7e 7a 12 3d e5 de 0f 3d 66 10 cc 3c
       0.04553151 0.03576135 0.03512468 0.024910163
000080 61 41 25 3c 4a 14 04 bc 18 99 ac 3c 97 e8 f8 bc
       0.010086388 -0.008061478 0.021069095 -0.030384345
000090 c8 37 ee bb 34 50 a8 3c 9e 72 82 3d 1c e0 95 3d
       -0.0072698332 0.020546056 0.06369518 0.07318136
0000a0 52 24 ce bc 59 5c a1 bd 00 f1 04 3c 81 d7 2c 3d
       -0.025163803 -0.07878942 0.0081140995 0.042197708
0000b0 05 36 b3 bc f1 aa cc bc 13 e7 0f bc e8 02 08 3b
       -0.021876344 -0.024983855 -0.00878312 0.0020753685
0000c0 15 f7 21 3d 30 d2 b7 3a 22 24 3a bd 52 aa 49 bd
       0.039542276 0.0014024433 -0.045444615 -0.049234696
0000d0 90 bc 6f bc 06 87 cf 3b 04 f2 9d bc 87 97 84 3d
       -0.014632359 0.0063332347 -0.019280441 0.06474214
0000e0 42 04 42 ba 41 9d 3b bc 89 e3 0c bb 50 90 9a bd
       -0.0007401147 -0.0114510665 -0.0021497926 -0.07547057
0000f0 26 a8 be bc f3 13 37 3d 72 c5 49 bd 5f 38 08 3d
       -0.023273539 0.04469676 -0.049260564 0.033256885

layer3.1.weight f4 [64]
000000 63 c1 cc 3f f7 89 d1 3f 6c 61 d6 3f 25 9e e1 3f
       1.5996517 1.6370229 1.6748481 1.7626387
000010 0b a5 c0 3f 4a d4 d8 3f 12 a0 e6 3f 12 5d c5 3f
       1.5050367 1.6939785 1.80176 1.5419028
000020 75 ab d9 3f 42 d7 f2 3f f8 3a ba 3f 6b 71 dd 3f
       1.700545 1.8971941 1.4549246 1.7300237
000030 31 c0 d2 3f 73 b3 d2 3f e2 76 f4 3f 81 30 c4 3f
       1.6464902 1.6461014 1.909878 1.5327302
000040 e5 41 ef 3f c7 57 c3 3f ea a3 d1 3f ba de e1 3f
       1.8691984 1.5261163 1.6378148 1.7646096
000050 b8 4a d0 3f bb 0e ef 3f d1 30 c6 3f 83 0b c6 3f
       1.6272802 1.867637 1.5483648 1.5472263
000060 c8 ce bb 3f 84 bd f2 3f 31 c8 de 3f 25 12 bd 3f
       1.467248 1.8964086 1.7404844 1.4771162
000070 3b 88 c7 3f 80 a0 c5 3f c6 90 e7 3f d4 f4 da 3f
       1.5588449 1.5439606 1.8091056 1.7105966
000080 62 e3 c4 3f 08 46 c2 3f ec d6 fd 3f 8f 00 c6 3f
       1.5381892 1.5177622 1.9831214 1.546892
000090 97 ed e3 3f c4 74 d5 3f 6e 25 f2 3f a6 0f c6 3f
       1.7806882 1.6676259 1.8917673 1.5473526
0000a0 1f 42 b6 3f da b8 e2 3f fc dc f0 3f 3f 10 dc 3f
       1.4238929 1.7712662 1.8817439 1.7192458
0000b0 01 16 c4 3f eb 7c d8 3f df e3 b5 3f a7 b2 de 3f
       1.5319215 1.6913122 1.4210166 1.739827
0000c0 6d c7 e4 3f 15 22 de 3f c2 9c d3 3f ec cd cb 3f
       1.787336 1.7354151 1.6532214 1.5922217
0000d0 1f e6 e5 3f ef 81 c0 3f 2a f8 ba 3f 6e 60 f9 3f
       1.7960852 1.5039653 1.4606984 1.9482553
0000e0 f1 26 e2 3f 65 ce e7 3f 11 47 c2 3f 9f d9 c5 3f
       1.7668134 1.8109862 1.5177938 1.5457038
0000f0 36 7d e0 3f 70 ed ee 3f 5f a2 b7 3f b8 04 c8 3f
       1.7538211 1.866621 1.4346427 1.562644

layer3.1.bias f4 [64]
000000 a8 40 84 bd ad 25 66 bd 91 a6 79 3c 02 04 05 be
       -0.06457645 -0.056188274 0.015237466 -0.1298981
000010 36 0a 68 bd 7e bc 03 3e d2 97 8c 3e ab f9 f3 3c
       -0.056650363 0.12864873 0.2745958 0.029782137
000020 a9 9b 6e bd b1 b1 c1 3d a7 35 6c 3d 45 e6 b7 bd
       -0.058253918 0.0945772 0.057668354 -0.08979467
000030 7d c4 f2 b9 ff 79 00 3e 5b bf 06 3d 60 32 c6 3b
       -0.00046304232 0.12546538 0.032897335 0.0060484856
000040 16 b7 05 3e f7 8a 78 3c 86 72 9e bd ae c7 18 3e
       0.13058123 0.015169851 -0.07736687 0.14919922
000050 2b 17 56 3e 17 e9 54 bc 1c b7 ab 3d ed c5 9c bd
       0.20907275 -0.012995026 0.08384535 -0.07654939
000060 c9 97 11 be 8e 60 12 3e a3 b9 3b 3d 63 93 49 bd
       -0.14218058 0.14294645 0.045831334 -0.049212825
000070 6f bd 4f bd 6a 53 65 bc 0d 2d c3 3d 6e 1a fc bd
       -0.050717767 -0.013996938 0.09530077 -0.123097286
000080 81 da a3 bd 23 b4 8f bd 94 8e 18 3d 8a 3f b4 bd
       -0.08000661 -0.0701678 0.037245348 -0.088011816
000090 4e 9f 08 3e d5 79 3b bd a3 f7 38 bd 05 5c 8b 3d
       0.1334202 -0.045770485 -0.04515804 0.06804661
0000a0 49 29 73 bd 65 a7 6b 3e b1 00 6f 3d 82 18 98 3d
       -0.059365544 0.23013075 0.05835027 0.074265495
0000b0 df 1d f5 3b d0 2c 01 be a4 18 63 bd 3d 4b 30 bc
       0.0074803676 -0.12614751 -0.05544342 -0.010760126
0000c0 56 19 df 3d ad cb 06 3e c4 7e 62 3d 41 bf 3b 3c
       0.10893504 0.13163634 0.055296674 0.011459173
0000d0 9b 92 03 3e 12 07 44 bd a7 a3 cb bc 4e 40 81 3c
       0.12848894 -0.047858305 -0.024858309 0.015777733
0000e0 39 ed 8f 3d 9c 98 48 3d f2 8b 45 3b e8 e7 2a 3c
       0.070276685 0.048973665 0.0030143228 0.010431267
0000f0 54 be 80 3d 4c 39 b7 bb 72 16 ed bd f6 b9 46 3b
       0.06286302 -0.005591547 -0.11576547 0.0030323244

layer3.1.running_mean f4 [64]
000000 0f 7e 26 40 1b cd 21 3e 79 c1 38 40 60 9d 4b 3f
       2.601444 0.15800898 2.8868086 0.7953701
000010 fb 07 69 3f ba 9b 99 3f aa ac 5f c0 38 f7 b5 3e
       0.910278 1.2000649 -3.4949136 0.35540175
000020 a3 a8 41 bf d8 7b b4 3f d7 8c 91 bf 6f 5a f3 3f
       -0.75647944 1.4100294 -1.1371106 1.9011973
000030 b8 08 dc 3f 90 22 f4 bf aa 3e 29 bf ba d9 42 40
       1.7190161 -1.9073048 -0.6611124 3.044539
000040 7e 2d 09 3e a4 6f 87 be 16 4e a6 3f 3c a4 b8 3f
       0.1339626 -0.26452363 1.299258 1.442512
000050 d0 49 9a c0 fd b7 d6 3f 19 5d 13 be 04 94 33 3e
       -4.8215103 1.6774899 -0.14390983 0.17536932
000060 e1 d3 be 3d 49 be 34 40 f2 01 e4 3f 79 0d 21 be
       0.093177564 2.824114 1.7813094 -0.15727796
000070 8c 0a 92 c0 be 94 34 be 69 58 55 c0 d2 7e ef 3f
       -4.5637875 -0.17634866 -3.3335211 1.8710577
000080 9e 0c 84 bf 55 99 ca 3f 26 df 41 bd f9 2d e9 be
       -1.031635 1.5828043 -0.04733195 -0.45542887
000090 a4 30 95 bf 5b bf cd 3f 14 9e 31 3f d1 c4 46 3f
       -1.1655469 1.6074022 0.69381833 0.7764407
0000a0 68 e6 46 bf 5b 85 38 c0 52 dc ec 3f ee 3e 49 3f
       -0.7769532 -2.8831394 1.8504736 0.7861165
0000b0 f9 ea 88 3f b3 b4 0d 40 93 35 f7 3f 7c 7f b5 3f
       1.0696708 2.214154 1.9313225 1.417953
0000c0 e8 41 7b be 2c cd b2 be 3e 40 8f 3f 3c 7b 04 3f
       -0.2453686 -0.3492216 1.119148 0.5175054
0000d0 f5 0a 19 3f 8d 57 7d 3f a1 bf ab 3f 92 bd a2 3f
       0.59782344 0.98961717 1.3417856 1.2714102
0000e0 ee e5 cc 3f a8 01 93 be 72 09 fd bf 1b 7c 18 40
       1.6007669 -0.287122 -1.9768507 2.3825748
0000f0 62 f6 a2 3f 3e 06 0a 40 be 84 39 40 ed f4 73 be
       1.273144 2.156631 2.898727 -0.238239

layer3.1.running_var f4 [64]
000000 ec a5 80 40 44 69 29 40 82 e8 9a 40 36 5d e9 3f
       4.020254 2.64705 4.8408823 1.8231571
000010 aa 6c b9 40 fe c3 89 40 39 59 27 41 2d 0a 3e 40
       5.7945147 4.305175 10.459283 2.969371
000020 83 26 31 40 4d 87 7a 40 ef bb 15 40 94 0f 3c 40
       2.7679756 3.914508 2.3395956 2.9384508
000030 c3 2e 1a 40 b2 87 bf 40 34 30 19 40 b1 09 43 40
       2.409104 5.9853144 2.393567 3.0474665
000040 0a b1 3c 40 af e2 0f 40 24 16 c4 40 87 fa 59 40
       2.9483056 2.2482107 6.1277027 3.405916
000050 2e 56 14 41 01 56 04 40 e6 fd 4b 40 40 0c 85 40
       9.27104 2.0677493 3.1873717 4.1577454
000060 4d eb 32 40 ea a7 9b 40 da 59 32 40 4d a7 6d 40
       2.7956116 4.8642473 2.786734 3.7133362
000070 a1 f4 8f 40 5d c0 0a 40 0d 2b 65 40 04 e1 06 40
       4.498612 2.167991 3.5807526 2.1074839
000080 a4 74 72 40 68 7b 79 40 82 77 fe 3f 54 87 2a 40
       3.7883692 3.8981571 1.9880221 2.6645098
000090 08 37 85 40 cc e2 4a 40 c4 5c 1e 40 8e 9b 3c 40
       4.1629677 3.1700926 2.474412 2.9469943
0000a0 a7 e6 c7 40 95 84 8d 40 ca 36 43 40 49 ad fa 3f
       6.246906 4.4224343 3.050219 1.9584132
0000b0 53 f9 38 40 d6 c2 27 40 6b da 93 40 97 cc 61 40
       2.8902175 2.6212668 4.6204123 3.5281122
0000c0 ef 9d 32 40 bd 8e 6d 40 f6 24 4f 40 93 96 6e 40
       2.7908895 3.711837 3.236631 3.7279403
0000d0 d1 11 2d 40 f8 94 1c 40 a6 46 47 40 49 8a 33 40
       2.7042124 2.4465923 3.113687 2.8053153
0000e0 01 15 15 40 f3 a8 68 40 23 97 6c 40 36 34 2f 40
       2.329407 3.6353118 3.6967247 2.7375617
0000f0 61 00 40 40 65 2b 9e 40 7e 35 0f 40 14 4c 50 40
       3.0000231 4.942797 2.23764 3.2546434

fc1.weight f4 [10, 576]
000000 ff 48 8a bc e7 7e 47 3d 46 ac a5 3e 5a 47 38 be
       -0.01688051 0.048705008 0.32357997 -0.17995968
000010 db 98 82 bd a6 7d 16 be 2e 70 74 bd 33 76 25 be
       -0.06376811 -0.14696369 -0.059677295 -0.1615837
000020 f9 e9 81 be 7b 5a bb 3c ca 40 20 3d 54 ad 9f 3d
       -0.2537382 0.022870293 0.039124288 0.077967316
000030 3c 5d 64 ba 5b b3 12 bb b0 11 b9 3e be 83 7b bd
       -0.0008711403 -0.0022384736 0.36146307 -0.061404936
000040 c9 3e 1e bb 7c 5a ab bd e1 22 38 39 22 4f a6 3c
       -0.002414631 -0.08366868 0.00017560601 0.020301405
000050 c8 e9 47 3e 85 66 fe 3c ca 1b 1c 3c 9e 40 6a bb
       0.19522774 0.031054744 0.00952811 -0.0035744081
000060 f8 4d b5 3d 64 26 eb 3d c8 36 48 3c 49 b7 b0 3d
       0.08852762 0.11481932 0.012220092 0.08628709
000070 19 e2 69 bd 91 30 85 3e 24 61 99 bc 28 47 6b 3d
       -0.05710039 0.26013616 -0.018723078 0.057440907
000080 62 6d 8e 3e c1 c2 a5 be 0d e0 16 bd 76 ad c3 3c
       0.27817827 -0.32375148 -0.036834765 0.023886424
000090 51 63 78 3e da 78 ee 3d ab 8d b1 3e d9 2a c8 3d
       0.24256636 0.11644144 0.34678397 0.097737975
0000a0 23 2e d9 3c 37 d1 9a 3e a9 c5 32 3e 61 fd 99 3e
       0.026511258 0.30237743 0.17458214 0.30076125
0000b0 b6 ca 94 3e c6 5a be bd f4 9c bd bc 0c 97 ee bd
       0.29060906 -0.092946574 -0.02314613 -0.11649904
0000c0 60 a7 1a bd c5 34 a8 3d 82 0d 2e 3e 71 87 c1 3d
       -0.037757277 0.0821319 0.1699734 0.094496615
0000d0 f5 9c 05 3e cc ee ab 3d dc e8 8f bd 42 43 b2 bd
       0.13048156 0.08395156 -0.07026836 -0.08704235
0000e0 3a 62 0e 3c 5c 48 45 bd 2b 87 46 3e 00 04 89 3d
       0.008690411 -0.04816471 0.193875 0.06690216
0000f0 56 d8 a9 3d a5 1d e9 3d ce e2 0e 3e 9f 15 47 3c
       0.08293216 0.11382607 0.13953707 0.012151151
000100 dd bf df 3d 94 21 e5 bd d4 7f 5e 3e 52 d2 32 bd
       0.10925267 -0.11188045 0.2172845 -0.04365761
000110 29 6c 50 3d d6 3f 36 3e 8c 79 73 bd bc 4f 77 be
       0.0508844 0.17797789 -0.059442088 -0.2415151
000120 3a 85 94 bd 5f 18 7c 3e 01 eb 90 bd c3 6a a0 bd
       -0.072519735 0.24618672 -0.070760734 -0.07832863
000130 10 a2 b3 bd e7 31 a8 bb dd 22 a6 bc 05 18 61 3e
       -0.08771145 -0.005132902 -0.020280296 0.21981819
000140 0b 6c c3 3e f5 13 43 3e 40 85 8d be 91 72 00 bd
       0.38168368 0.19050582 -0.27640724 -0.03135926
000150 64 48 93 3d 7a 43 b4 3d 6c c4 08 3c fc c6 a1 3e
       0.07191542 0.08801933 0.008347612 0.31597126
000160 95 ce 51 3d de 0d cf bd 8b 47 11 be 43 f7 e6 bd
       0.051222403 -0.10110067 -0.14187448 -0.1127763
000170 66 bc 08 be 71 aa d2 bd 36 c1 bc bd 2c 50 92 be
       -0.13353118 -0.10286415 -0.092165396 -0.2857679
000180 dc 83 dd 3d fb bf b3 3d 54 88 cd bd c0 e1 8e 3e
       0.10816166 0.08776852 -0.10035768 0.2790661
000190 7d a5 29 3e 8a bb 2b 3e 20 76 bc bc f2 f5 87 3e
       0.16567035 0.16770759 -0.023005545 0.2655483
0001a0 b5 09 29 3e cb 7a 3f be 26 87 1b be 2b ac 78 bd
       0.16507609 -0.18699186 -0.15188274 -0.060711067
0001b0 b1 9b 79 be 58 8b 27 be a9 a9 4b ba 4c 02 04 be
       -0.24375798 -0.16361749 -0.0007769117 -0.12891501
0001c0 fe 7f fd bc f9 d0 15 3d a8 df 4c bd 5d 62 3b be
       -0.03094482 0.036576245 -0.050017983 -0.18299241
0001d0 64 f8 cb 3e ac 56 62 3d 5d af d0 3d 98 44 5d be
       0.39837945 0.055258438 0.10189698 -0.21608198
0001e0 b5 4a 0a be c6 0b 7d be ea b8 3a be a7 10 26 bc
       -0.13505061 -0.24711522 -0.18234602 -0.010135806
0001f0 e5 69 47 bd cb d1 03 3e 34 0c 37 3d 88 5e 01 3e
       -0.048684973 0.12872998 0.044689372 0.12633717
000200 06 6d ca bd 0d ee 4b bd 13 c6 4c be ca 53 1f 3c
       -0.09884076 -0.04978757 -0.19997434 0.009724567
000210 5c 79 47 3e 20 28 c2 3c c0 26 f6 bc 59 82 c5 3d
       0.19479889 0.023700774 -0.030047774 0.096440025
000220 8b d1 4d bd 40 4e 75 3c 69 ee 9b 3e cc b0 f2 3d
       -0.050248664 0.01497227 0.3045533 0.118501276
000230 1b 50 6b 3e 01 3f 7c 3c 61 45 46 be e1 71 98 bd
       0.22979777 0.015395881 -0.19362403 -0.07443596
000240 9e 2a 92 bd ab 17 16 be b1 65 a6 bd c3 11 4a 3e
       -0.07137035 -0.14657466 -0.08124865 0.19733338
000250 bb 14 80 3c 01 42 1a 3d 7b f7 68 3e 91 01 35 3d
       0.015634885 0.037660602 0.22750656 0.044190947
000260 ee e7 f1 3d 0a c7 03 3c 5a 4e 22 3b 43 66 2b be
       0.11811815 0.00804306 0.002476594 -0.16738228
000270 a9 ff fd bd f6 da 61 3d 09 d7 e2 bd f8 9b 05 3d
       -0.12402279 0.055140458 -0.11076171 0.032619447
000280 87 2d 7e 3e 58 c8 91 3d 79 d2 81 bd ea 8e 05 be
       0.24822055 0.07118291 -0.063389726 -0.13042799
000290 b1 cf 0b be f1 d1 c9 bd 52 f5 3f be 30 bc de bd
       -0.13653447 -0.09854496 -0.18745926 -0.10875738
0002a0 b9 0e 59 3d 93 90 98 3d 69 08 52 be 35 0f 31 be
       0.052992556 0.0744945 -0.2051102 -0.17290957
0002b0 a5 51 06 be 99 78 74 be 05 e1 8f 3d 47 27 48 3e
       -0.13117082 -0.2387413 0.07025341 0.19546233
0002c0 09 da 14 3e 57 53 21 3e 48 02 2d be bb dd 4b bb
       0.14536299 0.15754448 -0.16895401 -0.0031107503
0002d0 cc 3b e5 3c d3 20 c0 be 8b 9c eb 3d 8f 7f ef bd
       0.027982615 -0.37525043 0.115044676 -0.11694252
0002e0 ed aa 77 3e a9 25 03 be e1 8a d0 bd 5e 88 65 bd
       0.24186297 -0.12807335 -0.10182739 -0.056038253
0002f0 6f b6 c4 bd 95 15 63 3e 77 fd 53 3d ff 9b bb bd
       -0.09605109 0.22176202 0.051755395 -0.09160613
000300 8b ed c0 3d 60 88 63 be 38 32 5c 3e 8b 25 8c 3e
       0.09420308 -0.22219992 0.21503532 0.27372393
000310 28 8c 66 3d 22 5e f6 3d 7c f1 77 3e 90 e0 43 be
       0.056286007 0.12029673 0.24213213 -0.19128633
000320 df 11 46 bd 08 ce 58 be 9a 5f b7 be e9 38 b1 bd
       -0.048356887 -0.21172345 -0.35815126 -0.08653433
000330 dd a9 a9 be f4 3a bd bd 27 e4 37 bd fc 59 97 bd
       -0.33137408 -0.0923976 -0.044895317 -0.0739021
000340 10 ba b5 bd 66 2d 89 bd bc 2d f8 bd d0 be f1 be
       -0.08873379 -0.06698112 -0.12118098 -0.4721589
000350 54 03 1d be 11 f8 96 3b 64 c9 7c bd 3a 53 0a 3e
       -0.15333301 0.0046072085 -0.0617155 0.13508311
000360 2f c3 4f 3e ca 00 80 3e 3b 8a 0e 3e 20 28 24 3e
       0.202893 0.25000602 0.13919918 0.16030931
000370 2d 22 59 3e 2f 4f b0 3d 28 0b 17 be 51 e1 e3 3b
       0.21204443 0.08608853 -0.1475035 0.00695435
000380 c0 db 81 3d d3 9b b7 bd 02 5a 59 be 0e 60 6f bd
       0.06340742 -0.08965268 -0.21225742 -0.058441214
000390 de 14 28 39 de 86 04 3e 0e 9f a7 bc ab eb 45 3e
       0.00016029502 0.12942073 -0.020461585 0.19328181
0003a0 7a e6 99 3e 6c 06 fa 3d 67 5a a1 ba 2f be 95 3d
       0.30058652 0.12208256 -0.0012310267 0.07311665
0003b0 3b 66 45 3e 53 47 22 be 00 ee eb be cd 37 b2 bd
       0.19277279 -0.1584752 -0.46080017 -0.087020494
0003c0 87 c7 22 bd 2b de 0f be 28 13 9c bc 22 d4 ac bd
       -0.039741065 -0.14049594 -0.019052103 -0.084388986
0003d0 5e f1 fd bc 49 02 08 be dd 38 9c 3d 85 f3 01 3d
       -0.030998882 -0.13282122 0.07628033 0.03172638
0003e0 37 1d 3c 3e e0 a4 b5 bc 94 f3 c8 3d a6 03 4c 3d
       0.1837052 -0.022173345 0.09812084 0.049808167
0003f0 d3 b5 1b bc 9e f5 1f bd 36 e2 27 bd 92 ae 85 3e
       -0.0095037995 -0.0390526 -0.040987216 0.2610975

fc1.bias f4 [10]
000000 fc 6d 94 bd f0 7f 4c 3d 56 c0 0a 3d 3c 30 ee 3c
       -0.0724754 0.0499267 0.033874832 0.029075734
000010 01 e2 6c 3c 30 99 1b 3d 11 a4 48 bd 82 0e 42 bd
       0.01445818 0.037987888 -0.04898459 -0.047377117
000020 a0 42 d0 bb a7 c9 b4 3d
       -0.0063555986 0.08827525

fc2.weight f4 [51, 10]
000000 b0 1c b4 3e 5a 90 8a bf 8c 60 65 bf a8 77 77 3d
       0.35178137 -1.0825303 -0.89600444 0.060416847
000010 3e 12 63 3e 08 50 84 bd 0f ca 9d 3d 7a c2 80 3e
       0.22174928 -0.06460577 0.07704555 0.25148374
000020 a0 2f 03 bc 29 19 83 be a6 79 1d 3e 87 82 d2 be
       -0.00800696 -0.25605133 0.15378436 -0.4111521
000030 a7 a0 63 be eb bc 23 be 92 02 86 3e e5 4e 2a bf
       -0.22229253 -0.15990035 0.26173836 -0.66526634
000040 9b fe 6a 3d d4 26 db bd 63 12 be 3e c5 0e d7 3d
       0.057371717 -0.10700765 0.37123403 0.10500864
000050 a4 66 ce be 16 83 ca 3e 65 5a da 3d de 7c 71 3e
       -0.40312684 0.39553136 0.10661773 0.2358279
000060 8e 0b c8 bd 56 75 a4 3e 09 ce 40 bd 7e a9 a7 be
       -0.09767829 0.3212077 -0.04707149 -0.327465
000070 fd 7f 24 bf 74 10 c1 be fa 89 53 be dd a7 d3 3e
       -0.64257795 -0.37707865 -0.20658103 0.41339007
000080 f7 8b b2 be 06 43 79 3e 84 63 11 3e 44 b3 0d 3e
       -0.3487241 0.24341974 0.14198118 0.13837916
000090 81 93 87 3e be 75 57 bf b8 e3 17 bf ae c3 3c bf
       0.26479724 -0.84164035 -0.59331846 -0.73736084
0000a0 57 39 0b bf 15 fb 2d 3e b9 25 a4 3e e4 d6 4d 3e
       -0.5438437 0.16990311 0.3206003 0.20101506
0000b0 53 11 bb 3d 4e e7 0c bf 5c 32 a0 3e df 92 bf be
       0.09134164 -0.5504044 0.3128842 -0.3741674
0000c0 a1 61 a6 be 43 e6 05 bf f0 52 fc 3e 46 ac 7b be
       -0.3249636 -0.52304476 0.49282026 -0.24577436
0000d0 0e 5d 5f be 4b 3d 64 3d cb 41 1a be 24 a8 10 be
       -0.21812841 0.055722516 -0.1506416 -0.1412664
0000e0 98 21 45 3e ac dc d0 be 3d 9d 11 be 5b 29 61 bf
       0.19251096 -0.4079336 -0.14220138 -0.8795373
0000f0 29 10 33 3e 27 32 96 be 7d 3d 61 3d 6d 77 93 3e
       0.17486633 -0.29335138 0.05499028 0.28802052
000100 29 84 1c 3e f2 82 af 3d 2c 6b 98 3c a4 25 5c be
       0.1528479 0.08569898 0.018605791 -0.21498734
000110 aa 44 06 be 43 f1 4c bc e0 9a 09 3e 53 53 50 be
       -0.13112131 -0.012508693 0.13437986 -0.20344286
000120 5b fc 4b bf 00 3b 4c be 93 9e 97 be 2d 7d c5 bd
       -0.7968194 -0.19944382 -0.2961317 -0.09643016
000130 88 a6 b6 bd 7d 9b a3 3e f2 1d f6 b7 cd 4c 23 3e
       -0.08918482 0.31954566 -2.933943e-05 0.15947266
000140 5c f4 86 be db 21 63 3d 3f cb b3 bd 87 a4 8c be
       -0.26358306 0.05545221 -0.087790005 -0.27469274
000150 b8 b8 be bd 1b 57 dd 3e 73 57 6b bf 65 6f bf be
       -0.09312576 0.4323052 -0.9193031 -0.37389675
000160 35 00 92 be 5e cb 91 3e 58 b4 cb bd 32 08 84 be
       -0.28515783 0.2847547 -0.09946507 -0.25787503
000170 5f 28 1c be 4b 60 b1 bd f4 f6 88 bd 00 91 9c be
       -0.15249775 -0.086609446 -0.066877276 -0.30579376
000180 3a ac 17 3e 11 91 cd be b5 50 ec be c8 d9 f7 3e
       0.14811793 -0.4014974 -0.46155325 0.4840834
000190 2c 6b 11 bf 63 a5 5b be 50 21 9a bd 9e ff 86 bc
       -0.56804156 -0.21449809 -0.07525885 -0.01647931
0001a0 6b de a8 bc d7 e2 b2 3e f9 15 80 3d 64 b3 be be
       -0.02061387 0.3493869 0.06254191 -0.3724624
0001b0 a2 e7 87 3e fa a1 b9 be ba 26 47 3e d6 cc 21 3c
       0.2654391 -0.3625639 0.19448367 0.009875497
0001c0 aa 31 42 bd 4e c0 48 bd 89 b6 3f be bf fb 8e be
       -0.047410645 -0.04901152 -0.18721975 -0.27926442
0001d0 b3 d9 89 3e a2 dc 80 bf 05 81 24 3d aa 37 bd bc
       0.26923904 -1.0067332 0.040162105 -0.023097832
0001e0 78 8d 23 be 3b 12 4c 3e 10 27 ae be 39 52 8a be
       -0.15971935 0.1992883 -0.34014177 -0.27015856
0001f0 7c 8b 16 3e f3 45 c9 3c 54 04 d5 bd 03 b2 1e 3d
       0.14701647 0.024569487 -0.10401216 0.038743984
000200 82 fd a6 be ed 4c 74 3e 3c 80 bf be 73 19 f4 be
       -0.32615286 0.2385747 -0.37402523 -0.47675666
000210 ab 9d cc be 53 0d 10 be 3b 74 8b 3d 4c 22 d4 3d
       -0.3996404 -0.14067583 0.068092786 0.10358104
000220 02 22 97 3e a1 12 7a 3e 81 d3 df bc e2 20 34 be
       0.29518133 0.24421169 -0.027322533 -0.17590669
000230 2e 53 08 bd c4 d7 d3 3d ad a2 9d bd 30 c2 fa 3d
       -0.03328245 0.103438884 -0.076970436 0.122440696
000240 51 67 9c be 7f 18 f3 bb 6e 46 b5 bd e7 61 e8 3e
       -0.30547574 -0.0074186916 -0.08851324 0.45387194
000250 e7 e6 cf be 98 89 97 be b2 f7 6a be 1a 5c 23 3d
       -0.40605852 -0.29597163 -0.22946051 0.039882757
000260 4a 7a 38 be 10 a3 73 3e 31 23 86 be df 3d 6c 3e
       -0.180154 0.23792672 -0.26198724 0.23070477
000270 68 5e d1 be 57 48 9e bb 31 70 c8 3e 07 c4 19 be
       -0.4089234 -0.004830401 0.39148095 -0.15016185
000280 d7 e3 69 be 7a f1 63 3e ed 25 c6 3e 73 48 63 be
       -0.2284082 0.22260085 0.3870081 -0.22195606
000290 ce bc 4d bd b1 dc d1 be 50 78 60 be 38 71 b5 3e
       -0.050228886 -0.40988687 -0.21920896 0.35437942
0002a0 7f 5c 3a 3e 5b 14 4a bf 0a 2c c1 3e 5a af a3 3e
       0.18199347 -0.7893731 0.37728912 0.3196972
0002b0 9c 49 27 be f9 51 8b 3d ad c8 28 3e c0 23 97 be
       -0.16336673 0.068027444 0.16482802 -0.29519463
0002c0 bc 3d 64 be 80 69 1a bf 97 eb 74 bd c8 02 05 3e
       -0.22289175 -0.6031723 -0.05979499 0.12989342
0002d0 e7 10 95 bc 52 5d b1 3e 21 6e 72 be c2 e7 7c be
       -0.018196536 0.3464151 -0.23674823 -0.24697784
0002e0 31 fb 92 bc fa 5b c6 be c7 d3 17 bf fc 18 1d 3e
       -0.017942043 -0.38742048 -0.5930752 0.15341562
0002f0 3c 5b d6 3d 3b 16 d3 3d 22 4f e7 3e b7 53 a9 be
       0.1046662 0.103069745 0.4517756 -0.33071682
000300 6b 17 7b bd bd d5 84 3e 3f e9 81 be fd 8e 29 be
       -0.06130163 0.2594432 -0.25373265 -0.16558452
000310 13 5d e5 be e4 4e b8 be 52 39 ec 3e 42 cc bd bd
       -0.44797572 -0.3599769 0.46137482 -0.09267475
000320 59 0a 61 3d a3 51 3c bf 3f 5e 14 3e b0 8d 1b 3c
       0.05494151 -0.7356207 0.14489077 0.00949423
000330 5c 87 29 3e a8 9d 1a bf 24 49 ad be d2 3e e9 be
       0.16555542 -0.60396814 -0.33844864 -0.4555574
000340 24 1c 32 3e 97 33 0e 3f c6 82 0c bf e2 d6 27 3e
       0.17393547 0.5554747 -0.54887044 0.16390565
000350 64 49 00 3f f0 24 fb bd 3e 3f 52 bc 3c a2 9e be
       0.50111985 -0.12262905 -0.012832461 -0.3098315
000360 9f bc 5b bf 75 ad 96 be b8 85 ca be ab e3 b4 3e
       -0.8583469 -0.29429212 -0.39555144 0.35329947
000370 81 48 ce be 8b 0a eb bd 56 fb df 3e 2e c3 3b bc
       -0.4028969 -0.1147662 0.43746442 -0.011460109
000380 16 93 a8 3d 86 82 78 3d bf 77 11 be d3 fc 6d be
       0.082311794 0.06067135 -0.14205836 -0.23240976
000390 09 d9 75 3e 58 38 3a bf 75 a9 cc 3e 23 e0 a6 3e
       0.24008574 -0.72742224 0.39973035 0.32592878
0003a0 b6 4f 29 bf 61 c1 b2 bd a3 4d f6 3d db d3 9a 3e
       -0.66137254 -0.0872829 0.12026527 0.30239758
0003b0 58 ae 92 bf 58 e1 30 be 13 a0 74 be 9b ab 27 be
       -1.1459455 -0.17273462 -0.23889188 -0.16374056
0003c0 16 5f 99 be fa ec 87 be e5 09 ac 3d 41 73 46 3e
       -0.29955357 -0.26547986 0.08400325 0.19379903
0003d0 b6 6c 10 3d a1 16 ea bd ab 28 dd 3d 93 cb 99 3b
       0.035259925 -0.11430097 0.107987724 0.0046934574
0003e0 f4 90 ce 3e 3d 49 4d be 58 e5 3e bf ea fb 42 bf
       0.40344965 -0.2004747 -0.745687 -0.7616564
0003f0 01 6c da 3e a9 3e d0 3c 1e f8 02 bd e3 a6 13 3e
       0.42660525 0.025420504 -0.031974904 0.14419131
