models/checkpoint.pkl (torch, 385954 bytes, 54 tensors)

layer1.0.weight f4 [16, 3, 3, 3]
00000000: f6ba 753e 66d0 523d 7590 06be 2368 ee3c
00000010: 5092 57bd f8f1 bebc 5efa 76be 1b0a 6abd
00000020: 11cb d53d 962a e63d 902f 623e 4915 703e
00000030: cb59 23be 281c 363e 2e92 9e3d be55 813c
00000040: dce6 8ebd a990 083e 54b3 d73c be26 f43d
00000050: 3d2a bdbc 169a 3cbe dc70 d9bd 932f 103e
00000060: 917a 5dbe e678 57bd 202f 663d 917c 36be
00000070: cd43 a43d a61f cdbd 350a 2abd 36e9 05bb
00000080: 6a86 633e 6b6e fbbd bbc2 483b 28c5 313e
00000090: 7c60 4ebe 20ea 5dbe c677 e7bc 75e1 e8bd
000000a0: 33df b83d aba9 4a3d fb39 a23d d00f 163e
000000b0: 39e3 c1bd 49e4 bdbd 4666 84be 6bb3 f63d
000000c0: afd0 e33d 879a fdbc 9bbf d43d 4a35 40bd
000000d0: 94db eebd e88f a7bd 4c1c 50bc 476f 263c
000000e0: f466 863c 9aff 1ebc 84ba b5b8 548e 16be
000000f0: 0f01 293e c507 d9bd 1141 abbd 711a 1bbe
00000100: ea1a abbd afca 14be 50dc 03be a703 9bbe
00000110: 7a9f 753d 8a6d 38be 5577 b8bd c2cf 283b
00000120: 8b60 993d 2c2a 68be d29a 61be 45a7 cd3c
00000130: 7b2c b23d f542 103e 6e36 21be 27be 93bd
00000140: a708 773d d118 1cbe 99d0 7f3d 9866 303e
00000150: a584 50be 4883 6d3d 8f49 b5bd 65b1 8bbe
00000160: 322f aebd 045d 323c a910 cebd b5a5 1c3e
00000170: 9919 fd3d d91d 0ebe 9c81 0dbe d451 75bc
00000180: e3ce 2ebe ff9a d93c 6fe9 60bd e31e 143e
00000190: 29c9 ec3d 7403 20bd d859 433e 9d70 533d
000001a0: b965 9f3d 999c ce3d af51 ecbd 21fb c4bb
000001b0: 51c2 c73d 4d8b 353e 2f45 b6bd 64d5 ad3b
000001c0: b868 b93d 2bfe 2abd 8326 8ebc e3f9 12bd
000001d0: a1be cdbd b430 4c3e 55ae 903c 986f 843d
000001e0: 03b5 c7bd 9c27 b6bd d214 6fbe 8319 a1bd
000001f0: f9d5 29be ed15 1bbe a88b 483e 7723 afbd
00000200: 62bc b4bd 70cd c43d 87ef 29be 9330 6bbd
00000210: 737b bc3d 0a13 c9bc c1ac b13b 6ea2 f23d
00000220: d406 363e aacb 5bbd 3325 e2bd 6db0 663e
00000230: 185a a8bd 4ce1 343e 83f8 613e 90af 6dbc
00000240: b9df 9fbd 7187 29be cd8f 33be dd27 20be
00000250: 1781 67bd 2189 0a3e 0f9f 883d a394 75bc
00000260: 5c96 a33d ca81 153e c07a 4bbe 9b73 43be
00000270: 9384 55be 4f7b 223e 6d04 70be 284a 7cbe
00000280: eb2b fe3d 143b 30be bd91 85bd 4ec6 3abe
00000290: 79df 54be caa4 bbbd 79f2 31be a40a a33c
000002a0: 2c0f 453d d1c0 003e 2530 c2bd 2a42 68be
000002b0: fd95 c43d 0090 0f3e 98cd 453d 9ad4 ff3d
000002c0: 006a eeba fc51 b4bc d769 c63d 507f 423e
000002d0: b784 143d c665 78be 12ff 18be 6b07 323c
000002e0: 36b4 e13d f5a6 833d 43a5 263d 789a 08bc
000002f0: eccd 503e d16f 8b3d 22cb aabd 22b5 1d3e
00000300: b72e 653e 9c0e 453d 18e0 bd3d ac45 923e
00000310: 903f 3b3c a58c 9f3d 7dcb 29be d822 53be
00000320: fca9 b9bb 2652 543e 5226 30be 8831 f8bd
00000330: 86a1 eb3c 2dee bcbd eb25 353e 7621 003a
00000340: 3c98 523e fa23 fabd 8c20 933d 630e f63d
00000350: a909 1cbe 451e 0d3e 19e6 dcbc 6825 793e
00000360: d6f0 30be 762e 313d 4c5f 703d 03d6 23be
00000370: 19f5 61bd e0ba 223e 682a 3d3e 98c5 3b3d
00000380: 382f 16be af3a 0cbe 9321 36be 7c35 893c
00000390: fc1a 193e 5f28 b7bd e977 813d aee8 b33c
000003a0: bf58 663e ee05 203e 8308 e0bd efad 123c
000003b0: ae47 11be 3312 21be f75c b0bd b640 7d3e
000003c0: 6110 0f3d 0dd6 82bd 29d4 f6bc 073a fb3d
000003d0: 7f56 03be 8c32 d7bc 2f53 84bd 8e32 1a3e
000003e0: 8611 29be 68bb 1cbe 6721 2a3e 55c5 133d
000003f0: cc59 0dbe 16c1 c5bd c580 39be dff5 373e
0.23997101 0.051468275 -0.13141043 0.02910239 -0.05262977 -0.023308739 -0.24118945 -0.057138544
0.104391225 0.112385914 0.22088456 0.2344562 -0.15952222 0.17784178 0.07742725 0.015787955
-0.06977627 0.13336433 0.026330628 0.11921452 -0.02309143 -0.18418154 -0.10617229 0.14080648
-0.21628787 -0.052605532 0.056197286 -0.17820956 0.080207445 -0.10015802 -0.04151364 -0.0020433194
0.22219244 -0.1227692 0.0030633647 0.17360365 -0.20153993 -0.21671343 -0.028255355 -0.113711275
0.09026947 0.049478214 0.07921215 0.1465447 -0.094671674 -0.092720576 -0.25859278 0.1204594
0.111237876 -0.030957473 0.10388108 -0.04692582 -0.11662975 -0.08181745 -0.012702059 0.0101583665
0.016406514 -0.009704495 -8.665494e-05 -0.14702731 0.1650431 -0.10597185 -0.0836202 -0.15146805
-0.08354743 -0.14530443 -0.12877011 -0.30276224 0.05996654 -0.18010536 -0.09007136 0.00257586
0.07489117 -0.22672337 -0.22031716 0.025104174 0.0869989 0.14088042 -0.1574342 -0.07214003
0.060310986 -0.15243842 0.062454794 0.17226636 -0.203631 0.057986528 -0.08851921 -0.2728378
-0.085050955 0.010886434 -0.100617714 0.15297587 0.12358398 -0.13878573 -0.13818973 -0.014973123
-0.17071109 0.026563166 -0.05491012 0.14464907 0.11561806 -0.039065793 0.19077241 0.05162107
0.07783074 0.100884624 -0.115390174 -0.006011382 0.0975386 0.1772892 -0.088999145 0.005304979
0.09053177 -0.0417463 -0.017352348 -0.03588284 -0.10046125 0.19940454 0.017661253 0.06466597
-0.09751322 -0.08894274 -0.23347786 -0.07866194 -0.1658553 -0.15145083 0.19584525 -0.08551686
-0.08824994 0.096094966 -0.16595279 -0.05741937 0.092032336 -0.024545211 0.005422205 0.11847387
0.17776042 -0.053661026 -0.110422514 0.22528239 -0.08220309 0.17664069 0.22067456 -0.014507189
-0.078063436 -0.16555573 -0.17535324 -0.15640207 -0.056519594 0.13528873 0.06670963 -0.014989051
0.07987663 0.14600292 -0.19871044 -0.19087069 -0.20851354 0.15867351 -0.23439188 -0.24637663
0.124107204 -0.17210037 -0.06521938 -0.1823971 -0.20788373 -0.091622904 -0.17377652 0.019902535
0.048110172 0.12573554 -0.09481839 -0.2268149 0.095989205 0.14019775 0.048291773 0.124917224
-0.001818955 -0.02201175 0.09688156 0.18993878 0.03625938 -0.24257573 -0.14941052 0.010866026
0.11020701 0.06428329 0.04068495 -0.0083376095 0.20391053 0.06808437 -0.08339526 0.15401128
0.22381102 0.048109636 0.09271258 0.2856878 0.011428729 0.07790498 -0.16581531 -0.2061876
-0.0056660157 0.20734462 -0.17202118 -0.12118822 0.028763544 -0.09225116 0.17690246 0.00048877986
0.20565885 -0.12213893 0.07183942 0.12014463 -0.1523806 0.13781078 -0.026965188 0.24330676
-0.17279372 0.0432572 0.058684632 -0.15999608 -0.055165384 0.158916 0.18473208 0.045842737
-0.1466645 -0.13694261 -0.17786245 0.016749136 0.149517 -0.08943247 0.06321699 0.021961536
0.22494791 0.15627262 -0.109391235 0.008952602 -0.141875 -0.15729599 -0.08611482 0.24731717
0.03492773 -0.06388483 -0.030130463 0.12266927 -0.12825964 -0.02626922 -0.064611785 0.15058348
-0.16510591 -0.15305865 0.16614304 0.036076862 -0.13803786 -0.09655969 -0.18115528 0.17964886

layer1.0.bias f4 [16]
00000000: 64ef c4bd 04d5 4f3e ca7b 93bd 495b 61bd
00000010: 1373 5b3c 3ab1 8fba 53e5 e5bd 2ed4 063e
00000020: 15c9 d93d 6130 5b3e 73f5 143e ca8d e03d
00000030: 7542 b3bd 2ae8 2ebe da12 623e 52bf 813d
-0.09615973 0.20296103 -0.07201345 -0.055018697 0.013394135 -0.0010962852 -0.11225381 0.13166878
0.106340565 0.21405174 0.14546756 0.10964544 -0.0875291 -0.17080751 0.22077504 0.063353196

layer1.1.weight f4 [16]
00000000: 3c90 663f f303 693f 0bd7 753f fee2 6e3f
00000010: d135 943f 2143 6b3f 993f 803f 813f 4b3f
00000020: bdbd 893f 1627 9b3f af8c 803f 79b2 773f
00000030: 2a5d 813f 8b06 573f db84 6f3f 4ae2 5a3f
0.90063834 0.9102165 0.96031255 0.9331511 1.1578923 0.91899306 1.0019408 0.79393774
1.0761029 1.2121303 1.0042933 0.967567 1.0106556 0.8399436 0.93562096 0.8550154

layer1.1.bias f4 [16]
00000000: 8627 d83d bbed ab3d e066 44bd 3d5f 3ebe
00000010: f629 20be 19ec a1bd 56b5 f2bd b31d 1fbe
00000020: 1a7b ef3b 35f4 87bc ec58 d4bd b3c7 4bbe
00000030: 7c75 7fbc 7d5e 0fbb b3f3 01be dc5b 3bbe
0.105544135 0.08394953 -0.04794967 -0.18591018 -0.15641007 -0.0790636 -0.11850993 -0.15538673
0.007308376 -0.01659594 -0.10368523 -0.19900398 -0.015591975 -0.0021876388 -0.1269062 -0.1829676

layer1.1.running_mean f4 [16]
00000000: c26c 033e 9a7b a6bd 0ad7 5bbf 459b 78be
00000010: b6b5 72be f770 73be 88ac 4dbe 07e5 323f
00000020: 3376 4b3d f969 5b3e a20a aebc 639a 75be
00000030: 92b7 16bd a6a4 85bd 1ba3 2d3f 9f6b 283f
0.12834457 -0.08129044 -0.85875 -0.2427798 -0.2370213 -0.23773561 -0.20085347 0.6988072
0.04967327 0.21427144 -0.021245304 -0.23984675 -0.03679616 -0.06525545 0.67827004 0.65789217

layer1.1.running_var f4 [16]
00000000: f0c2 363c 32c3 8f3c 6e6c d53d 1277 2d3c
00000010: 1cab 613c 36df 3d3d 6685 e53b 6bc6 253d
00000020: 2a3e 0f3b 1123 6b3a 077a 863b 0b58 c43c
00000030: 9d05 b93b b59d c13b f11b ef3c 81e2 3b3d
0.011154875 0.017549131 0.10421072 0.010587471 0.013773706 0.04635545 0.0070044277 0.04047243
0.002185712 0.0008969764 0.0041039023 0.023967763 0.005646421 0.0059086927 0.029188128 0.045870308

layer2.0.weight f4 [32, 16, 3, 3]
00000000: 6671 dfbd fdbe d2bd c6f7 7cbd e473 95bc
00000010: 85a8 32bd 7fe1 a8bc 017f f3bd 1978 d5bd
00000020: 1275 d8bc e612 4f3d 1901 d2ba e0be 803b
00000030: 84ac cebc 7ebd 86bc e097 a83d 2d2c 463d
00000040: 7410 a03d 5faa 5e3d 4cc4 583d 4904 fa3c
00000050: 68ce 753d 7c08 c23d 940a a53d 5d0e 5d3e
00000060: 3745 b83d dbb0 85bd ba28 71bd 3b28 03bd
00000070: c50f 353e ef99 073e b843 02bd 6d06 783d
00000080: 5020 cf3d 86bb c53d b724 adbd 03f6 19be
00000090: d1a7 9a3d 433e d23d 3e48 333e 0262 c83d
000000a0: bc78 5d3d f7a8 cbbd f5b7 f1bb e8eb 86bd
000000b0: f429 3dbe ab87 2bbd 3baa 4dbe afe1 2bbd
000000c0: 8a5f 4e3d ed0e cdbc 9220 8c3d ace6 4fbd
000000d0: e680 c33d a058 9f3b d620 a6bb 3e6a d9bc
000000e0: b5c8 f8bc ae04 89bc aaf4 e43d a240 afbc
000000f0: e746 bcbd 7229 a23d 0a7d 8fbc c072 973c
00000100: 4bdd 0bbc 70c8 a5bc 5782 b33c 1f3a 83bc
00000110: 714d 29bd 95b7 34bc 073e e13c 7091 50bc
00000120: 044b fcbd 83c5 dcbd 7e8c 6dba ac48 a1bd
00000130: 517c 7e3a 3bad b73d 6e79 af3d 441f f03d
00000140: ae5a 7b3d 9cdc 0f3e b546 aa3d 11f6 993c
00000150: c164 d13c fcd7 20bd 69ca cdbc 1c69 febd
00000160: 8010 e3bd 7562 c3bd 3243 02be aac1 1abe
00000170: 38cd e1bc 8ca7 363d ea2c 8f3d e9da 42bd
00000180: 3969 abbc d154 94bd 85b9 b0bd b3d9 6abd
00000190: 2d54 df3d e478 853d 3d46 673d 3f26 f73d
000001a0: b4a3 bc3c cdf9 8cbc a799 ab3c 2efd 87bd
000001b0: 348d 333b 0e34 9ebd 80cb e7bc 0ca7 033e
000001c0: 732e 85bc 6e9b 05be fa49 82bd 31b9 66bd
000001d0: 0745 17be c65f 6d3d 60bb e6bc 7d4c 88bd
000001e0: 28c1 1abd 4751 c3bd 7088 e0bb abec 8cbd
000001f0: 6bb9 0dbc c2d3 b03d 638d 76bd 5ca0 e7bd
00000200: cede 02bd f05b f63c 4d67 9fbc 3a97 8b3d
00000210: 9319 0abe 1dd5 813d 9f23 b13b bee7 2abd
00000220: aefa 0d3d ec62 0a3d bdec 9ebd 3b97 ecbb
00000230: 9289 68bd 68e3 cebd 8d3f 8dbd 9a3a 8bbd
00000240: de5a 1b3d 31e3 763d 74a5 853d 7974 a1bd
00000250: 4331 0cbd 7474 b33a 0745 86bd 8fda 2bbe
00000260: a2d9 d0bb ffa9 3e3e 1665 b63c d361 37bd
00000270: 967d 8e3c ddb3 02be ff37 4b3c 79a8 bebd
00000280: fba5 08be 9f5e 00be ef1b c83c 3389 d2bd
00000290: 9016 1abd 19b9 c9bd e5ea bbbd 0dac f6bc
000002a0: 557e bebc bbef b33d a99c b53d 7019 433d
000002b0: f979 13bd 7792 98bd 3202 cabd 11ea 46bd
000002c0: 7c57 bcbd 5723 fb3d 9617 9c3d 9e41 8b3d
000002d0: 8a9b 24be 9e38 153d 0a52 d939 6b7e 2f3d
000002e0: 132b c13d 7e0b c0bc 95d6 553d e16a f33c
000002f0: 2ce8 2a3d abb2 213d a20b fc3c 8c40 aabd
00000300: 5246 cbbc 8fb3 aebb 754d a93d 5cf9 753c
00000310: 1d4c 933c d67f 6abd 43af c33d fbc5 ccbc
00000320: 5e54 883d 92f3 c13c fad0 a4bc 8fb0 f3bd
00000330: 6122 b0bd b9fe 303c e4d4 0a3d 0606 bc3b
00000340: c7f4 f3bc 42d2 563d 76a3 423d bc1d 50bd
00000350: d453 1c3d b29b 30bc 0a87 aabc 361c 96bd
00000360: c678 033e 489c 22bb 1011 ffbc 03d5 da3d
00000370: 13a0 21be 77df 573c baf8 bbbd cf97 82bc
00000380: 1055 73bc b514 b13c 34f6 2ebe 73ee c5bd
00000390: 373a 07be 0fff 1fbe 4d80 67be e797 ce3a
000003a0: 3c51 61bc 6342 e4bd 35f7 a1bd 3bc7 a23d
000003b0: da99 dc3d 0342 13bd 8fa9 4abd 09d5 0c3d
000003c0: 9a61 f13d 541a 873d 014d a4bb c189 acbc
000003d0: c088 e6bd 0785 d8bd be6b db3b 3c9d ccbd
000003e0: 000a aebd 6830 c23d 4285 3cbc 6f51 c63d
000003f0: 2338 313d 2f63 6fbd b1d6 81bd 1eba acbd
-0.10910301 -0.102903344 -0.061759733 -0.018243738 -0.043617744 -0.020615337 -0.118894584 -0.104232974
-0.026423011 0.050555132 -0.0016022056 0.003929004 -0.025228746 -0.016447779 0.08232093 0.048381973
0.07815638 0.054361697 0.05292158 0.030519621 0.060011297 0.094742745 0.08058658 0.2158751
0.08997577 -0.06527873 -0.05887673 -0.03202079 0.17681797 0.13242315 -0.031802863 0.060553003
0.10113585 0.09654908 -0.084542684 -0.15035252 0.0755154 0.10265782 0.17508027 0.097843185
0.05407022 -0.09944337 -0.0073766657 -0.06587964 -0.18473035 -0.04187743 -0.20084469 -0.041963276
0.050384082 -0.025031531 0.0684215 -0.050757095 0.0954607 0.00486286 -0.0050698323 -0.026539918
-0.030369142 -0.016725864 0.111794785 -0.021393124 -0.09193211 0.07918061 -0.017515678 0.018487334
-0.008536647 -0.020237178 0.021912737 -0.016018925 -0.04133362 -0.0110300975 0.027495397 -0.0127299875
-0.123189956 -0.1077986 -0.00090617675 -0.07875189 0.00097078556 0.08968588 0.08568083 0.117247134
0.061365776 0.14049 0.083142675 0.018794091 0.025560739 -0.03926848 -0.02512093 -0.12422392
-0.110871315 -0.095402636 -0.12720945 -0.1511294 -0.027563676 0.04459338 0.069909886 -0.04757205
-0.020924198 -0.0724274 -0.08629135 -0.05733652 0.10904727 0.06517199 0.05646347 0.12067842
0.023027278 -0.017208958 0.02094729 -0.06640087 0.0027397396 -0.077247724 -0.028295279 0.12856692
-0.0162575 -0.13047573 -0.06361766 -0.056328956 -0.14772426 0.057952665 -0.02816552 -0.06655214
-0.037781864 -0.09536987 -0.006852202 -0.06881078 -0.008650164 0.086341396 -0.06019343 -0.11309883
-0.031950764 0.030073136 -0.019458437 0.068159536 -0.13486318 0.06339476 0.0054058577 -0.041724913
0.034662895 0.033785746 -0.07759998 -0.0072201765 -0.056771822 -0.10101968 -0.06896887 -0.06798287
0.037928455 0.06027526 0.06525698 -0.078835435 -0.034226667 0.0013691322 -0.06556135 -0.16782592
-0.0063736 0.18619536 0.022264998 -0.044771027 0.017393868 -0.12763925 0.012403487 -0.09309477
-0.13344567 -0.12536095 0.024427382 -0.10280075 -0.037619174 -0.09849758 -0.09175662 -0.030111337
-0.0232536 0.08785959 0.08867771 0.04763168 -0.036004994 -0.07449811 -0.098637 -0.048563067
-0.09196374 0.122626 0.07621686 0.06799625 -0.16074958 0.036430947 0.0004145059 0.04284517
0.09432044 -0.02344298 0.052206594 0.02971405 0.041725323 0.03947703 0.030767266 -0.083130926
-0.024813805 -0.0053314636 0.08266727 0.015013065 0.01798063 -0.05725082 0.09554913 -0.024996748
0.06656717 0.023675714 -0.020119179 -0.1189891 -0.08600307 0.010802918 0.033894435 0.0057380227
-0.029779805 0.05244661 0.04751917 -0.050809607 0.038165882 -0.010779308 -0.020816345 -0.073295996
0.1283904 -0.002481239 -0.031136066 0.1068516 -0.1578372 0.013175837 -0.091783 -0.015941529
-0.014851823 0.02161632 -0.17086107 -0.09664621 -0.13205801 -0.15624641 -0.22607537 0.0015761823
-0.013752278 -0.11145475 -0.07908479 0.079481564 0.10771532 -0.035951626 -0.04947811 0.034382854
0.11786194 0.065968186 -0.0050140624 -0.02106178 -0.11256552 -0.10572248 0.0066961935 -0.099909276
-0.08498001 0.09481889 -0.0115063805 0.09683501 0.043266427 -0.0584442 -0.06339777 -0.084339365

layer2.0.bias f4 [32]
00000000: 12a1 0abd 3e7a 3e3d a7cf 9f3c 68d2 b53c
00000010: 76d8 c63b 78aa e83b 1550 8a3d f81b 4cbd
00000020: 4403 483d 1fc1 9dbd 24b5 133d 1b4a 99bc
00000030: c95c 9dbc 0ef9 943c 1c85 853c 54b4 623c
00000040: 618f 353d 7dbd 9bbd d199 aa3c 050f 3cbd
00000050: 9801 30bd 4a4b 32bc a98e 863c dc9d c53c
00000060: 8315 7d3d 6273 47bc 3664 bc3b 19f2 10bd
00000070: c3b4 293c 6144 60bd 7819 643d f7fd a73c
-0.033845015 0.046503298 0.019508196 0.022195056 0.0060682846 0.0071003996 0.06753556 -0.04983136
0.04883124 -0.077028506 0.03606142 -0.018712094 -0.019209282 0.018185165 0.016298823 0.013836939
0.04432619 -0.076045014 0.020825299 -0.04591276 -0.04297027 -0.010882208 0.016425448 0.024123125
0.061788093 -0.0121735055 0.0057492508 -0.035387132 0.010358038 -0.05475271 0.05568835 0.020506842

layer2.1.weight f4 [32]
00000000: 137a 753f 0627 8e3f a0f4 853f 6e96 703f
00000010: b8aa 7e3f 6696 743f c810 7d3f 4a80 7d3f
00000020: 798f 723f 175a 753f 7e0a 7b3f 88be 883f
00000030: 01f1 6b3f 1d46 7b3f f7e3 5c3f 646c 653f
00000040: cf2f 843f 98ed 7f3f 6cc8 873f d071 713f
00000050: 844f 5f3f cb5d 843f fe99 7a3f 92c1 913f
00000060: 1d6b 743f 87af 8d3f 2e63 853f 087a 8e3f
00000070: aa84 833f dd01 833f bae8 933f ebcb 703f
0.95889395 1.1105659 1.0465279 0.9397954 0.99479246 0.9554199 0.9885373 0.9902388
0.9475017 0.9584059 0.98062885 1.0683146 0.9216462 0.9815386 0.86285347 0.89618516
1.032709 0.99971914 1.0608039 0.9431429 0.87230706 1.0341123 0.97891223 1.1387198
0.9547594 1.1069192 1.0420892 1.1130991 1.0274861 1.0234944 1.1555398 0.94061154

layer2.1.bias f4 [32]
00000000: 3263 65be 2ea6 ae3c 5952 cc3c abbc 5fbe
00000010: 9bb6 b4bd 6ae0 40be 068d 5cbe 9e08 6cbe
00000020: 5bc5 7fbe 416a 00be fc4e adbe c61f a9be
00000030: 3177 bdbe 5bbc 01be 71ac 23be 235d 2bbe
00000040: 4732 29be f846 45be d426 dcbd 3d75 aebd
00000050: 9560 2bbe 372b c2bd d199 10be 35e1 7fbd
00000060: f4b1 94bd b53f e8bd dd75 f6bd 0f93 6dbc
00000070: 4100 24be 4801 14be 33db 483c 388a 24be
-0.22401121 0.021319475 0.02494161 -0.21849315 -0.08823892 -0.18835607 -0.21538171 -0.23050162
-0.24977629 -0.12540533 -0.33849323 -0.33032054 -0.37004998 -0.12669508 -0.1598375 -0.16734748
-0.16523086 -0.19265354 -0.107495934 -0.08518455 -0.16736062 -0.09480899 -0.14121176 -0.062470634
-0.07260504 -0.11340276 -0.120341994 -0.0145003935 -0.16015722 -0.14453614 0.012259292 -0.16068351

layer2.1.running_mean f4 [32]
00000000: d42f d7be cad6 27bf 6b46 85bf 1055 983e
00000010: 4991 b6be 7977 fc3f 10d3 35bd 2d78 f03f
00000020: 0b8f 073e c4d6 e2be ba6f 9dbe 0260 6fbf
00000030: c5b4 603f f506 32bf 0e72 09bd 92b7 963e
00000040: ca40 5a3f d78b a1bf fc53 f1be 5095 71bf
00000050: 97b7 f03e 96fa adbe 53e2 43bf 2388 31bf
00000060: 5e8f 2bbe af40 52bf 75ed 03bd a46a b4bf
00000070: 7b7c 69bf d11e e4bf cf77 79bf b5ec 61be
-0.42028677 -0.6556212 -1.0412115 0.29752398 -0.3565772 1.972396 -0.044390738 1.8786675
0.1323816 -0.44304478 -0.30749303 -0.9350587 0.8777583 -0.69541866 -0.033556037 0.29436928
0.8525511 -1.2620801 -0.47134387 -0.9436846 0.47015068 -0.33980244 -0.7651722 -0.69348353
-0.16753909 -0.8212995 -0.03220888 -1.4095044 -0.9120557 -1.7821904 -0.9744844 -0.22062953

layer2.1.running_var f4 [32]
00000000: 5085 843f d39a 193f 62d2 0a40 559b 793e
00000010: bd1e 433e b852 ae3f b3d6 203f 87e5 6c3f
00000020: a935 983f e12a 653f 941e b93e 42ce b03e
00000030: 4b18 c33f 648b 963f 2a54 813f aa7b f53e
00000040: 40bb 223f 8735 1740 2eb0 e13f c869 1040
00000050: 343f d53f 4ff2 893f eb0c 6d3f 014a 283f
00000060: d41d a83f 48d2 3f3f 15b8 0c3f 779f 913f
00000070: 115a c23f d16e 7f3f 9e06 433f 4ccb c33e
1.0353184 0.6000187 2.1690907 0.2437566 0.19054694 1.3618994 0.62827605 0.9253773
1.1891376 0.89518553 0.36156142 0.34532362 1.5241789 1.1761289 1.010381 0.4794591
0.6356697 2.362642 1.7631891 2.2564564 1.6659913 1.0777072 0.92597836 0.6573792
1.3134103 0.7493024 0.54968387 1.137679 1.5183736 0.9977847 0.7618197 0.3824104

layer3.0.weight f4 [64, 32, 3, 3]
00000000: 08fd 5a3d f992 073e 3b85 d2bc 1e89 d9bc
00000010: 6f5b fabd 7e20 2bbe 8bbd 4abd a029 353d
00000020: 282f 64bd a65e cebb c854 d6bc 1afb 213e
00000030: b355 413d 9c9e 8c3d 021b ed3d eaf5 30bd
00000040: f55b e4bd af2e 33bc 9b42 0fbc 7578 b83c
00000050: 5dca 81bd b44b 51bd 1755 ac3c 798d e23c
00000060: 1642 a5bb de27 41bb 51d5 6f3d 0e30 b3bd
00000070: ac21 f03d 4d69 b93d 7144 f33d 3d47 403d
00000080: 1529 8a3d 6141 233d 6ad4 d73c 3d2b 8f3d
00000090: 4a1c ac3c cef8 123d 8226 cbbc c389 e23d
000000a0: 60cc 803d bd0b ad3a 1c02 063e b0b1 aabd
000000b0: a86b 7a3d fb58 143d 9b71 893d b63c df3c
000000c0: 3b21 0cbd 3056 90bd 89e4 83bd 7866 713d
000000d0: efce 643d b738 c5bd 397f e13d 6a2b 183d
000000e0: 43db ebbd f4d9 703d 09e9 3abe ced3 9cbd
000000f0: d1bd b23d 5925 893d 7470 8f3d aaf0 b5bd
00000100: fbd8 52bd d9dc fcbd 977d 723d fb50 61bd
00000110: d747 5fbc f844 25bd ea3a 61bd 1896 123b
00000120: 071f 123c 3060 a03d 5e6e 8bbd cfa5 303d
00000130: 976c a13d f728 82bd 5137 f1bd e8aa 733c
00000140: 6e3e a4bd fc7a c93d 68e8 84bd f86a 68bd
00000150: fa9b f83d 20c6 0b3c 0484 60bd 9d1b c93a
00000160: df7f b13c 02f7 4f3d 1b16 9bbd 3439 01be
00000170: aa7d 2dbe e966 ecbc 307e 893d 63c9 89bd
00000180: 271d fc3b 63f3 0ebe a1df c33c b1e9 c63b
00000190: d132 8d3d a7c9 e9bb 7f9c ae3d 4a63 44ba
000001a0: 3ab8 953c bfba bf3d 8eca 5d3d 3b5a ccbd
000001b0: a300 b03d c9bc da3d db9a 343d 2e07 60bd
000001c0: 555d 0dbe 647e 84bc cc45 913c 19f7 93bd
000001d0: 9793 6ebc 1c4d c9bd 368b c2bc b69f abbd
000001e0: c473 04be 3480 d4bd 1bdd c8bc e1cb bd3c
000001f0: 7ea4 01bc 37d4 373d b7cd 9bbc 5f33 3fbd
00000200: f23b a1bc 6868 bc3d fc47 49bb d2bc 853d
00000210: fd03 e93d d11a 72bc fa10 253a 911c 7ebd
00000220: 3acd d4bc 0d60 223d 8b54 bdbc ddee bfbd
00000230: 3c13 cd3d 411e bf3c bf2c b83c 0bd2 373c
00000240: 30e4 63bd d3f0 df3b 46b2 95bc 250b 72bd
00000250: d75d a43b 7bec 313e 40f0 d2bd e7bd 54be
00000260: 6271 5f3c 2c67 bfbd 1b4f 03bd 7a00 2a3c
00000270: 143d babd 665f dfbc e236 5d3d db64 5c3d
00000280: baf1 f7bc 9e0b dbbd ac02 9c3d 9034 85bd
00000290: 7d29 e9bd c560 033d c595 783d 3c1a 15bd
000002a0: d696 edbd f4a1 b7bc e90c 37bb bf4f a3bd
000002b0: 4f3c cebd 0f57 233d ec18 c13d ddc8 1ebe
000002c0: 95ef 543b d525 8d3d 694a 2fbd d402 27be
000002d0: 17eb dfbd 42d6 45bd 56e9 41be 98f4 173e
000002e0: 36f4 b33c 520f eb3b 1d89 e5bc 3f3e 3ebe
000002f0: 203e 82bd 260d 4abc f858 673c 53fc bebd
00000300: 0bb7 e03d 498d a5bd f956 ff3d e5b6 96bd
00000310: 593d 27be 09fe 47bd fe06 1cbe 8734 be3b
00000320: bcf5 0fbd 4e74 033d bd27 e73c 1408 edbc
00000330: 4a03 8bbd 6a4f 19bb 5679 213d ce39 4ebd
00000340: 461a 32be b7ae 8dbd 2019 cb3c b9ef a53d
00000350: 3269 58bd 3819 743c 09ba 5bbd ac97 74bd
00000360: d21e 933d ef27 853c 116e 0d3c 09c9 cbbc
00000370: de74 463d 9b5e 093e 4d9c d73d 4ede 3f3d
00000380: b73d e83d 216f 463c a85a 76bd e446 4cbd
00000390: 93a5 9f3d ca91 6fbc ea8a 233e 44b0 b4bc
000003a0: 8fff 43be 2efe b63c 6c83 aa3d e900 003d
000003b0: edc1 443d da91 68bd 09bd e6bd e760 863e
000003c0: e9f5 ddbd af5b bbbd 1fda 263d 7747 75bc
000003d0: b591 19be 260b 9b3d 69ec 07be 5ba5 f4bc
000003e0: 9c7f 09be 4492 59bc 7bda 3abc 8bb5 3a3a
000003f0: 6806 05be 35b3 9a3d c2d1 79bd fa58 0f3e
0.053463966 0.1323966 -0.025698295 -0.02655464 -0.12224471 -0.16711614 -0.04949717 0.04422915
-0.055709034 -0.006297904 -0.026163474 0.15818444 0.04720087 0.0686619 0.11577417 -0.043203272
-0.11150352 -0.010936423 -0.008743907 0.022518376 -0.06337426 -0.051097587 0.021036668 0.02765535
-0.0050432784 -0.0029473226 0.058553044 -0.087494 0.117251724 0.09053288 0.118782885 0.046942938
0.06746117 0.039857272 0.026346404 0.06990669 0.021009583 0.03588181 -0.024798635 0.11061432
0.062889814 0.0013202351 0.13086742 -0.083346725 0.061137825 0.03621767 0.06711122 0.027250629
-0.03421138 -0.07047689 -0.06440074 0.058935612 0.05586141 -0.09629958 0.11010594 0.037150778
-0.1151643 0.058801606 -0.18252958 -0.07657586 0.08727611 0.066965766 0.070038706 -0.08883794
-0.05147646 -0.12346811 0.059201803 -0.05500887 -0.013627968 -0.040348977 -0.054987825 0.0022367295
0.00891853 0.07830846 -0.0680816 0.043126877 0.0788204 -0.0635547 -0.11778129 0.01487229
-0.0801972 0.098379105 -0.064896405 -0.05674264 0.12139125 0.008531123 -0.0548134 0.0015343312
0.021667419 0.050772674 -0.07572576 -0.12619478 -0.16942468 -0.028857665 0.067135215 -0.067278646
0.007693905 -0.13960032 0.023910346 0.0060703387 0.06894458 -0.0071346345 0.08525943 -0.0007491602
0.018276323 0.09361791 0.05414825 -0.099781476 0.085938714 0.10680539 0.044092994 -0.054694347
-0.13805135 -0.016173549 0.017733477 -0.072248645 -0.014561555 -0.098291606 -0.023748022 -0.08380072
-0.12934786 -0.10376015 -0.024519494 0.023168506 -0.007912753 0.04488012 -0.01901899 -0.04667985
-0.019681904 0.091996014 -0.0030713072 0.06530155 0.11377714 -0.014776901 0.000629678 -0.06203896
-0.025976766 0.039642382 -0.023111602 -0.093717314 0.10013434 0.023329856 0.022482274 0.011219512
-0.05563754 0.0068341284 -0.018273484 -0.05909266 0.0050160694 0.17375366 -0.1029973 -0.20775567
0.013637872 -0.0934585 -0.032057863 0.01037609 -0.09093681 -0.02726717 0.05400742 0.05380712
-0.030266631 -0.10695575 0.07617697 -0.06504166 -0.113848664 0.03207471 0.060689706 -0.036401972
-0.11601035 -0.022416092 -0.002793128 -0.07974195 -0.10070097 0.039877947 0.094285816 -0.15506311
0.0032491435 0.068919815 -0.042795572 -0.16309673 -0.10933512 -0.048300035 -0.18936667 0.14839399
0.021967035 0.007173457 -0.028019482 -0.18578433 -0.06359506 -0.012332236 0.014120333 -0.09325471
0.10972413 -0.08083589 0.124677606 -0.07359103 -0.16331996 -0.04882625 -0.15237042 0.0058046016
-0.03514646 0.03209334 0.02821719 -0.028934516 -0.06787737 -0.0023393282 0.039422356 -0.050348096
-0.17392835 -0.0691809 0.024792254 0.08102364 -0.052834697 0.014898591 -0.053644214 -0.059714958
0.07183613 0.016254393 0.008632199 -0.024876134 0.048451297 0.13414995 0.10527859 0.046842866
0.11339896 0.012111456 -0.06014505 -0.049872294 0.07795253 -0.014622161 0.1597096 -0.022056706
-0.19140457 0.022338 0.08325848 0.031250868 0.048036505 -0.05677972 -0.11266524 0.26245806
-0.10837919 -0.09148347 0.04073536 -0.014970652 -0.14996989 0.07570486 -0.13273777 -0.029864004
-0.13427585 -0.013279501 -0.011404629 0.0007122389 -0.12990725 0.07553712 -0.060991056 0.13998786

layer3.0.bias f4 [64]
00000000: 43be d93c f581 993d c336 ff38 9a87 edbc
00000010: 1714 d93c 57ed a93c 5fe1 f23c 39db 62bb
00000020: 6126 0cbd 9fe3 f0bc b9cf 9f3c a718 ff3c
00000030: de7d 41bd bb97 5639 485b 2c3b 14a8 3eba
00000040: a3aa 9a3c 2fdd 50bd e575 6abd 2343 4c3d
00000050: 7dc5 523d fd33 db3c c9dc 8b3d e272 31bd
00000060: ac05 0c3d a308 82bc 9709 9b3c fed9 41bd
00000070: 38b3 473d 78fa 88bb 70ae 3d3d 5cc4 c63c
00000080: 202a d1bc b759 0bbc 033f 9c3a 679c 9b3c
00000090: 661f 1a3c d425 1c3c c8b8 d53b 4c29 78bc
000000a0: 1fb4 bb3c 6060 33bb 1543 5dbc b95e 9dbc
000000b0: 3925 723d 624f 353d 1de5 933d 86da a5bc
000000c0: e31c 64bd 8801 e3bc 4f93 ae3c f197 89bc
000000d0: a234 12bc 6b5e 153d 7ad1 1bbd b545 fc3b
000000e0: 679e 09bd 4a40 d0bb 8ab5 323d 48b8 233d
000000f0: 151d 713d 9553 263d 42cf 67bd 8c18 d4bc
0.026579982 0.074954905 0.00012169548 -0.028995324 0.026498837 0.020743055 0.029648481 -0.003461553
-0.03421629 -0.029405413 0.01950823 0.031139685 -0.047239177 0.00020465154 0.0026299525 -0.00072729704
0.018880194 -0.050992187 -0.05724134 0.049868714 0.05145787 0.026758188 0.06829221 -0.04332245
0.034185097 -0.015873259 0.018925471 -0.047327034 0.0487549 -0.004180249 0.046308935 0.024263553
-0.025532782 -0.008505276 0.0011920634 0.018995477 0.0094069 0.009530503 0.006522272 -0.015146565
0.022913037 -0.0027370676 -0.013504763 -0.019210206 0.05911753 0.04426516 0.07221434 -0.020245802
-0.05569161 -0.027710691 0.021310477 -0.016796084 -0.008923681 0.036466997 -0.03804157 0.0076987394
-0.03359833 -0.00635532 0.04363016 0.039970666 0.058865625 0.040607054 -0.05659414 -0.025890611

layer3.1.weight f4 [64]
00000000: 7f73 903f 1e35 913f b1df 8f3f c385 8a3f
00000010: ba08 823f 978e 8c3f 9625 903f ad54 8e3f
00000020: 9f05 8a3f ec16 8e3f a983 923f 172a a43f
00000030: f6c8 8a3f 5425 903f 254d 883f 2cdb 973f
00000040: 8bed 953f ace7 8e3f 0095 8a3f aee5 833f
00000050: 5ba2 8d3f 9f66 803f 81c7 983f c30c 8f3f
00000060: 9d17 903f da6f a33f d371 8f3f 6ef2 a03f
00000070: a01a 903f cc0a 903f eac8 873f 2fd1 863f
00000080: ab7c 8a3f 544a 883f 3917 893f 6793 923f
00000090: 84ff 883f b77f 863f 1fd8 8a3f 7a94 883f
000000a0: 7121 963f e98b 873f c73b 893f 5b25 ab3f
000000b0: 65d9 873f bf1c 903f c253 963f 2aa9 8c3f
000000c0: a300 973f da74 8a3f 52ec 933f 111d 973f
000000d0: baf5 843f dacb 893f 260d a03f 0532 8f3f
000000e0: 8211 8f3f f019 913f 9319 a03f debb 8e3f
000000f0: 6c71 963f b727 943f d2e0 853f 2d1c 823f
1.1285247 1.1344335 1.124014 1.0822071 1.0158913 1.0981015 1.126147 1.1119591
1.0782965 1.1100745 1.144643 1.2825345 1.0842578 1.1261392 1.0648543 1.1863761
1.1713117 1.1164451 1.0826721 1.0304468 1.1065172 1.0031317 1.1935884 1.117577
1.1257206 1.2768509 1.1206611 1.2573984 1.1258125 1.1253295 1.0608189 1.0532588
1.0819296 1.0647683 1.0710212 1.1451234 1.0702977 1.0507725 1.0847205 1.0670311
1.1728956 1.0589572 1.0721368 1.3370775 1.0613219 1.1258773 1.1744311 1.0989125
1.1797069 1.081691 1.1556494 1.1805745 1.038749 1.0765336 1.2504013 1.118714
1.1177218 1.133604 1.2507805 1.1151083 1.1753364 1.157462 1.0459235 1.0164849

layer3.1.bias f4 [64]
00000000: 33f8 89be 6157 94bd 8738 d3bd 4169 bfbd
00000010: be45 a2bd e7c3 33bd 6fd4 bdbe ea83 34be
00000020: a3d3 dcbd 5d47 5cbd d61f c8bd 4591 13be
00000030: bff5 c4bd 6397 31be ae90 c8bd 17e1 b1bd
00000040: 314d 4abe e44c a6bd 2d81 7cbd c817 75bd
00000050: 7989 e6bd 5d01 a7bd 3115 7ebe 8f40 10be
00000060: bb47 6fbd 8d91 87be 24a2 80be de96 3fbe
00000070: 3ceb 02be 35e2 abbd f8c4 8bbd 3c33 84bd
00000080: 8001 c4bd 39d2 41bd 0ed4 64bd d3e7 bebc
00000090: 60d8 67bd 699a 54bd 32e1 53bd d3a0 8cbe
000000a0: 61a9 62bd e97b 17be e176 12be 107f e0bd
000000b0: e59e 7abd ddaf 8bbe 1ac5 d0bd f30c 92bd
000000c0: d0bc c8bd 1fb2 52bd 6261 ddbd e55b 04be
000000d0: 0eca 95bd e059 00bd b102 83bd 2aba 8bbd
000000e0: 8ac4 87bd 5c86 9fbd 2ff6 1fbe 3ec8 54bd
000000f0: 189d 33be 92ae fdbd f655 dbbc 3e49 86bd
-0.26947173 -0.07243229 -0.10313516 -0.093462475 -0.079234585 -0.043888 -0.37076136 -0.17628446
-0.10782554 -0.053778995 -0.09771697 -0.14410885 -0.09617185 -0.17342906 -0.097932205 -0.086855106
-0.19756009 -0.081201345 -0.06164663 -0.059837133 -0.112566896 -0.08154557 -0.24812771 -0.14087127
-0.058418017 -0.26478234 -0.25123703 -0.18709895 -0.12785047 -0.08392755 -0.06824678 -0.06455085
-0.095705986 -0.047319625 -0.055866294 -0.023303902 -0.056602836 -0.05190507 -0.051728435 -0.2746645
-0.055337314 -0.14793362 -0.14303161 -0.10961735 -0.06118669 -0.2728261 -0.10193844 -0.07131376
-0.09801638 -0.0514394 -0.1080959 -0.1292568 -0.073139295 -0.03133571 -0.06396998 -0.06822617
-0.06629284 -0.07789299 -0.15621255 -0.05194878 -0.17540395 -0.12386812 -0.026774388 -0.065569386

layer3.1.running_mean f4 [64]
00000000: f415 65bf 489a 443f e38f 433f 7874 1ebe
00000010: 349e c43f ff34 f23e c0f2 cbbf 7c06 c5bf
00000020: 6033 b33d 4da1 8e3f fafe b83f f0c8 1bbf
00000030: 467e 54bf 0110 3b3f 6dd0 a53e b2e4 3dbf
00000040: 03bc c5be bd77 ab3e 4e9c b93f 72e2 a1bf
00000050: e4d2 473e a835 423f 81b4 e7bf 6971 a53f
00000060: f6e9 873f be17 b3be 0ee0 d8bf c582 473e
00000070: 65d1 04bf 837e b5bf 0c2b cd3f b1f3 953e
00000080: f775 083f b40f 64bf 4abf 453f 8e85 0ebf
00000090: 8731 ec3e 2bda c1be 1bc6 db3e 1795 c7bf
000000a0: 5de3 cc3e 721f 743f 138f 40bf 14e1 eebf
000000b0: e6df 20bf 9888 ec3d 3884 e2bf aa11 a93e
000000c0: 5847 babf 295f f3bf 2653 eabf 88c7 87bd
000000d0: 4705 79bf d726 5bbf bdf8 89bf 4537 b03f
000000e0: ea2c 95be 4682 ab3e 3e24 a03f 5235 c03f
000000f0: d794 bcbd b68c 82bf b2d6 d6bf 7675 96be
-0.8948662 0.76797915 0.7639143 -0.15474117 1.536078 0.47306058 -1.5933456 -1.5392604
0.087500334 1.1142975 1.4452813 -0.6085348 -0.8300518 0.73071295 0.3238558 -0.74177086
-0.38620004 0.3348979 1.4500825 -1.2647231 0.19514042 0.7586312 -1.810196 1.2925235
1.0618274 -0.3497905 -1.6943376 0.19483478 -0.5188201 -1.4179233 1.6028762 0.29287484
0.53305 -0.8908646 0.7724501 -0.5567254 0.46131536 -0.3786176 0.4292458 -1.5592374
0.40017214 0.9536048 -0.75218314 -1.8662438 -0.6284164 0.11549491 -1.76966 0.3302129
-1.4553022 -1.9013416 -1.8306625 -0.066298544 -0.9727368 -0.8560614 -1.0779034 1.3766867
-0.2913583 0.33497828 1.251106 1.5016272 -0.092080764 -1.0199192 -1.678427 -0.2938649

layer3.1.running_var f4 [64]
00000000: 0460 8a3f 60cd ba3f f4a6 b63f 9cb0 ac3f
00000010: 3f82 983f 9f0d 373f 8e9f 1c40 0280 f43f
00000020: 3420 5e3f b541 513f 9558 a53f 53d5 ed3f
00000030: 1cb0 a33f 6bbe 913f 1b81 9a3f eb10 aa3f
00000040: f31f 253f ddfe 8f3f 7dd1 5b3f 5ab0 883f
00000050: d94f 4b3f d6ca 983f 6416 2b40 adda bf3f
00000060: ab28 ae3f 4b22 613f d1bb 0940 3390 c13f
00000070: 50bc af3f 10ba 0a40 4076 d73f bc56 293f
00000080: 2f99 893f 9e2d bb3f 5ec7 a93f d6ee f73f
00000090: 34b4 663f 81ae 9a3f e0b7 763f 2f81 bd3f
000000a0: 13db 653f a21e 583f c32f ad3f 5967 f93f
000000b0: ea1d 873f c89a 863f 9fd9 fd3f a6a3 a33f
000000c0: 65fc bb3f dd3e f83f 86dd 0940 4cf9 693f
000000d0: a785 bf3f 6192 1f3f f682 0940 b5e8 5e3f
000000e0: 22d6 373f 133f 3340 bc0c a13f 9d6e a53f
000000f0: 4611 fc3e 56e8 e13f 4951 693f ab20 093f
1.0810552 1.4593925 1.42697 1.3491397 1.1914748 0.7150516 2.4472384 1.9101565
0.8676789 0.81740886 1.2917658 1.8580726 1.2788119 1.1386236 1.207065 1.3286413
0.64501876 1.1249653 0.8586653 1.0678818 0.7941871 1.1936901 2.6732416 1.498861
1.3606161 0.8794295 2.1520884 1.5122131 1.3729343 2.1676064 1.6832962 0.6614797
1.0749873 1.4623296 1.3263967 1.9369762 0.9011872 1.2084504 0.9637432 1.4805049
0.89787406 0.8442174 1.3530201 1.9484664 1.0556004 1.0515985 1.9832038 1.2784317
1.46864 1.9394184 2.1541457 0.9139602 1.4962662 0.6233273 2.1486182 0.8707383
0.71811116 2.8007247 1.2582011 1.2924381 0.4923193 1.7649028 0.91139656 0.5356547

fc1.weight f4 [10, 576]
00000000: 87a8 393d b6e5 1ebd 6ba1 853d aa5d 3fbd
00000010: f2f7 fa3d 02f3 473d f82e ce3b 2996 d2ba
00000020: 5aae a5bd 28d8 803d d3ff 903c df30 0dbb
00000030: 4307 693d a786 af3d 1e63 813e c080 a03d
00000040: ef4f f2bb 7a4c 013d d733 33bc d761 793d
00000050: b6e8 22bd 3fca 0b3d 469d 7fbd 0c3c 663c
00000060: c9d7 e33c 1246 c8bc a10b ecbd 42c9 df3d
00000070: 135a 943d ee66 3abc 90a7 ca3c db2c 233e
00000080: e195 fabd 89e4 babd cb36 05bd 1ab6 b4bc
00000090: 94be 4cbd d3d8 9dbd f512 01be cce3 34be
000000a0: 496c 5fbd 3e69 12bd c0e5 713a f659 aabd
000000b0: c240 acbd 78f7 f63d e095 ddbc da85 cdbd
000000c0: 9a4e 233d d9ee 1e3e a52b 603d e6bc 6b3d
000000d0: bf06 e73d d1ec 93bb 15f4 7cbd c482 9abd
000000e0: efac 15bb 9593 3c3a 0e9f 48bd e47a 503d
000000f0: 512a 213d bca4 173e 5073 5b3c f988 25bd
00000100: 6f27 7ebd c6c5 1d3d 1805 2bbd bb68 e0bc
00000110: 1ff9 cc3d b049 733c ac83 a6bd 60cd 92bd
00000120: a93d 333d 5c41 273e 8f21 d73d e1ff 6fbc
00000130: f0e1 223e f55a 473a db16 d23c 7fb3 113e
00000140: b872 5b3d c6f0 5dbc b125 77bb 504a 8e3d
00000150: 8e7f f33d f49e a73d 6094 d03d 5f41 35bd
00000160: 3875 263d fe39 4ebc c3e1 f03d a301 8d3d
00000170: a088 163d a670 ddbd ba1e 6bbc 7419 bc3d
00000180: da87 513d 6f87 7ebd 54eb c7bd 4d24 1ebd
00000190: cb81 9e3d 8255 9c3c 5890 263e c180 2d3e
000001a0: 6e42 923d 40da 10ba c84e 383b 886a de3d
000001b0: ea56 cabd 97fd 34bd e717 a23d 7b85 83bd
000001c0: 2512 9ebd 284c 6a3d 5bbe 413d 9318 acbc
000001d0: e0ec 16bd a82d 043e c0da 223c e28c 0fbe
000001e0: dd31 023e 2bf1 2b3d 526e 10bd 56f1 de3c
000001f0: cb7b bd3d bcfc 76bb 4dd1 c7bd ac96 41be
00000200: 4276 13bd 8128 01bc 2ba2 203c 17ad 0d3e
00000210: e547 93bc e9b3 513d 8a7d 663d 57c6 25be
00000220: feb2 473d 7666 1f3e 8bc9 883d a7d6 d4bd
00000230: 6de5 1f3d 0cab d139 b12d c2bd 0784 053d
00000240: 0568 8e3d d750 6d3d ac4d 373d 41b3 3d3c
00000250: bf0b 1fbd 69a0 953c d994 913d c40f 0bbe
00000260: 58be 76bc f626 753d f266 163a 0b1a afbc
00000270: a4cf ab3c 288f 4a3d 6d9a cf3d 1ed5 b23d
00000280: bb51 26be cadc 033d af40 673d 7411 9dbc
00000290: 4a7c ce3b e0a5 dbbd 90dc 8cbc 69b1 7e3c
000002a0: d9d7 6d3d 9b3f 623d d4c0 2d3d ab0e 50be
000002b0: 23db c2bd 4f83 a93c adcd a53c b23f 24bd
000002c0: bb71 eb3c 8fcf 703d ccbf 803c aa74 853c
000002d0: 23e2 113e 9cd3 973d 1e11 31be 1fc5 7c3d
000002e0: 3bf3 493c 49ad 5b3b 23ac 91bd b4b1 26bd
000002f0: a4cd 79bd bf46 ed3c 2da1 c63d d727 31bc
00000300: 8f82 8ebd 9ffa 9dbd 6f5d 413a 4df9 cfbc
00000310: fc38 88bd 7d79 0e3d 513a 72bb 2511 20be
00000320: a29c 8abd b240 b53d 01f3 b83c 6791 103d
00000330: 888c b03d 03d5 cf3d 2093 8d3d e28e 933d
00000340: c22e 183e 9932 7b3d fee3 1cbe f58c acbb
00000350: e24c aabc acbb 95bd 70e5 83bd 8c0f 2abd
00000360: c4c4 ef3c 6cf9 4dbd 577e 103e 3d40 753d
00000370: b893 1a3e 6f32 1a3e 8a5f e33c 4096 a13d
00000380: 224d a1bd 5e32 2d3d 27b5 523c 9e4e 023e
00000390: a3a5 243d bc62 0d3e 6c40 453e 6f5d d63a
000003a0: 2b6a 31bd 17d2 493d 7fc3 4e3c c202 653b
000003b0: b0fb 4cbd e33a 0e3d 880b 24bd a95a 923c
000003c0: fca4 af3d ff73 f53c cdab 0b3e 66e5 2f3d
000003d0: 1971 df3c 6599 cdbc 4c28 223d 7d5f f93d
000003e0: 95e7 853d 03a1 e7bc 97b9 c63d 2d9f 3a3d
000003f0: 3697 98b9 cdb2 b3bc 3238 133a ebd5 15bd
0.045326736 -0.03879329 0.06524929 -0.046720184 0.12254323 0.048815735 0.00629222 -0.001606648
-0.080898955 0.062912285 0.017700111 -0.0021544022 0.05689169 0.08570605 0.25270933 0.07837057
-0.0073947827 0.031567074 -0.010937653 0.060884323 -0.03977271 0.034128424 -0.062405847 0.014052402
0.027812855 -0.024447475 -0.115256555 0.10927059 0.07243743 -0.011377079 0.024738103 0.1593508
-0.122356184 -0.09125621 -0.032522958 -0.022059489 -0.049986437 -0.077073716 -0.12604888 -0.17665023
-0.05454663 -0.035744898 0.0009227656 -0.0831794 -0.08410789 0.1205892 -0.027049005 -0.10035296
0.039869882 0.155208 0.054729123 0.057553194 0.112805836 -0.0045143147 -0.061756212 -0.07544473
-0.0022838672 0.00071936223 -0.04897981 0.050898448 0.039346997 0.14808935 0.013394192 -0.04041383
-0.062049326 0.03851869 -0.041752905 -0.02739369 0.100084536 0.014849111 -0.08130583 -0.071680784
0.043759976 0.16333526 0.10504448 -0.014648409 0.15906501 0.0007604801 0.025645664 0.14228629
0.0535762 -0.013546174 -0.0037711675 0.06947768 0.118895635 0.08184615 0.1018455 -0.044251796
0.040639132 -0.012587069 0.11761811 0.06885078 0.03675139 -0.108125016 -0.0143505875 0.09184542
0.05115495 -0.06214088 -0.09761682 -0.038608838 0.077396 0.019083742 0.16266 0.16943647
0.07141577 -0.0005525686 0.002812313 0.10860163 -0.09879859 -0.044187155 0.07914715 -0.06421944
-0.077183045 0.057201535 0.047300678 -0.021007812 -0.036846995 0.12908041 0.009939849 -0.14018586
0.12714334 0.041978043 -0.03526146 0.027214687 0.09252127 -0.0037687263 -0.09756718 -0.18905133
-0.03600145 -0.007883192 0.009804289 0.1383556 -0.017978618 0.051196966 0.056272067 -0.16188942
0.048754685 0.1556643 0.06679066 -0.10392504 0.039037157 0.00039991026 -0.09481371 0.032596614
0.06953434 0.057938423 0.044751808 0.011578382 -0.03882956 0.018264966 0.071084686 -0.13580233
-0.01506003 0.05985161 0.0005737386 -0.021374723 0.020973034 0.04945293 0.10136876 0.08732055
-0.16242115 0.032192983 0.05645817 -0.019173361 0.0063014375 -0.107249975 -0.017195016 0.015545228
0.058067176 0.05523644 0.042420223 -0.20318095 -0.09514453 0.020692496 0.020239675 -0.040099807
0.028740754 0.058791693 0.015716456 0.016290981 0.1424642 0.07413408 -0.17291686 0.061711427
0.012326057 0.0033520034 -0.071129106 -0.040696815 -0.06098713 0.028964398 0.096987106 -0.010812721
-0.06958496 -0.07713818 0.00073762884 -0.02538743 -0.06651494 0.03478383 -0.0036961029 -0.1563154
-0.067681566 0.0885023 0.02257681 0.035294916 0.08620554 0.10148051 0.069128275 0.07204987
0.14861587 0.06132755 -0.15321347 -0.005265827 -0.020788614 -0.07311186 -0.06440246 -0.041518733
0.02926863 -0.050286695 0.14110695 0.059875716 0.15095413 0.15058301 0.027755518 0.07889986
-0.0787604 0.042284362 0.012860573 0.12725303 0.040197026 0.13807195 0.19262856 0.001635475
-0.04331414 0.049272623 0.012619852 0.003494427 -0.050044715 0.034724128 -0.04005006 0.017865496
0.0857639 0.029962538 0.13639756 0.04294338 0.027275609 -0.025097558 0.03958921 0.12176416
0.065383114 -0.028275019 0.09703367 0.045561958 -0.0002910436 -0.021935845 0.0005615979 -0.03658096

fc1.bias f4 [10]
00000000: f8c6 8b3c 2bc3 ec3b 6488 c0bc 5656 00bc
00000010: 6d7b 3abd e46d 9fbc 692c 3bbd ec32 a13c
00000020: 0c3d e03c 9beb bbbb
0.01706265 0.0072254143 -0.023502536 -0.007833084 -0.045527864 -0.01946158 -0.04569665 0.019677602
0.02737286 -0.0057348735

fc2.weight f4 [2, 10]
00000000: 62a0 10bf 574e 67be c38c 1dbf 7f8c 5a3e
00000010: d4c9 64bd 0e0f b7bc 9774 183e c3ed f5be
00000020: b0cf a13e c19b 09bd 261f 153f ab76 ef3e
00000030: 629e 293f c23c a5bd c594 323e e966 f9be
00000040: 0206 f73d 2b29 b03e 794f 17be ae50 c9be
-0.56494725 -0.22588478 -0.6154291 0.21342658 -0.05585654 -0.022346046 0.14888225 -0.4803296
0.31603765 -0.033595804 0.58250654 0.46770224 0.662573 -0.08068229 0.17439564 -0.48711327
0.12061693 0.3440641 -0.1477641 -0.39319366

fc2.bias f4 [2]
00000000: d603 083e 46fb 93be
0.13282713 -0.28902644

exp_avg f4 [16, 3, 3, 3]
00000000: 1bc4 022f d587 192f f31b 4b2f db6d d02e
00000010: 861b 032f b330 362f 5571 8f2e 2d89 c32e
00000020: bf34 152f 2cb4 222f a1d5 212f 5740 1c2f
00000030: 1d86 442f a436 472f 94d8 472f e005 872f
00000040: e5bb 882f fe17 882f 9a07 c92f fc6a c62f
00000050: a7ff c52f e69c db2f f514 da2f 64ff de2f
00000060: 3c48 0530 689d 0430 e56b 0530 8d87 68b1
00000070: 7a11 5fb1 6eb8 51b1 41c5 5eb1 c5b5 55b1
00000080: b2c3 49b1 faee 54b1 81d6 4ab1 fdab 40b1
00000090: 4b89 1530 de36 3330 37e3 6730 76c7 2130
000000a0: 42d7 4230 09b7 7430 b4fc 3030 b7fa 4f30
000000b0: 44ba 7e30 ef04 17b0 2b95 02b0 c82a aeaf
000000c0: 9fb2 f5af 091e ceaf 57ad 70af 7cfb d3af
000000d0: b7ed 9daf cb07 16af ec1a 45b0 9d7a 49b0
000000e0: 06f3 44b0 3d54 46b0 8504 4bb0 d8db 46b0
000000f0: 8068 45b0 5616 4ab0 d72a 48b0 a2e9 ec2e
00000100: b0c4 b52e 7c73 9c2e 7a4e c82e b5bd 982e
00000110: 3252 742e f6b6 982e 9d8a 4f2e 74b6 d42d
00000120: 1d88 342f 2e71 2b2f 97c7 282f 53d9 242f
00000130: ad36 182f 82a9 102f ddaf 062f e382 ea2e
00000140: aead ca2e 179d fe2f 9d1a 0630 9bc9 0f30
00000150: d1eb df2f e7d4 e62f 4a6c fa2f b32b bc2f
00000160: 560a bb2f 1be7 c72f 4dda 1930 4e66 2230
00000170: 2b31 2930 6aea 1630 9f7d 1a30 21b4 2030
00000180: bba3 0830 cc89 0530 a220 0b30 7583 2a30
00000190: 65f1 3330 555f 3c30 24e5 2030 3ad4 2530
000001a0: accd 2d30 3add 0d30 3a75 0e30 33be 1430
000001b0: c3a9 96b1 e6c7 9db1 7c2c a3b1 d50f 98b1
000001c0: dfa7 a0b1 d957 a5b1 430a 9bb1 8061 a2b1
000001d0: 208c a7b1 3d02 322f fca5 a2ad 271c 3caf
000001e0: 4dad 022f ea81 31ae 714e 4eaf 6918 0baf
000001f0: f8fb 97af 92b2 e9af 4306 a0b0 1c4a bfb0
00000200: 8c8f dab0 0cb6 bcb0 598a dcb0 4667 f4b0
00000210: 6842 e5b0 5e76 01b1 39cf 0bb1 b38c d330
00000220: 1bd7 d930 0f91 df30 9248 d130 435f d830
00000230: 593d de30 76bb d030 5f3d d730 84ee db30
00000240: 6942 302f 1acd 312f 81fa 5b2f e5b1 262f
00000250: 6b41 372f 97be 5c2f 9085 0c2f 461b 262f
00000260: a068 4c2f e559 9c30 680b 9f30 46f6 a130
00000270: d741 9d30 2baf a030 3b86 a430 ac80 9b30
00000280: 15c0 9f30 f35e a330 4496 0831 3c4c 0831
00000290: 1978 0431 5bad 1031 3cde 0e31 2d97 0931
000002a0: 916f 1331 ae4f 1031 daaf 0b31 16c7 2031
000002b0: aa98 2031 f41c 1e31 781d 2531 d6bf 2331
000002c0: 1f7f 2031 54ab 2831 807d 2531 e8cb 2131
000002d0: d24b 2e31 f066 3031 5856 2e31 a792 3231
000002e0: abb5 3231 070a 3031 6bf4 3331 9bad 3231
000002f0: acab 3031 09a6 d4ad 6919 e2ad 2760 07ae
00000300: 8780 24ae cf7d 22ae 7a24 33ae e333 56ae
00000310: 3352 55ae 0309 61ae 7784 39af 6d7e 30af
00000320: e3d3 36af e4d0 06af 3883 03af 85bb 09af
00000330: ca50 c5ae 9f77 bbae fcc2 cbae e547 08af
00000340: 6bbc 06af 31f1 11af 4572 a5ae 2200 a2ae
00000350: 9e22 aeae 0529 25ae 391e 12ae 848a 24ae
00000360: 4dab 10b2 a5cd 05b2 1fac f2b1 ed3a 0ab2
00000370: 2d38 01b2 feb0 ecb1 5d5e 03b2 de67 f3b1
00000380: 29d6 dfb1 3136 a132 2f30 a532 f492 aa32
00000390: a9b1 a332 7c0f a732 9134 ac32 e1c3 a432
000003a0: f191 a732 1e99 ac32 59fe 9432 ef8c 9832
000003b0: f348 9e32 a60a 9832 2e55 9b32 57ae a032
000003c0: 2c89 9a32 bdfe 9d32 c066 a332 78bf 98b0
000003d0: 2ed3 d3b0 4218 ecb0 9680 c7b0 3fbd dcb0
000003e0: 10db eab0 976f e7b0 8d98 e5b0 5efd f0b0
000003f0: 2db2 5eb0 63c0 ebb0 1d92 28b1 5754 9bb0
1.1893102e-10 1.3963526e-10 1.8472672e-10 9.478259e-11 1.1924159e-10 1.6570105e-10 6.523019e-11 8.891941e-11
1.357021e-10 1.4797824e-10 1.4718761e-10 1.4210975e-10 1.7873743e-10 1.8118357e-10 1.8175889e-10 2.456053e-10
2.4871763e-10 2.4755303e-10 3.6567088e-10 3.6092007e-10 3.6015743e-10 3.994735e-10 3.966886e-10 4.056303e-10
4.848777e-10 4.824501e-10 4.8538445e-10 -3.3837495e-09 -3.2460705e-09 -3.051834e-09 -3.2417378e-09 -3.1098903e-09
-2.936059e-09 -3.0985903e-09 -2.95168e-09 -2.8037441e-09 5.440099e-10 6.519779e-10 8.43602e-10 5.885491e-10
7.088269e-10 8.902679e-10 6.438754e-10 7.566245e-10 9.266936e-10 -5.494049e-10 -4.7505705e-10 -3.1680814e-10
-4.4692158e-10 -3.7492523e-10 -2.1889456e-10 -3.8559367e-10 -2.872704e-10 -1.3645189e-10 -7.170644e-10 -7.329762e-10
-7.164974e-10 -7.215169e-10 -7.385739e-10 -7.2344397e-10 -7.1816686e-10 -7.3518913e-10 -7.2820455e-10 1.0773539e-10
8.265866e-11 7.114573e-11 9.108887e-11 6.9458585e-11 5.555218e-11 6.94466e-11 4.7189464e-11 2.4182635e-11
1.6419262e-10 1.5592569e-10 1.535042e-10 1.4992922e-10 1.3843744e-10 1.3156945e-10 1.2249708e-10 1.0664338e-10
9.216748e-11 4.631395e-10 4.8786736e-10 5.2309596e-10 4.073102e-10 4.1988032e-10 4.555168e-10 3.422805e-10
3.4022446e-10 3.63621e-10 5.59713e-10 5.908064e-10 6.1551714e-10 5.4902805e-10 5.620339e-10 5.846364e-10
4.9709187e-10 4.858094e-10 5.061428e-10 6.203245e-10 6.5462863e-10 6.8529477e-10 5.853329e-10 6.032824e-10
6.322931e-10 5.1609883e-10 5.182589e-10 5.4112376e-10 -4.3848742e-09 -4.592027e-09 -4.7489817e-09 -4.425582e-09
-4.6756976e-09 -4.812119e-09 -4.5122603e-09 -4.725905e-09 -4.87627e-09 1.6189801e-10 -1.849098e-11 -1.7108502e-10
1.1885e-10 -4.0360527e-11 -1.8763459e-10 -1.2650649e-10 -2.7645775e-10 -4.2509335e-10 -1.1643312e-09 -1.3918142e-09
-1.5902386e-09 -1.3730541e-09 -1.6046428e-09 -1.7782689e-09 -1.6680817e-09 -1.8839255e-09 -2.0344955e-09 1.539226e-09
1.5849965e-09 1.6266614e-09 1.5227377e-09 1.5743143e-09 1.6170062e-09 1.5187271e-09 1.5660752e-09 1.6002137e-09
1.60307e-10 1.6170923e-10 2.0006931e-10 1.5160813e-10 1.6666994e-10 2.0076595e-10 1.2780377e-10 1.5107302e-10
1.8590862e-10 1.1376043e-09 1.1572014e-09 1.1784287e-09 1.1441966e-09 1.1691318e-09 1.1970721e-09 1.1314305e-09
1.1623366e-09 1.1886797e-09 1.987602e-09 1.983394e-09 1.9276796e-09 2.10533e-09 2.0790045e-09 2.0022057e-09
2.1454734e-09 2.100005e-09 2.0327122e-09 2.3396232e-09 2.3369844e-09 2.3008484e-09 2.4027411e-09 2.3828668e-09
2.3355324e-09 2.4544606e-09 2.4081999e-09 2.354449e-09 2.5363431e-09 2.5669884e-09 2.5369413e-09 2.5985771e-09
2.6005675e-09 2.561707e-09 2.6186864e-09 2.6001092e-09 2.5708955e-09 -2.4175344e-11 -2.570451e-11 -3.0780847e-11
-3.7403438e-11 -3.6946276e-11 -4.0732286e-11 -4.870405e-11 -4.85036e-11 -5.116708e-11 -1.6872713e-10 -1.6052022e-10
-1.6628081e-10 -1.2261442e-10 -1.1960999e-10 -1.2526698e-10 -8.972874e-11 -8.5250244e-11 -9.2660074e-11 -1.239467e-10
-1.2254169e-10 -1.3273362e-10 -7.5236296e-11 -7.366931e-11 -7.918753e-11 -3.755309e-11 -3.32234e-11 -3.741231e-11
-8.4208525e-09 -7.788377e-09 -7.062695e-09 -8.046055e-09 -7.521561e-09 -6.8886257e-09 -7.646659e-09 -7.084039e-09
-6.5145014e-09 1.876751e-08 1.923044e-08 1.9857431e-08 1.9056488e-08 1.94484e-08 2.004734e-08 1.9181188e-08
1.9507725e-08 2.0093065e-08 1.7345132e-08 1.7759218e-08 1.8426794e-08 1.7699971e-08 1.808311e-08 1.8705732e-08
1.7990338e-08 1.8393047e-08 1.9022423e-08 -1.1113874e-09 -1.5412291e-09 -1.7178154e-09 -1.4515702e-09 -1.6060894e-09
-1.7088002e-09 -1.6839178e-09 -1.67053e-09 -1.753431e-09 -8.101633e-10 -1.715318e-09 -2.4530273e-09 -1.1301705e-09
