models/checkpoint_t2.pkl (torch, 387849 bytes, 54 tensors)

layer1.0.weight f4 [16, 3, 3, 3]
000000 e7 ed 41 3e 23 49 78 3e f8 1a be 3e 9b b3 a1 3e
       0.18938409 0.2424665 0.3712995 0.3158234
000010 ab f2 c4 3e 37 04 d4 3e 96 cc 60 3e a4 14 02 3d
       0.3846639 0.41409466 0.21953043 0.031757966
000020 35 f3 96 3e 74 83 89 bd 14 8e d4 3d e3 31 1e bd
       0.29482427 -0.06714526 0.10378662 -0.038621794
000030 07 af b9 3d 3c a5 a6 3c 4e 23 d7 3d be 04 f3 3d
       0.09066587 0.020342462 0.10504781 0.11866139
000040 80 56 62 be 73 51 01 3d f6 85 5f be 0e 49 e6 bd
       -0.2210331 0.031571817 -0.21828446 -0.11244403
000050 0c b8 7d bc d8 9f e3 bc d1 c0 9b bc 38 bb a9 bd
       -0.015485775 -0.02778618 -0.01901284 -0.08287662
000060 bd c9 1f be 7e d6 0e 3d 12 3a 4b be 83 aa 9d bd
       -0.15604301 0.034872524 -0.19846371 -0.07698538
000070 35 45 82 3c 98 0a dd 3d 86 9d 40 3e 23 b8 42 3e
       0.015902141 0.10793036 0.1881009 0.19015555
000080 87 6f aa bd cb 38 cc bd 70 4e 53 3e 85 70 ec bc
       -0.083220534 -0.0997177 0.2063539 -0.028862247
000090 ee ac 4a bd 98 ea 3f bd 73 c8 5e 3e 3c 58 9a b9
       -0.049481325 -0.046854585 0.21756153 -0.0002943891
0000a0 20 62 ea 3d 9e 73 e2 3d d8 2b 09 be fb a3 32 3e
       0.11444497 0.110572085 -0.13395631 0.17445366
0000b0 54 fe 19 bd 76 ef 64 be 8f 3a 8e be e6 0b 05 bf
       -0.03759606 -0.22356972 -0.27779052 -0.5197128
0000c0 64 ef 9c be 01 c5 07 bf 7d af 1a bf 55 1a 67 be
       -0.3065139 -0.5303498 -0.60424024 -0.22568639
0000d0 2c b6 dd be e8 bf 2b bf 8f 60 57 3d 11 18 28 3e
       -0.4330305 -0.670897 0.05258232 0.1641543
0000e0 eb 29 4e 3e e9 c6 3a be 82 44 cb 3d fb b9 21 bd
       0.20133178 -0.1823994 0.09925176 -0.039484005
0000f0 c5 71 6d 3d 9d b9 79 3d da 26 06 be 5e f1 ed bd
       0.057969827 0.06096803 -0.13100758 -0.11618303
000100 f5 0d 85 be 4e 18 68 3d 39 04 ae be be 71 f5 bd
       -0.2598721 0.056663804 -0.33987597 -0.11984585
000110 26 4b 58 be c2 84 a2 be cf f0 7e be 29 0b c3 bd
       -0.21122417 -0.3174191 -0.24896549 -0.09523613
000120 80 f9 e8 bc da cd 2c 3e 0e f8 2b 3e 6f 0f f4 3d
       -0.028439283 0.16875401 0.16793844 0.11917006
000130 fd 32 ab bc d7 3b 89 3e 3d 81 08 3e dd 5e 0b 3e
       -0.020898337 0.26803467 0.1333055 0.13610406
000140 f5 30 fa bc f6 ce 5c bc b1 69 4c 3e ee 59 86 3e
       -0.030540923 -0.013477078 0.19962193 0.26240486
000150 a4 dd 54 be 0f 65 8f bd 06 a3 db 3d fd e5 04 be
       -0.20787674 -0.07001697 0.10724454 -0.12978359
000160 46 0c 84 be 46 a2 65 be ff 7d a1 3e 88 7d c9 3c
       -0.25790614 -0.22425184 0.3154144 0.02459599
000170 c8 c0 84 3e 72 6d cc bd 3c ba cf 3d bd 44 18 3e
       0.2592833 -0.099818125 0.10142943 0.14869972
000180 56 65 50 be df c7 21 3c 35 51 5c be 14 0b 1b 3e
       -0.20351157 0.009874313 -0.21515353 0.15140945
000190 ca 09 67 3e 8c 26 7b bb 23 a7 d2 bd b4 b9 c7 bd
       0.22562328 -0.0038322536 -0.10285785 -0.09752217
0001a0 74 e0 19 3e 9c 8a 6e be 8e f3 42 be 82 6a ef bc
       0.15027028 -0.23295063 -0.19038221 -0.029225592
0001b0 ba 47 ab be ec 91 b0 be 48 46 16 3b 0b 83 64 3b
       -0.3345316 -0.3448633 0.0022930074 0.0034868147
0001c0 22 2d 34 be 3d d9 7b be b5 92 35 3c c1 fb 20 be
       -0.17595342 -0.24594589 0.011082341 -0.15721036
0001d0 55 f5 d3 bd 6c 29 d9 be 00 1b 0b bd b2 1b cd bd
       -0.10349528 -0.42414415 -0.033961296 -0.10015048
0001e0 c3 08 7d bc 83 ed 96 be 57 d9 08 be c5 55 a5 be
       -0.0154439835 -0.29478082 -0.13364159 -0.32292
0001f0 71 a1 a8 3d 19 df 93 be f4 b0 37 3d 53 f1 03 bd
       0.082339175 -0.28881148 0.04484649 -0.032212567
000200 5f 5d 3c 3d 65 c7 83 bd 24 3c 2b bd 08 a3 97 3e
       0.045987483 -0.06434516 -0.0418054 0.2961657
000210 88 b3 1f 3d 2e 47 8a 3d e4 9f 9d 3d 36 aa b0 be
       0.038989574 0.06751858 0.07696512 -0.3450486
000220 7f 16 d9 3d 8a f5 5a 3e e7 1c 90 be 56 bb 3b be
       0.10599994 0.21382728 -0.2814705 -0.18333182
000230 5f 2d 1f 3d 0c a1 12 be f6 4b 0f be 94 17 a4 3e
       0.03886163 -0.14319247 -0.1399382 0.3204924
000240 23 06 8f be 3b d8 1d bc db db 81 3e 4d 8d 16 be
       -0.2793437 -0.009634073 0.2536305 -0.1470234
000250 4a 68 d2 bd 5b 3d 71 3e 34 4e 00 be a9 7c 59 3e
       -0.10273798 0.23558562 -0.12529832 0.2123896
000260 bb 29 3c bd b2 8f 2a be ef e2 f3 bd 3d e2 6d 3e
       -0.045938235 -0.16656378 -0.119085185 0.23230834
000270 7e fb 55 3d 7e f7 cb bd 7e f8 6e 3e ba e4 38 3a
       0.052241795 -0.09959315 0.2333698 0.0007053126
000280 bf 30 69 3d 19 8f f3 3c 13 1c 4e 3e 87 d6 4a 3b
       0.056931254 0.02973132 0.20127897 0.0030950622
000290 7c 47 8d bd 68 02 42 3e ad 77 48 bc 7f 09 77 3e
       -0.068984 0.1894623 -0.012235564 0.24124716
0002a0 c5 b3 a6 3c c2 90 a8 3e 63 cf 0f bd 91 a7 8b be
       0.020349393 0.3292294 -0.03510989 -0.2727628
0002b0 47 62 5e be 4a 3b 8b be ee 69 2b 3e 16 06 41 3b
       -0.21717177 -0.2719367 0.16739628 0.002945309
0002c0 2f 7d 59 bd 7e 31 9e bc 32 8e ef 3d cc 80 4d 3e
       -0.0530979 -0.01931071 0.116970435 0.20068663
0002d0 e3 27 57 be b2 43 a1 be 42 be 6b bd 2a 9c 0e 3e
       -0.2101131 -0.3149696 -0.05755449 0.1392676
0002e0 28 10 8c bd f8 02 0b bc 60 30 b9 3d 57 01 96 bb
       -0.06839019 -0.0084845945 0.0904243 -0.0045777964
0002f0 91 a6 77 3d 66 e5 13 be e4 21 77 bd d8 fb 66 be
       0.060461584 -0.14442977 -0.060335055 -0.22557008
000300 7c 16 a9 bd 9a a5 61 be ee 52 aa 3d 28 c0 5f bd
       -0.08256242 -0.22035828 0.08316599 -0.054626614
000310 17 a8 b7 bd 2b fa 11 3e 6b fd b8 3c 2c ea 41 be
       -0.089676075 0.14255588 0.022581777 -0.18936986
000320 d6 f2 59 be b8 3e 0b 3c a3 28 8e 3d a4 88 1c 3e
       -0.21284041 0.00849884 0.069413446 0.152865
000330 82 98 3a 3e 1e 67 c1 bd ec 41 4d 3e 4d ab 38 be
       0.1822224 -0.09443496 0.20044678 -0.18034096
000340 54 09 25 bd 4a 7f 4d be a0 ec a8 be 42 bd 7a be
       -0.0402921 -0.20068088 -0.3299303 -0.24486259
000350 88 d8 fc bd 62 bd b6 be 65 c1 90 bd a1 da ad be
       -0.123459876 -0.35691363 -0.07068137 -0.33955863
000360 92 43 37 3e b1 91 02 3d 08 91 07 bb fc e6 0a be
       0.1789687 0.031877223 -0.002068581 -0.13564676
000370 3d cf 84 be 9f 56 f3 bd 47 26 81 be e0 02 95 be
       -0.2593936 -0.11881756 -0.25224516 -0.29103756
000380 af 01 59 be 56 51 93 3e 13 94 bd 3c b9 8e 43 3d
       -0.21192048 0.28772992 0.023141896 0.047743533
000390 a0 05 3e bd aa d1 68 3b 36 aa 16 bd 53 36 94 3e
       -0.046392083 0.003552536 -0.03678342 0.28947696
0003a0 e1 8e 0f be dd 8a 1b 3e c6 c0 e9 bb 85 37 32 be
       -0.14019348 0.15189691 -0.007133576 -0.17403992
0003b0 03 a5 ca bd fa 9f 94 bd 68 57 86 be 7c 3d b2 3d
       -0.09894755 -0.072570756 -0.2623856 0.087031335
0003c0 f9 29 d5 bd f5 69 32 3d 6c 27 56 be 38 1f 8a 3e
       -0.10408396 0.04355808 -0.20913476 0.26976943
0003d0 f6 73 d5 3d fc a1 b8 3e ab b3 19 3e 05 68 26 3e
       0.104225084 0.36061084 0.15009944 0.16250618
0003e0 ba 07 3b 3d 1e 09 e8 bd e9 09 ba 3c 70 2e af 3c
       0.045661665 -0.11329864 0.022709804 0.021384448
0003f0 17 95 df bb 63 1a d6 bd 87 11 6f be 89 26 ba bd
       -0.006823193 -0.104542516 -0.2334653 -0.09089381

layer1.0.bias f4 [16]
000000 d9 d7 17 be 5b 4a 13 3d 52 d0 1c be af 03 4d 3e
       -0.14828433 0.035959583 -0.15313843 0.20020936
000010 8f 87 34 3d 1d 16 af 3b d6 bf 05 bd f0 5a 33 3e
       0.04407459 0.0053432123 -0.032653652 0.17515159
000020 02 b5 8b bd 23 91 7c bd 62 4b c8 3d 95 95 1b 3e
       -0.06821634 -0.06166185 0.09780003 0.1519378
000030 63 91 5b bd 22 b0 3d 3e be 04 33 be 2b f8 a3 bd
       -0.05360545 0.1852422 -0.17482278 -0.08006319

layer1.1.weight f4 [16]
000000 29 cc a4 3f 1f 63 6c 3f 70 64 8a 3f 22 cb 18 3f
       1.2874805 0.92338747 1.0811901 0.59684956
000010 be 3f 47 3f 90 96 63 3f ef 3f 75 3f 20 a2 49 3f
       0.7783164 0.88901615 0.9580068 0.7876301
000020 99 83 22 3f 07 76 b0 3f 5b 67 63 3f 3b 90 84 3f
       0.6348205 1.3786019 0.8882958 1.0356516
000030 31 f3 4b 3f 91 e9 a3 3f b3 82 73 3f ab e7 95 3f
       0.79667956 1.2805654 0.95121306 1.1711324

layer1.1.bias f4 [16]
000000 3a a9 8e bc e7 58 0f be 58 13 4d 3d cc 84 93 bd
       -0.017414678 -0.13998757 0.050067276 -0.07203063
000010 15 ec 08 bf 93 56 5d 3e df f2 15 be 21 0f 67 be
       -0.5348523 0.21615057 -0.14643429 -0.22564365
000020 da 2a 71 be 28 e7 0f 3e fb b4 21 bc d3 e5 92 bd
       -0.23551503 0.14053023 -0.009869809 -0.07172742
000030 b7 92 b3 be 15 9f 06 3d 69 be 98 be 93 95 7c 3e
       -0.35072872 0.032866556 -0.2983277 0.24666433

layer1.1.running_mean f4 [16]
000000 b8 a4 68 3f c2 75 be bf 0a 3a ba be 88 0a 0a 3e
       0.9087634 -1.4879687 -0.36372405 0.1348058
000010 b6 31 ae bf f1 a6 e4 bd af 24 82 3d 38 31 8e bf
       -1.360892 -0.11164654 0.06354653 -1.110877
000020 17 9f 45 bf 6c 19 e3 3e 5c dc 8e be 4e b7 e7 3e
       -0.77195877 0.44355333 -0.27902496 0.45257038
000030 29 23 d2 bf 95 e5 32 3f 37 8b a9 bf b8 b1 52 bf
       -1.641698 0.69881564 -1.324561 -0.8230243

layer1.1.running_var f4 [16]
000000 ea 62 1f 3e ed 89 2a 3f 64 c5 a6 3c f5 de 69 3b
       0.15565076 0.6661671 0.020357795 0.0035685871
000010 30 84 6d 3e 43 e2 b8 3b d4 8e 85 3c 56 f5 8f 3e
       0.23194957 0.005642207 0.016303457 0.28116864
000020 87 0c 82 3d 41 3f 20 3d 56 3a f2 3c 72 d6 8d 3d
       0.06350046 0.039122824 0.029568832 0.06925668
000030 85 dc c7 3e 0e ab 8a 3d 74 55 27 3e 44 06 a2 3d
       0.3903543 0.06770907 0.16341192 0.07911351

layer2.0.weight f4 [32, 16, 3, 3]
000000 46 04 a2 3d 8f ab 56 bc b8 52 2f 3e 55 7c 1a bd
       0.07910971 -0.013102426 0.17121398 -0.03771623
000010 5c d6 71 3d 68 d6 52 3d db 6d 83 3d a1 d0 ce 3d
       0.05904232 0.051474005 0.06417438 0.100983866
000020 6e 79 1f 3e 39 59 6f bc 1b 49 57 bd 7d a1 5a bd
       0.15573665 -0.014608675 -0.052559953 -0.053376663
000030 fc 7b 02 be d8 87 fe 3a 8d 20 3c bc 2b 2c cf bd
       -0.12742609 0.0019419147 -0.01148237 -0.10115846
000040 58 3d 00 be 88 1c 1b be a0 5d 7e bd 50 40 c6 bd
       -0.12523401 -0.15147603 -0.062101007 -0.096802354
000050 5d 68 23 be 77 29 17 3b 71 8f fb 3c 7d c5 1a be
       -0.1595778 0.0023065486 0.030708047 -0.15114398
000060 d8 36 b6 bc 1f b5 06 be cf 6d 42 be 4a 9a 06 bb
       -0.022242948 -0.1315503 -0.18987201 -0.002053874
000070 1f 4c af bc 53 b6 2a 3d 07 e0 fd 3b 66 2b e5 ba
       -0.021398602 0.041677784 0.0077476534 -0.0017484247
000080 e1 f2 55 bc 4b fa 9f bd fd 63 d7 bd 5c c7 09 be
       -0.013058395 -0.078114115 -0.10517118 -0.13454956
000090 18 4a c6 bc 1a 95 40 3d 08 f7 b0 bd 59 3d d4 3d
       -0.024205253 0.047017194 -0.086408675 0.10363264
0000a0 e7 67 97 3d d3 4d 4a bb ae f2 a7 bc a2 9e 77 3c
       0.07392865 -0.003086914 -0.02050146 0.015113505
0000b0 99 0b ae bd 59 e4 96 bd 5f 10 58 3e 55 2c 3f 3e
       -0.08498306 -0.073677726 0.21099995 0.18669255
0000c0 96 a8 6e 3d ae 6e 09 3e eb 95 85 3e 87 d1 5e 3d
       0.058266245 0.13421127 0.2609094 0.05439904
0000d0 1d 14 7e 3e 2b 40 05 3e 4d a6 96 bd f9 1a 4e bd
       0.2481236 0.1301276 -0.07355938 -0.050318692
0000e0 73 de 20 bc 37 55 42 be cd 0a 63 be 43 a1 78 bd
       -0.009818661 -0.1897782 -0.22172089 -0.060700666
0000f0 85 09 8f bd aa 5e 63 bd b1 5e bf bd fc da 41 bd
       -0.069842376 -0.0555102 -0.09344233 -0.04732798
000100 d3 77 09 bd 12 4f 29 bd 71 18 ea 3b 52 80 8c bc
       -0.03356154 -0.041335173 0.007144027 -0.017151032
000110 07 b8 36 bd bf 31 71 3c 18 50 60 3c 2e 31 2a bd
       -0.044609096 0.014721333 0.013690971 -0.041550808
000120 02 d3 26 3e 63 8f aa 3b df 1c b4 bd 0a 14 eb 3c
       0.1629143 0.0052050813 -0.08794569 0.028696079
000130 04 dc 3d bd b2 89 4d bc 7c 67 83 3d 42 3f cf bd
       -0.0463524 -0.012545036 0.064162225 -0.10119487
000140 18 a0 d5 bd ac ee 00 3e d8 d6 3b 3e 8b 9c 85 3d
       -0.10430926 0.12591046 0.18343675 0.06523999
000150 a9 b4 8e 3d 8d 89 d0 3d 38 ad 22 3e af 55 87 3d
       0.06968052 0.10182486 0.1588639 0.0660814
000160 49 bf 0b 3e 60 c2 04 3e f5 0f ab 3d cd 7b 35 3e
       0.13647188 0.12964773 0.08352653 0.17723008
000170 9c 2e b6 3d 38 a0 56 3d ba 9b 0a 3e 5e 4a 83 3c
       0.08895609 0.05239889 0.13535967 0.016026672
000180 18 e1 b8 3c c5 26 6f 3d 5b c1 24 3d b5 c5 88 bc
       0.02256827 0.058386583 0.04022346 -0.016695837
000190 b5 10 8b bc 26 66 b5 ba 16 9e 9f bd b6 29 60 3d
       -0.01697574 -0.0013839647 -0.077938244 0.05472728
0001a0 5a 4f 42 3c f9 a1 ad 3c d3 6d 81 3d 56 89 97 3d
       0.011859739 0.021195399 0.063197754 0.073992416
0001b0 6e af 30 3d 57 33 33 bd 1c 3e fc bd e5 1b 17 bd
       0.043136053 -0.043750133 -0.12316534 -0.036891837
0001c0 96 54 07 3d ad b1 be bc 6f 91 7f 3c e9 ea e8 bd
       0.03303965 -0.023278082 0.015598639 -0.113729306
0001d0 05 6d af bd 68 0b fa 3c 3c c7 c1 3c b5 62 f3 3a
       -0.08565716 0.030523017 0.023654573 0.0018568846
0001e0 b1 bf a1 bd 4e 95 01 bd d1 44 7c bc bd f1 9f bd
       -0.0789789 -0.03163653 -0.0153972665 -0.0780978
0001f0 6b 65 47 bd ff 81 4a bd dc 2f 74 3e 70 9f 23 3e
       -0.048680704 -0.04944038 0.23846382 0.1597879
000200 0d 0c 28 bc 74 84 6f 3e ec 1d 14 3e 1b 8e b5 3d
       -0.010256779 0.2339037 0.1446454 0.08864995
000210 a5 36 1b 3e a0 57 06 3d af 68 5a bd e2 a4 1d 3f
       0.15157564 0.03279841 -0.05332249 0.61579716
000220 c3 33 fe 3e 47 01 95 3e 43 26 1c 3f 24 13 19 3f
       0.49648866 0.29102537 0.6099588 0.5979483
000230 e5 94 68 3e 89 68 fc 3e 6d 0d 95 3e 06 40 8f 3d
       0.22713049 0.49298504 0.29111806 0.069946334
000240 b5 c0 69 3d 0e 80 a3 3d 4c 9f 05 3d c6 92 04 3e
       0.057068545 0.07983409 0.03262262 0.12946615
000250 1f df ee 3c db 3f af 3c c9 4e 0f 3e 70 83 e2 3d
       0.029159127 0.021392753 0.13994898 0.11060226
000260 6f 88 16 3d 51 55 9a be a5 1e 48 be cf 04 0f be
       0.036751207 -0.30143216 -0.1954294 -0.13966678
000270 04 f1 a9 be d2 5e 1a be 68 f9 c5 bd 0e 04 94 be
       -0.33191693 -0.15075234 -0.09666711 -0.28909343
000280 78 19 60 be e0 3e 13 be 61 7c 17 be 3d 7c 13 be
       -0.21884716 -0.14379454 -0.1479354 -0.14402862
000290 9b ec 50 be 5a 16 35 be 6b 19 99 be 76 e2 9a bd
       -0.20402758 -0.17684308 -0.29902205 -0.07562725
0002a0 e1 e7 5c be 0c 77 9e be dd 48 8c bd 83 95 77 3d
       -0.2157283 -0.309502 -0.06849835 0.06044532
0002b0 b2 4e 8b bd d6 15 f2 bc 42 7d 73 3c 32 84 ab bd
       -0.06802119 -0.029551428 0.014861407 -0.08374824
0002c0 5b 0b 05 3d 2b c6 d2 bd 23 dc 2e bd 44 e0 5f 3d
       0.032481533 -0.10291704 -0.042690407 0.054657236
0002d0 34 aa 27 3e bd dd 8a 3e b2 70 86 3e 50 cf 20 3e
       0.16373521 0.27122298 0.26257855 0.15704083
0002e0 3e 26 e2 3d 58 ab 93 3e 0f 6e 55 3e 91 59 6c 3d
       0.1104245 0.28841662 0.20842765 0.057702605
0002f0 ac 0a 48 3e b2 46 56 be 07 5b 9c bd 44 0a 3a be
       0.19535321 -0.20925406 -0.076345496 -0.18167979
000300 21 b2 02 be f0 4e f9 bd 34 ed d3 bd b2 bf 79 be
       -0.12763263 -0.12173259 -0.10347977 -0.24389532
000310 10 c4 16 be 37 d6 63 be 73 e7 1e be 66 e6 fe bd
       -0.1472323 -0.22249685 -0.15517978 -0.12446289
000320 e9 f9 2a bc 03 6a cf bd 71 e7 50 bc db 01 08 bd
       -0.01043556 -0.10127642 -0.012750492 -0.033204895
000330 cd a4 0f 3d 08 c3 47 bd 63 7f d5 bd 36 83 81 bd
       0.035069276 -0.04876998 -0.10424688 -0.063238546
000340 f4 2e cb bd 94 bf c5 3a aa 2d 3a be 35 f1 86 bd
       -0.09921065 0.0015087002 -0.18181482 -0.06588975
000350 9e 9a 80 bd 25 ac 0c be 67 a7 43 be 74 38 43 3d
       -0.06279491 -0.13737543 -0.19106828 0.04766126
000360 d8 f5 63 bd af ed fb 3c 3c da 3f 3d 9a 83 20 bd
       -0.055654377 0.030752985 0.046838984 -0.039188005
000370 d9 6c b2 ba cb f1 63 3e 36 9f 1a be 7a 52 ca bd
       -0.0013612761 0.22260205 -0.15099797 -0.098790124
000380 8f 9a 83 3e 20 a6 06 3d 56 2c 14 bd ef 1f 7d 3b
       0.25703856 0.032873273 -0.036175095 0.003862377
000390 c3 48 cd bd 43 f9 c0 bd 28 fc 99 bd 7f 11 ef bd
       -0.10023644 -0.09422543 -0.07518798 -0.11673259
0003a0 df 29 f6 bd 22 bf 13 bd a8 08 89 be 4a 89 7e be
       -0.12019705 -0.03607095 -0.26764417 -0.24857059
0003b0 52 f0 39 bd cc d4 3c be 5c 4c 3d be 01 f2 83 bd
       -0.045395203 -0.1844055 -0.1848616 -0.06442643
0003c0 97 be fc bd f7 b6 59 bd 6e ce 16 bc f9 e4 e0 bd
       -0.1234104 -0.053153004 -0.00920449 -0.10981173
0003d0 a9 f8 49 be 05 97 81 be 99 84 2d be c6 85 26 be
       -0.19723763 -0.2531053 -0.16945113 -0.16261968
0003e0 3d 1e 34 be 71 e6 6d be ec 4e 5f be a1 3a 55 be
       -0.1758966 -0.23232438 -0.2180745 -0.20823146
0003f0 f4 29 8e bd 43 2e 6a 3d 46 5b f5 3d 0a 3b 6a bd
       -0.06941596 0.057173025 0.119803 -0.05718521

layer2.0.bias f4 [32]
000000 30 01 96 bd ca 32 9e bb c8 6c 82 3d c4 ca c9 3d
       -0.07324445 -0.004827832 0.063684046 0.098531276
000010 70 53 52 bd e7 67 a4 3d 32 16 79 bd 23 1c 58 bd
       -0.051349103 0.0802763 -0.060812183 -0.05276121
000020 af 67 cb 3c 5b 22 9f 3d 1e fd 8a bc 02 53 0a 3d
       0.024829714 0.07770225 -0.016966399 0.03377057
000030 7f a5 d3 bd cd cd 3a 3c 4d e0 78 bd f6 0e 57 3d
       -0.103343 0.011401606 -0.060760785 0.052504502
000040 3c a6 0e bd 32 05 e5 3b 3b 89 53 bc 66 08 d0 bb
       -0.034826502 0.0069891447 -0.012911136 -0.0063486574
000050 be e9 dc 3c 2c 89 f1 3d 3d 60 cb bc ff ba 99 3d
       0.026966926 0.117937416 -0.024826163 0.0750637
000060 3f 42 26 bc 6d ac a1 3d e0 76 1a bc ea 51 f4 bd
       -0.01014763 0.07894216 -0.009427756 -0.11929686
000070 a4 bf 68 3d ff fe a0 3d 9d 79 33 bd 88 80 6c bd
       0.056823388 0.07861137 -0.04381715 -0.057739764

layer2.1.weight f4 [32]
000000 23 ca 74 3f 31 85 9f 3f cc 69 56 3f 42 d2 6c 3f
       0.95620936 1.2462522 0.83755183 0.9250833
000010 88 8c 8f 3f b0 60 89 3f c7 8f 6a 3f dc 75 90 3f
       1.1214762 1.0732632 0.91625637 1.1285968
000020 55 92 40 3f e5 8a 6f 3f a4 71 99 3f a2 b5 77 3f
       0.75223285 0.9357131 1.1987805 0.96761525
000030 50 91 8a 3f e3 cf 91 3f 01 00 94 3f 14 fe 90 3f
       1.0825596 1.1391567 1.1562501 1.1327538
000040 20 8b 58 3f 8f 90 66 3f 4a 38 60 3f 1a 3f 73 3f
       0.8458729 0.9006433 0.8758589 0.9501816
000050 ab a1 4a 3f ca e6 89 3f 02 03 86 3f 50 b2 60 3f
       0.79152936 1.0773556 1.0469668 0.87772083
000060 0d 36 9d 3f 0f 43 96 3f aa 27 55 3f e6 a3 92 3f
       1.228212 1.1739215 0.8326365 1.1456268
000070 23 dd 59 3f 55 ea 40 3f 60 a2 79 3f d8 11 8d 3f
       0.8510305 0.7535756 0.9751339 1.102107

layer2.1.bias f4 [32]
000000 fb f9 82 be 74 c1 65 bd fe 87 ae be 5c 6b 84 be
       -0.25581345 -0.056092694 -0.3408813 -0.2586316
000010 3e 65 f5 bc 02 1a 6b be cc 6d 87 be da b5 e3 bd
       -0.029955503 -0.2295914 -0.26450956 -0.1111867
000020 58 41 66 be a6 8a 7e be 46 09 06 bd ba 5e 73 be
       -0.22485864 -0.24857578 -0.032723688 -0.23766604
000030 bb c2 05 3c ba 37 23 bd 95 88 5b be 21 e5 b1 be
       0.008164103 -0.039848067 -0.2143882 -0.34745124
000040 8f 0e ba be 75 99 ce be fa ab 7a be 10 bd 67 be
       -0.36339232 -0.40351453 -0.24479666 -0.22630715
000050 ae ae 8c be 17 4c 43 be 4d f7 38 be 9f 09 02 bf
       -0.2747702 -0.19071995 -0.18063088 -0.5079593
000060 72 8c 0e 3e 5f eb 10 3c 28 9b c4 be 5d 23 5d 3d
       0.13920763 0.008845179 -0.38399625 0.053988803
000070 e8 d7 a8 be 10 b4 07 bf e0 37 6e be 98 65 47 be
       -0.32977223 -0.5300913 -0.23263502 -0.19472349

layer2.1.running_mean f4 [32]
000000 e9 44 56 40 55 4f 83 c0 26 ec 50 c0 29 3a 93 bf
       3.347956 -4.103434 -3.2644134 -1.1502124
000010 53 bd bc bf 14 4d 89 c0 fa c2 0c bf 37 e4 90 bf
       -1.4745277 -4.290659 -0.5498501 -1.1319646
000020 cd db f1 3e 83 11 f7 bf 49 8c df bf 51 13 03 bf
       0.47238007 -1.9302219 -1.7464687 -0.5120135
000030 36 c5 61 be 78 bd a2 bf 16 18 11 c0 f4 7b 78 c0
       -0.22047886 -1.2714071 -2.267095 -3.8825655
000040 cd 9b 99 bf 23 b1 1b 40 6f 6c 04 c0 51 8b 97 c0
       -1.2000672 2.4326866 -2.0691183 -4.7357564
000050 97 20 6c be ee 71 46 3f 0c cf 7e 40 dc fa ac 40
       -0.23059307 0.7751759 3.9813871 5.4056225
000060 10 69 ad bf 6b 51 3f c0 ff d2 4b 40 a8 92 bd c0
       -1.3547688 -2.9893444 3.1847532 -5.9241524
000070 cc 4a b6 3d 56 55 7b 40 d1 7b 99 bf 80 cc cb bd
       0.08900985 3.9270835 -1.1990911 -0.09951115

layer2.1.running_var f4 [32]
000000 aa 72 7d 41 d0 34 08 41 97 10 18 41 49 5b 83 40
       15.840494 8.512894 9.50405 4.104893
000010 63 73 0b 40 92 1b ac 40 bf 8a ba 40 f3 e5 a9 40
       2.1789176 5.3783655 5.829437 5.30932
000020 15 ce d4 41 cc 79 98 40 ec 1a 96 40 f4 b2 2a 40
       26.600626 4.764868 4.6907864 2.6671724
000030 bf ce 13 41 0f 54 32 40 15 73 61 40 5d ed 12 41
       9.237975 2.7863805 3.522649 9.18295
000040 45 88 4b 40 06 fe 1f 41 db f3 d8 40 ed 47 d3 40
       3.1801922 9.999517 6.7797675 6.60253
000050 18 42 e9 3f 5f 96 db 40 4a 2b 35 41 f2 f7 1b 41
       1.8223295 6.862106 11.323069 9.748034
000060 31 93 2b 40 5d 64 b6 40 44 93 67 40 8c 5f 40 41
       2.6808589 5.6997514 3.6183634 12.023327
000070 a2 e0 0a 41 f8 e4 88 40 f7 17 19 40 53 c5 95 41
       8.679842 4.2779503 2.3920877 18.72135

layer3.0.weight f4 [64, 32, 3, 3]
000000 f2 64 8c 3d f2 97 80 3e 87 b9 29 3e 86 89 72 3d
       0.06855191 0.25115925 0.1657468 0.059213184
000010 88 96 ef 3c 74 eb 71 3d c2 63 ce bd 87 28 d7 3c
       0.029246584 0.059062436 -0.10077621 0.026264442
000020 50 b5 97 3c c8 29 a9 bc aa b9 ed bd a9 5e b7 be
       0.018519074 -0.020649806 -0.11607678 -0.35814407
000030 e4 fd 2c be 07 ad d2 bd 89 82 99 bd 90 fc 2b be
       -0.16893727 -0.102869086 -0.07495601 -0.16795564
000040 f9 33 70 ba 19 23 fd 3d bc e7 2d bd 71 cf 5c be
       -0.0009163018 0.1236021 -0.042457327 -0.21563508
000050 c9 c2 34 be d4 f9 27 3e 29 17 7a bd a6 5d 6e 3d
       -0.1765243 0.16403896 -0.061057243 0.05819478
000060 54 d8 14 3e 02 5d b7 3c 72 53 d2 ba 79 66 c2 bd
       0.14535648 0.022383217 -0.0016046597 -0.09492201
000070 04 d3 cf 3d dc 4e 7f 3e be a0 9e 3d 91 08 96 3c
       0.1014767 0.24932426 0.07745503 0.018314632
000080 7a f0 1b bd 21 31 28 3e e0 e8 d3 bc 78 ea 08 3d
       -0.038071133 0.16424991 -0.02586788 0.03342673
000090 be 0a 56 be e2 9e d1 bd 7f a8 44 3d 4f e0 cd bd
       -0.20902535 -0.102353826 0.048012253 -0.10052549
0000a0 49 23 87 bd 67 07 5f bd 0f 14 25 be 81 83 2d be
       -0.06598527 -0.05445042 -0.16120933 -0.16944696
0000b0 26 3f 30 bd b3 5e bf be 76 13 af be c5 13 79 be
       -0.043028973 -0.37376937 -0.34194535 -0.24323948
0000c0 1b 13 2b be b2 86 51 bd 0b 24 25 be f2 63 4a bc
       -0.16706507 -0.051153846 -0.1612703 -0.01235293
0000d0 7d 96 13 bc 56 9b f9 3c ec 7e 3e 3e 00 da 96 3e
       -0.009008047 0.030469578 0.18603104 0.29463196
0000e0 3a c8 b6 3d 55 8e 00 3e f2 38 91 3d 34 bb 16 3d
       0.08924909 0.12554295 0.070909396 0.036799625
0000f0 c2 d9 ab 3d b0 57 88 3d a8 f5 d8 bc 3f 54 36 3c
       0.083911434 0.0665735 -0.026484326 0.011128484
000100 65 d8 40 bd cb 52 36 bc 69 e9 f5 bc 8d 62 cf bd
       -0.04708137 -0.011128138 -0.030018525 -0.10126219
000110 54 e4 aa bc 02 bd 12 be be 1f 70 3d 97 85 98 3c
       -0.020860828 -0.14329913 0.05862402 0.018618388
000120 e5 d0 c6 3d de e3 f1 3c 7f 60 1c bc 7f 33 83 bd
       0.09707812 0.0295276 -0.009544491 -0.064063065
000130 1f b2 cd bd 78 d6 a8 3b 15 95 be bd d1 10 cf bc
       -0.100437395 0.00515252 -0.09305779 -0.025276573
000140 29 44 1c bd a6 d6 09 3e 12 f6 da 3c ea fc cc 3d
       -0.03815094 0.13460788 0.026728664 0.10009177
000150 26 2b 13 3e 62 c8 8d 3d 87 92 a1 3d ad a4 27 3e
       0.14371929 0.069229856 0.07889276 0.16371413
000160 c0 4f 9a 3d 85 3a 25 3d 2d 7d a5 3e 83 30 bc 3e
       0.07534742 0.04033901 0.32322064 0.36755762
000170 9f be b5 3e 88 0e fc 3d 25 51 84 3e 46 b4 07 3e
       0.35496995 0.12307459 0.25843158 0.13252363
000180 1f 64 ac bd 30 97 8a bd 46 1a 19 bd bf 87 1c 3e
       -0.08417534 -0.06767118 -0.037378572 0.15286158
000190 b9 87 77 3d cd 71 5e 3e 78 f5 6c bd 1b 5a 60 bd
       0.06043217 0.21723099 -0.057851285 -0.05477343
0001a0 6b 81 06 3e ee 27 f3 bd 3f 44 76 bd ef bd 8d 3d
       0.13135307 -0.1187285 -0.06012368 0.069209926
0001b0 57 97 2f 3e bd 27 0b 3e bd fd 09 3e c0 e2 02 3e
       0.17147575 0.13589378 0.134757 0.12781811
0001c0 c0 4b 01 3d 90 00 48 3e f2 56 0c bd e8 2a 05 be
       0.03156638 0.19531465 -0.034262605 -0.13004649
0001d0 2d 5c 43 3d 2b 22 f6 3c 33 9f 25 3e 55 b2 08 3e
       0.047695328 0.03004559 0.16174011 0.13349278
0001e0 fe e3 b1 3c 4a 4a 0a bc c4 ce 6e 3d 81 37 d8 bd
       0.02171516 -0.008440563 0.058302656 -0.105574615
0001f0 ee 27 b8 3c c7 f5 05 3d 75 b3 5d 3d 5f f6 8c 3c
       0.022479977 0.032705095 0.05412622 0.017207323
000200 a9 8e e0 bc 64 c6 d6 bd 8a c6 f3 bd 88 61 4b bd
       -0.027411776 -0.10487059 -0.11903103 -0.04965356
000210 d7 8e 4b be 95 92 64 be e5 7a 14 be 13 52 50 bc
       -0.19878708 -0.22321542 -0.14500006 -0.0127148805
000220 8c 84 1a 3e 56 03 70 3e 86 ca c5 bd 4f e0 72 3d
       0.15089625 0.23438773 -0.09657769 0.05929595
000230 7b 91 ce 3d d8 8e 68 be 44 f9 6d bd 44 a5 0e 3d
       0.10086342 -0.2271074 -0.058099046 0.03482558
000240 90 9a 1c be 6f a5 15 be ac ac cb bb 9c eb d2 bd
       -0.15293336 -0.14613889 -0.0062156525 -0.10298845
000250 ae 36 13 3e 8b b2 7d 3e 8d a3 1b 3a b2 09 45 be
       0.14376327 0.2477514 0.0005937152 -0.1924198
000260 fe 8f 82 3d 88 fd 04 be 27 35 43 bd 0f 1e ab bd
       0.063751206 -0.1298734 -0.047658112 -0.083553426
000270 72 44 f6 3a 21 10 12 bd 43 dc dd bc e3 9f 6a bd
       0.0018788709 -0.035659913 -0.027082568 -0.057281386
000280 15 ea 4e 3d 67 3a a2 bd 33 53 9d bd a1 7b df bd
       0.050516207 -0.079212956 -0.076818846 -0.10912252
000290 bb c1 bf bb 6e 02 0b 3e a2 36 8c 3d 53 f5 0f 3e
       -0.005851952 0.13575146 0.06846358 0.14058428
0002a0 63 48 49 3e f1 3c 17 3e 2c 4a 0c 3e d8 97 0d be
       0.1965652 0.14769341 0.1370017 -0.13827455
0002b0 d1 3e fc bd 0f a4 19 be 00 64 aa bd 99 e7 5f be
       -0.12316669 -0.1500399 -0.08319855 -0.21865691
0002c0 3d a3 f6 bd 8b e3 8b bd 5a 04 a6 3c c3 1a fb bd
       -0.12042854 -0.0683051 0.020265747 -0.12260964
0002d0 68 ce b6 bd 32 3c 84 be 4c 9c 56 3c 01 c2 ad bd
       -0.089260876 -0.25827175 0.0130987875 -0.08484269
0002e0 57 7a 93 3c 3d 01 62 3e d0 74 83 bd e9 01 10 bd
       0.018002672 0.22070785 -0.064187646 -0.03515807
0002f0 b3 ea c3 bd 22 81 bd 3d 3c 50 1c 3d 62 1a 12 3e
       -0.0956625 0.09253146 0.038162455 0.14267877
000300 76 ad 39 3e bb bc b6 3d 05 37 69 3d e4 05 db 3d
       0.18132576 0.08922716 0.056937236 0.10694483
000310 37 19 b4 bc 59 f8 d2 3d 59 d9 5c 3d 38 cd 7b be
       -0.02198468 0.10301275 0.053918216 -0.24590003
000320 94 c6 a0 3d b9 b0 19 3d be 32 29 be 51 71 d7 bd
       0.07850376 0.03752205 -0.16523263 -0.1051966
000330 d4 14 57 3c 63 05 5b be bf 92 f3 bd fc da 4e be
       0.013127524 -0.21388774 -0.11893224 -0.20200723
000340 9e d8 c4 be b7 73 88 be fc 7f e3 bd 86 02 5f be
       -0.38446516 -0.26650783 -0.111083955 -0.21778306
000350 97 28 23 be 98 af 00 3e 96 8e 22 3d 8a 22 f9 bd
       -0.15933453 0.12566984 0.03968676 -0.12164791
000360 b2 4a 12 bd 6a dc f8 bd a8 f9 bc bd 83 e0 13 bd
       -0.035715766 -0.12151416 -0.09227306 -0.036102783
000370 67 36 2a be 67 64 ae 3c 70 aa e2 3b 6c ba b8 bd
       -0.16622315 0.02128811 0.0069172904 -0.09019932
000380 c5 4d 21 be 3b 02 b3 3d e2 33 c9 3d dc ca 12 3c
       -0.15752323 0.0874066 0.09824349 0.008959498
000390 6c 9d 5a 3d c6 26 09 bc a2 41 d0 b9 64 3b b0 3c
       0.053372785 -0.008371061 -0.00039721752 0.021512695
0003a0 2b 4d 8e 3c b4 b9 d7 bd d1 08 86 3d 40 2a ff 3d
       0.01737078 -0.10533467 0.0654465 0.124592304
0003b0 f6 1e ff 3d 89 95 5c 3d 84 06 5a 3e 35 55 53 3d
       0.12457077 0.053853545 0.21291548 0.05159493
0003c0 92 d9 e3 3d 3e 45 0e bd aa 5f 66 be f7 e0 ae bc
       0.111254826 -0.034734003 -0.2249743 -0.021347506
0003d0 c8 70 05 be 8a 77 67 be f4 4e 0f 3d 0b 7b 64 3d
       -0.13031304 -0.22604194 0.034987405 0.055781405
0003e0 a2 8b 87 bd e9 b6 73 3d 73 3a fc 3d dc e5 c5 3d
       -0.0661843 0.05950061 0.12315836 0.09662983
0003f0 ed fe b2 3c be 38 9c 3c fd 1f fd bd a4 4b 77 bc
       0.021850074 0.019070026 -0.12359617 -0.015093718

layer3.0.bias f4 [64]
000000 69 5a 7a bd 22 be 8a bd 9e 8e 49 3d 50 06 d2 3c
       -0.061121378 -0.06774546 0.049208276 0.025637776
000010 de 17 66 3d c5 35 89 bd b4 47 ec bc 74 4f 9c bc
       0.056175105 -0.06699709 -0.028842784 -0.019080855
000020 ed 69 70 bd 46 b4 08 bd f8 f3 47 bd 3d 8b 35 bd
       -0.05869477 -0.033375047 -0.04881665 -0.04432224
000030 3c dd af bc 17 2d f5 3a 36 d7 08 bd 91 84 c4 bc
       -0.021467797 0.0018705454 -0.033408366 -0.023988994
000040 e9 73 b7 bd ce d2 39 bd 96 69 8f bd f4 76 54 3d
       -0.08957655 -0.045367055 -0.07002561 0.051871255
000050 9f e2 f5 3b a4 16 58 3d 7a 7e 21 3c c4 ac 91 bd
       0.007503822 0.052755967 0.0098568145 -0.071130306
000060 39 16 69 3b 05 b4 17 bd 60 78 f7 bc 87 c5 34 3d
       0.0035566224 -0.037036914 -0.030208766 0.04413369
000070 6f 6e 79 bc e7 02 8b 3d ef 0b f2 3c 7b b5 1e bc
       -0.015224083 0.06787663 0.029546706 -0.009686823
000080 4a 02 82 bc 04 bc 44 bd be 96 54 bd ef a2 5b bd
       -0.015870232 -0.04803087 -0.05190157 -0.053622182
000090 2a 03 e1 3c b1 96 55 3d bf 98 38 bd 34 07 33 bd
       0.027467329 0.052145664 -0.045067545 -0.04370804
0000a0 58 03 3c 3a 5d b4 16 3b c5 b4 61 bc bc 59 49 bd
       0.0007172129 0.0022995688 -0.013776009 -0.049157843
0000b0 21 a6 e7 3b e2 75 ba bc 48 18 d6 3c 24 76 f2 bc
       0.0070693647 -0.022761289 0.026134625 -0.02959735
0000c0 01 05 f3 bc c3 8e 83 3d 4f bc 18 bd 07 f3 08 bd
       -0.029665472 0.06423714 -0.03728896 -0.033434894
0000d0 36 c4 de 3c 23 1d b5 bd 6a 25 11 3c 61 bf a4 3c
       0.02719317 -0.08843448 0.008859018 0.020110788
0000e0 ee 74 80 bd 17 7a ee 3c ee 39 8c 3d 20 2d 07 bc
       -0.062723026 0.029110951 0.06846987 -0.008250505
0000f0 63 63 5b bc a3 6d 54 bc a5 fb c6 3c 3e 2f d2 bb
       -0.013390395 -0.012965593 0.024289915 -0.006414323

layer3.1.weight f4 [64]
000000 60 81 c8 3f 2d 30 bd 3f a7 1b d4 3f de 35 c4 3f
       1.5664482 1.4780327 1.6570939 1.5328939
000010 48 e9 e5 3f e7 51 d7 3f 05 0c bb 3f 7d ac c6 3f
       1.7961817 1.682187 1.4613043 1.5521389
000020 73 f7 aa 3f 4d 18 c6 3f 8d 1c c9 3f 67 d3 d6 3f
       1.3356766 1.5476166 1.5711838 1.6783265
000030 49 31 d6 3f 36 5e ae 3f da 36 c5 3f c2 aa e9 3f
       1.6733791 1.3622501 1.5407364 1.8255236
000040 dc 69 c2 3f e2 23 cb 3f 10 01 c3 3f a9 ed db 3f
       1.5188556 1.5870326 1.5234699 1.7181903
000050 38 3e c2 3f bf 4c ab 3f fc bd c2 3f 64 bd bf 3f
       1.5175238 1.3382796 1.5214229 1.4979672
000060 1f a5 a3 3f 43 22 d4 3f b6 c4 e7 3f 19 8a c9 3f
       1.2784766 1.6572956 1.8106906 1.5745269
000070 99 22 d6 3f e8 33 e0 3f fb ab c5 3f 40 83 c3 3f
       1.6729308 1.751584 1.5443109 1.5274429
000080 c3 4b c3 3f 45 8b ba 3f 61 21 c2 3f 75 e2 e8 3f
       1.5257496 1.4573752 1.5166436 1.8194109
000090 7d 19 bd 3f d3 f6 d4 3f 26 97 c2 3f 7b c0 b1 3f
       1.4773403 1.6637825 1.5202377 1.3886865
0000a0 de 43 b9 3f d4 7f d5 3f cf b3 c9 3f 0c 54 bc 3f
       1.4473836 1.6679635 1.5757998 1.4713149
0000b0 af 77 f7 3f c0 63 c2 3f 72 4a d0 3f a6 49 e3 3f
       1.93334 1.5186691 1.6272719 1.7756851
0000c0 d7 60 ab 3f 5d 00 b7 3f a2 71 c6 3f 7a f7 e5 3f
       1.3388928 1.4296986 1.5503428 1.7966149
0000d0 10 77 c0 3f 66 25 dc 3f b2 61 c9 3f 38 78 d0 3f
       1.5036335 1.7198913 1.5732939 1.6286688
0000e0 83 63 d5 3f ff aa b7 3f fe f6 c5 3f 2d 51 d9 3f
       1.6670994 1.4349059 1.5466001 1.6977898
0000f0 e2 0f cc 3f d5 cd dd 3f 2d b6 d9 3f 15 70 e7 3f
       1.5942347 1.732844 1.7008721 1.808108

layer3.1.bias f4 [64]
000000 19 4e 29 be c4 68 5e bb 1f 7a 00 3e 87 2e 1e 3c
       -0.16533698 -0.0033936957 0.12546586 0.009654648
000010 cc 2f d3 3d 92 af 06 be 87 67 11 bd 20 66 a2 3b
       0.10311851 -0.13152912 -0.035499122 0.004956022
000020 ca 9b 81 bd 06 2b 0e bd d4 f1 35 3e f2 f3 91 be
       -0.063285425 -0.034709 0.17768031 -0.28506428
000030 d2 39 bd bd 50 3d 62 be 99 04 f8 3b 84 c4 b5 3d
       -0.09239544 -0.22093701 0.0075689075 0.08875373
000040 3f e1 5f be be b0 aa 3b c2 39 83 bd a3 fb 19 3e
       -0.21863268 0.0052090576 -0.06407501 0.15037398
000050 29 3d 8e be 5f ad 73 bd ad 0d 5a be b2 86 31 be
       -0.27781036 -0.05949151 -0.2129428 -0.17336538
000060 50 e5 28 bd ca ad d5 3d bc a6 aa bc c5 37 9e 3d
       -0.041234314 0.10433538 -0.020831458 0.07725481
000070 8b 9b b7 3e 1a 66 01 3d 71 af ce 3d f7 bd 8c be
       0.35860857 0.031591512 0.100920565 -0.27488682
000080 e1 00 83 bd 12 43 aa bc 20 bb 0b 3c 9d 68 51 bd
       -0.06396652 -0.020783935 0.008528501 -0.051125158
000090 47 f6 5e bd cd 4d ce 3c 32 aa 63 3d fe d6 17 be
       -0.054434087 0.025183583 0.055582233 -0.14828107
0000a0 67 ca d1 bd b0 ba 4e 3d 3f 9e bc bd d7 de 00 be
       -0.10243683 0.050471008 -0.092098705 -0.12585007
0000b0 99 6c 21 3e 0d 78 86 3d 5b ee e9 3d 21 aa e7 3b
       0.15764083 0.065658666 0.11422416 0.0070698415
0000c0 d2 c5 33 be f2 70 cb bd 30 0e 73 be f5 4d 66 3e
       -0.17555931 -0.09933652 -0.23735881 0.22490676
0000d0 d9 fe 20 3c 36 df 03 3b f5 0a 83 3d 27 38 e6 bd
       0.009826385 0.0020122058 0.06398574 -0.11241179
0000e0 33 84 0f bd 2f 54 9c bd 12 db 67 3d a5 4b 0e be
       -0.035038184 -0.07633244 0.056605406 -0.13896044
0000f0 a2 5f 20 3d 83 68 1b be d6 dc 32 3e 22 c5 da 3d
       0.039153703 -0.15176587 0.17467055 0.10682131

layer3.1.running_mean f4 [64]
000000 7f b8 57 3e 42 8a e0 3f 64 aa 53 3f 58 78 15 40
       0.21066473 1.7542193 0.8268187 2.3354702
000010 ee b4 e3 bf 59 26 a7 3c 4f 48 27 40 a5 3e 53 40
       -1.778959 0.020404028 2.6137884 3.3006985
000020 ab 20 71 3f 27 25 5b 3d 53 6e b1 3f e4 fc fa 3f
       0.9419047 0.053502228 1.3861793 1.9608426
000030 95 ab 2b 3e 4f 18 e9 3f ad d0 7d bf c0 3c ec bf
       0.16764672 1.8210543 -0.9914654 -1.845604
000040 dd 3b 21 40 b4 ad 22 40 05 9c 94 3f 34 08 89 c0
       2.5192788 2.541852 1.1610113 -4.2822514
000050 6f 6a bb bd 50 54 0a c1 a3 6a b8 3f b3 50 ce 3f
       -0.0915116 -8.645584 1.4407543 1.6118377
000060 3b 78 38 40 b7 32 77 40 e6 02 55 40 bd 71 2f 3f
       2.8823383 3.8624704 3.328302 0.68532926
000070 0a 55 d9 c0 80 20 9b bf 3c f6 4a c0 ff 3e 21 40
       -6.7916307 -1.2119293 -3.171279 2.51947
000080 48 fd 7e 3f 35 e0 01 c0 c9 d8 dd 3f f4 1a c8 3f
       0.99605227 -2.0293095 1.7331783 1.5633225
000090 75 ed 75 3f 17 58 16 bf 55 36 41 c0 9d bb e4 3f
       0.96065456 -0.58728164 -3.0189412 1.7869755
0000a0 9b d0 05 40 32 a2 57 bf 9a 85 09 40 4d b1 da 3f
       2.0908573 -0.84231865 2.1487794 1.7085358
0000b0 3c fb d2 3e 28 a6 97 bf fc 9d e4 bf 09 1e d7 be
       0.41207302 -1.1847582 -1.7860713 -0.42015103
0000c0 a0 5c 44 40 73 9e 98 3f d3 a1 37 40 63 ef bf bf
       3.0681534 1.1923355 2.869252 -1.499493
0000d0 59 2c 45 40 f8 b2 09 40 d5 e1 90 3f 9b 80 39 c0
       3.0808318 2.1515484 1.1318918 -2.8984745
0000e0 b1 7e 81 3f f8 89 51 c0 45 88 3a c0 76 5c d2 3f
       1.0116788 -3.274046 -2.9145672 1.6434467
0000f0 aa 2c 5e 3e 16 68 37 40 94 61 05 c0 ac e3 57 3f
       0.21696725 2.865728 -2.0840807 0.84331775

layer3.1.running_var f4 [64]
000000 fd da dc 40 3b d5 ad 40 86 2e 4d 40 13 e3 fe 40
       6.901732 5.432279 3.2059646 7.965219
000010 da 3f 24 41 fa aa be 40 03 d3 9c 40 ce 83 e7 40
       10.265589 5.958371 4.9007583 7.2348394
000020 25 0e 8c 40 ea 5b 82 40 ca 2c da 40 cc dc 6c 40
       4.3767266 4.07372 6.8179674 3.7009764
000030 fa c5 a4 40 4d 7e b9 40 20 a4 18 41 bc d6 d2 40
       5.149167 5.7966676 9.54007 6.5887127
000040 85 59 86 40 f9 26 d5 40 ab 29 9f 40 88 a1 34 41
       4.1984277 6.6610074 4.9738364 11.289436
000050 08 a8 77 40 27 66 54 41 26 24 83 40 ab a2 e5 40
       3.8696308 13.27494 4.0981627 7.176107
000060 c5 e6 1b 41 87 9b c4 40 35 a1 6b 40 23 92 9a 40
       9.74384 6.1439853 3.6817143 4.830339
000070 c6 11 f7 41 bc 29 c2 40 d5 a1 06 41 88 db 50 40
       30.883678 6.0675945 8.41451 3.2633991
000080 e6 bf b3 40 65 00 4c 40 40 7b a2 40 82 16 98 40
       5.617175 3.187524 5.077545 4.7527475
000090 65 09 66 40 6f f6 f7 40 f4 08 2b 41 56 73 9e 40
       3.5943234 7.748832 10.689686 4.951579
0000a0 c6 8f e5 40 58 a5 c1 40 71 f4 2e 41 9f af c3 40
       7.1738005 6.0514336 10.934678 6.115188
0000b0 20 fb d1 40 a3 4c 27 41 c3 93 36 41 74 91 96 40
       6.561905 10.45621 11.411075 4.7052555
0000c0 e2 51 b1 40 46 30 b4 40 19 c2 e5 40 a5 1d 03 41
       5.5412455 5.6308928 7.1799436 8.194737
0000d0 55 3c c1 40 10 e1 cd 40 5c b0 c3 40 b0 b2 55 41
       6.0386147 6.4337234 6.1152782 13.356125
0000e0 7f e5 92 40 1e 0e 6d 41 a4 a7 02 41 55 2c 9f 40
       4.5905147 14.815947 8.165928 4.9741616
0000f0 30 eb f5 40 d5 08 9f 40 43 38 66 41 65 c9 d3 40
       7.6849594 4.969828 14.388736 6.6183343

fc1.weight f4 [10, 576]
000000 04 10 9f 3e aa 13 d1 3e 5d ec 8b 3e a0 f7 20 bd
       0.31066906 0.40835315 0.27328768 -0.039298654
000010 1b d7 9f 3d b1 62 99 3d 2b b8 21 3c de ed 7f bd
       0.078047 0.07489527 0.009870569 -0.062482707
000020 92 c9 61 bd d4 80 9d 3e 33 34 64 3d b6 8c e9 3d
       -0.055123873 0.3076235 0.055713844 0.114037916
000030 44 eb 8d bd 08 da 26 bd 45 8f 0b 3d 66 08 30 3d
       -0.06929639 -0.040735275 0.03407218 0.04297676
000040 c6 58 fc 3c 63 fd 63 be b4 94 b2 be ab 50 80 bd
       0.03080405 -0.22264628 -0.34879076 -0.06265386
000050 f6 40 df bc e7 01 37 be f0 ae e7 bd c6 68 18 3e
       -0.027252655 -0.1787182 -0.113126636 0.14883718
000060 a6 d5 96 bd 09 2c 6c 3d ee c3 d5 3d 52 e5 05 bd
       -0.07364969 0.057659183 0.10437761 -0.0326894
000070 87 0d 31 be 05 43 33 3e ad 0a 90 3e 26 52 4b 3e
       -0.17290317 0.17506035 0.28133145 0.19855556
000080 f9 34 34 3d b7 dc 8b 3e f0 72 1b 3e cd bf 2a 3e
       0.04399583 0.2731683 0.15180564 0.16674729
000090 50 15 e3 bd 56 a4 70 be b7 fa b3 be df 68 26 be
       -0.110880494 -0.23500189 -0.35152218 -0.16250943
0000a0 a4 89 91 bd 52 db b6 be ff f8 48 3e 47 10 91 3e
       -0.07106331 -0.35714203 0.19626234 0.2833273
0000b0 5f 8e 10 3e e0 b7 4e 3e 89 af 3b bd 1e 81 76 3d
       0.1411681 0.2018733 -0.0458217 0.06018173
0000c0 d7 ba 2e be c3 e7 11 3f a7 2c b9 3e 54 70 3f 3e
       -0.17063461 0.56994265 0.3616688 0.18695194
0000d0 2c 2e 78 3e 4d cd 88 3e b8 d2 56 be 0c 28 3c bd
       0.24236363 0.26719132 -0.2097882 -0.04593663
0000e0 38 c9 57 be 3c 73 a7 3e 8c e2 5f 3e 87 a3 37 3e
       -0.21072853 0.32705104 0.21863765 0.17933474
0000f0 42 48 dd bd 6c 62 ee be 91 ca c1 3a 9c ef 8b 3e
       -0.10804798 -0.46559465 0.0014785101 0.27331245
000100 c8 80 ed 3d 53 d8 ff bd 8b ae 2c 3d 24 a1 10 bd
       0.11596829 -0.124924324 0.042158645 -0.035309926
000110 cf da 84 be e6 f3 81 3e eb 0a 33 3e 5b 14 85 3c
       -0.25948188 0.25381392 0.17484634 0.016245058
000120 40 f1 9e bc dc a7 26 be f6 bc 2d 3e 47 47 27 3d
       -0.019402146 -0.16274971 0.16966614 0.04083946
000130 c2 c2 84 bd 35 80 02 3e 9f 87 5f 3e 2e 4e 0d 3d
       -0.064824596 0.1274422 0.21829079 0.034498386
000140 99 89 4b 3a b0 b3 1f 3e 28 15 6b 3e ed 18 36 3e
       0.0007764339 0.15595889 0.22957289 0.17782946
000150 e8 5d d7 3e 41 d0 5a 3e 23 31 ab 3c cc 32 d6 3e
       0.42063832 0.21368505 0.020897454 0.4183563
000160 29 f2 fe 3d 82 8f d3 3c f4 a5 8a be 5d 8f ee bd
       0.12448532 0.025825266 -0.27079737 -0.11648438
000170 af 9f 94 3d ea b5 0e be f6 34 81 3e 5c 74 67 3e
       0.0725702 -0.13936582 0.25235718 0.22602981
000180 d0 76 45 3d d0 b4 3b 3e 60 58 7f 3d 0a db 84 bc
       0.04820901 0.18330693 0.06234014 -0.016217727
000190 4a 90 af 3e 72 09 47 3e d4 ca 30 3e d6 82 56 bd
       0.3428977 0.19437197 0.17264873 -0.05237087
0001a0 be 38 1e bc a6 d8 82 be 2f 2a 95 be 87 02 7b be
       -0.009657083 -0.25555915 -0.29133746 -0.24512683
0001b0 82 f1 95 bd 7a 7b 81 be 65 f7 ca bd 00 15 1e be
       -0.073214546 -0.25289518 -0.09910468 -0.15437698
0001c0 91 93 9d 3c db e4 87 be a5 96 3a be f8 d0 9e 3a
       0.019235404 -0.2654179 -0.18221529 0.0012116721
0001d0 0c b1 25 be ce 0c c3 bc b9 c0 21 3c 62 61 59 3e
       -0.1618082 -0.023809817 0.009872609 0.21228555
0001e0 54 7b 14 3e 03 af 94 3e dc 60 bb 3e 30 53 88 3d
       0.14500171 0.29039773 0.36597335 0.06656492
0001f0 87 b8 6a bc 76 ad c7 bd 30 cb 6c be ff d0 86 3d
       -0.014326221 -0.09749882 -0.23124385 0.065828316
000200 d9 b5 36 3e 29 be 18 3e 57 84 f0 3e a5 cc 90 3e
       0.17842807 0.1491629 0.46975967 0.2828113
000210 73 07 10 bc af 76 99 3e 3f 31 38 3d de a4 21 be
       -0.0087908385 0.2997336 0.04496884 -0.15785548
000220 eb 86 f0 3c be 7d 17 be bd 14 bb 3d 2a 6f 14 3f
       0.029361209 -0.1479406 0.09134815 0.5798212
000230 24 a9 13 3e ed 5e 43 3e dc 2e 1f 3e 44 a2 bc bd
       0.14419991 0.1907918 0.15545219 -0.09210637
000240 d1 1e 9d 3d 22 47 e5 3e f9 9d a1 3e 11 4a 3b bc
       0.076718934 0.44780833 0.31565836 -0.011431233
000250 86 b3 b0 3d 94 48 f2 ba b0 a1 3c be 29 2b 64 be
       0.086279914 -0.0018484765 -0.18421054 -0.2228209
000260 4d a9 ec bc b8 5a 90 3d 3b 5c ad bd 8c 84 00 3d
       -0.028889323 0.07048553 -0.08464857 0.031376407
000270 97 6d a8 3c 02 37 1d bd 10 28 a0 be 56 35 1b 3e
       0.020560069 -0.038382538 -0.31280565 0.15157065
000280 b8 da 4d 3e cb f7 3b 3d c4 8a a4 3a 81 78 27 be
       0.20102966 0.04589061 0.0012553562 -0.16354562
000290 d9 cb b3 3e e1 84 61 be 9c 2c 16 3e 51 cb f8 3c
       0.3511646 -0.22023346 0.14665455 0.030370386
0002a0 08 9a 4c 3d 3a 01 65 bd 3c d1 c1 bd 5c f0 65 3e
       0.049951583 -0.055909373 -0.094637364 0.22454971
0002b0 3c 24 08 3e ec ec ab 3d ec 37 99 3d ae 8f 8c be
       0.13295072 0.08394799 0.074813694 -0.2745337
0002c0 9c 1b 2f bd 36 a1 56 be dd ac 31 3e 79 25 64 be
       -0.04275094 -0.20959935 0.17351098 -0.2227992
0002d0 2e b9 5e 3e cf 2a 48 3d 19 3b 14 3d 95 8c a0 3e
       0.21750328 0.04886895 0.036189172 0.31357256
0002e0 72 26 56 3e e4 71 0d 3c b8 8e c6 3d a4 6f 91 3d
       0.20913103 0.008633111 0.0969519 0.07101372
0002f0 97 a5 c7 3c 11 95 e2 bb aa fb 91 be 68 23 aa bd
       0.024370952 -0.0069147428 -0.28512317 -0.083075345
000300 9c ae c9 bc eb fb 91 bd 99 12 df bd 13 3d 77 be
       -0.024619393 -0.07128128 -0.10892219 -0.24144392
000310 fe 79 c7 3b f0 05 90 3c 23 4e 85 3e 2a fc ba bb
       0.0060875406 0.017580956 0.26036176 -0.00570633
000320 02 58 cd 3e db 68 92 3e 7f 83 b8 3e 0d 50 47 3e
       0.40106207 0.28595623 0.36037824 0.1946413
000330 1c a6 bc 3d 57 79 24 be 31 4e bd bd 04 18 d1 3d
       0.0921137 -0.16061912 -0.092434295 0.10209659
000340 69 09 b9 3d ca 58 1d 3e 79 78 be bc 93 fa e3 3d
       0.09034998 0.15365902 -0.023250805 0.111317776
000350 ce c7 a4 be f9 b2 5a 3e 83 0e 82 3d 6e a1 3b 3e
       -0.3218369 0.21357335 0.06350424 0.183233
000360 52 e8 bf 3e b5 22 7b 3d 93 42 01 3f 54 20 d3 3d
       0.37481934 0.061312396 0.5049221 0.103089005
000370 b6 1d 28 3e 9c d8 4d 3e 53 ec 17 3e af 4e 65 3b
       0.16417584 0.20102161 0.14836244 0.0034989526
000380 0d 79 23 3d fe 27 fa 3c 7f c9 de 3d 93 f7 66 be
       0.039910365 0.030536648 0.10878276 -0.2255538
000390 b9 24 6b be 89 6e 18 be 39 20 e9 bc 2a 0c 63 3e
       -0.22963227 -0.14885916 -0.028457748 0.22172609
0003a0 fe b9 ae 3d b0 cd 1d be 56 f4 c3 bd 1f 49 cc 3d
       0.08531569 -0.15410495 -0.09568088 0.09974884
0003b0 5e 07 2b 3e 16 1a 5d 3e 64 b5 ca 3e 02 27 84 be
       0.16702029 0.21591982 0.39591515 -0.2581101
0003c0 8e e7 87 3d 78 88 66 3d c2 14 e3 3b 8c 69 5b 3d
       0.066359624 0.05628249 0.0069299648 0.053567454
0003d0 bb fc a2 bd 31 eb 86 be cc 6b 63 3c 44 2c 94 bd
       -0.07958361 -0.26351312 0.013880681 -0.072350055
0003e0 52 e4 0a 3e ff 22 16 3e a1 42 62 3d bc 6a cf bc
       0.1356366 0.14661787 0.055239324 -0.02531945
0003f0 65 6c 85 bd 74 cb 14 be 6c d5 47 be c8 f9 d6 3c
       -0.06514815 -0.14530736 -0.19515008 0.026242152

fc1.bias f4 [10]
000000 91 82 07 be e4 2d a6 3c 37 8a 58 bc 12 78 41 3c
       -0.13233401 0.020285554 -0.013216547 0.011808412
000010 57 a5 58 3d 5a 81 20 3e 83 db fd 3c b0 c3 b5 3d
       0.052892055 0.15674344 0.03098846 0.08875215
000020 92 04 d3 bd 51 2f 98 3d
       -0.10303606 0.074309

fc2.weight f4 [51, 10]
000000 da eb 83 3d f6 a4 e1 3e 34 78 80 bc ad f7 66 be
       0.064414695 0.44071168 -0.015682317 -0.22555418
000010 ad 5b 20 bf 88 6b a8 be 04 ab fc 3d 16 6b 09 bd
       -0.62639886 -0.3289454 0.12337306 -0.03354939
000020 1a 89 32 bf 1e a8 91 be e5 27 f0 bd 7b 30 14 3e
       -0.6974045 -0.28448576 -0.11726359 0.14471619
000030 3f 9c 4f 3e cc b4 38 3e 4f e7 ad bd f9 7c 04 bf
       0.20274447 0.18037719 -0.08491384 -0.51753193
000040 23 9f d7 3d 41 aa 17 3e 39 3c 8d 3d fd 14 68 be
       0.105284 0.1481104 0.06896252 -0.22664256
000050 4c fa 59 bf 1f ae 6a bf a2 bb 7e bd 06 4f a3 be
       -0.8514755 -0.9167194 -0.06219066 -0.31896228
000060 ac b2 0f bf 44 87 d1 3e 44 c3 e5 be 8a ce 40 3e
       -0.56132007 0.40923512 -0.44875538 0.18828788
000070 0d dc 23 3e 29 59 36 3e 35 12 08 3e bb 24 8b bd
       0.16001911 0.1780745 0.13288195 -0.06794115
000080 ac 1d c1 bd 4d 1b 4f be f3 ca af bf 5d e8 21 be
       -0.094294876 -0.20225258 -1.373381 -0.15811296
000090 07 f6 87 bd 0a 2f 04 be 6b f2 43 be 23 8c f4 3e
       -0.06638723 -0.12908569 -0.19135444 0.47763166
0000a0 ff e6 33 bd 2d cb 18 bf 4f c4 3f be 9e ac 5b 3e
       -0.043921467 -0.5968502 -0.1872723 0.21452567
0000b0 69 1d 75 bf b3 47 54 be c3 3d 11 3e 9e 99 ae 3e
       -0.95748 -0.20730476 0.14183716 0.34101576
0000c0 52 59 4b bf 00 95 fc 3e c9 ac 05 3f ab 62 92 3d
       -0.79433167 0.49332428 0.52216774 0.07147726
0000d0 da 66 56 3e 01 ee 7f be b6 dc 5b be 86 47 a5 be
       0.20937672 -0.24993135 -0.21470913 -0.3228113
0000e0 79 fa 20 bf 84 62 6f be 8d 38 ed be 81 a6 37 3d
       -0.6288219 -0.23377424 -0.46332207 0.044836525
0000f0 79 5a 5b be 3e 57 cb 3d 29 7f 39 be 66 6a 89 be
       -0.21421231 0.099287495 -0.18114914 -0.26838988
000100 da 58 06 3e 9e 9d 24 bf 0f 37 7a be f8 b3 1e bf
       0.13119832 -0.64303005 -0.24435066 -0.6199336
000110 d2 6f f2 3e a0 15 e5 be 38 03 d5 bd c3 ca d5 3e
       0.47350937 -0.4474306 -0.104010046 0.41756257
000120 6e b0 1b 3e a0 ee df bd 88 9d 20 bf 8d 80 ff bc
       0.15204021 -0.10934186 -0.62740374 -0.031189227
000130 b4 73 14 3e 5f 18 1a bf b1 82 95 ba 0b d2 e9 be
       0.14497262 -0.6019344 -0.0011406747 -0.45668063
000140 aa ab a0 bd 66 8a 0d bf 15 44 6c be 97 50 87 3e
       -0.07845242 -0.55289304 -0.23072846 0.26428673
000150 e1 70 4b 3e 0f 83 19 bc 0e 09 b7 3e 89 b3 b9 3c
       0.19867279 -0.009369626 0.35749096 0.022668617
000160 33 e1 8d be 2a 9b 17 3d ed f4 62 bf 7b 90 1c 3e
       -0.27710876 0.03701321 -0.8865498 0.1528949
000170 fb eb 81 3e 27 0c 9b 3e a6 84 61 3e a9 59 99 bd
       0.2537535 0.3028271 0.22023258 -0.074878044
000180 6b 1e 02 bf 22 97 28 bf 59 5e 45 3e 8a 0b 6a 3d
       -0.50827664 -0.6585561 0.19274272 0.05713991
000190 45 a1 09 3d 51 cb 10 be 6a 3f 6b 3c 2b 9c 39 bd
       0.033601064 -0.14140059 0.014358381 -0.04531495
0001a0 f3 6a 2e bf dd eb e0 3c 89 b2 91 be cf 1a d9 be
       -0.6813194 0.027456218 -0.28456524 -0.42403266
0001b0 d8 9b 83 3e 29 09 87 3e 8d 88 70 be c3 fa 2c be
       0.25704837 0.26374176 -0.2348959 -0.16892533
0001c0 92 5a 1b 3d 56 84 4e 3e 57 2b df bd 16 49 4f be
       0.03792817 0.2016767 -0.10896938 -0.20242724
0001d0 b1 bb 44 bf d6 cf 7e 3e 7c b8 75 3d 0e cb 82 3e
       -0.76848894 0.2488397 0.05999039 0.25545543
0001e0 96 d8 33 3d 80 77 09 bd 9f 2d a4 be 95 b6 a0 3d
       0.043907724 -0.03356123 -0.32066056 0.07847325
0001f0 e3 f8 fb 3c 90 8e 18 3d a0 00 b1 bd af ba db be
       0.030758327 0.037245333 -0.08642697 -0.42915866
000200 48 20 14 3e 80 e3 b0 bd 79 e4 99 be 64 5d 9f bd
       0.1446544 -0.08637142 -0.30057123 -0.07781485
000210 55 43 4e bd 0c da a7 bc 1e 11 c7 be ef fa 1b 3f
       -0.05035718 -0.020489715 -0.38880247 0.6092977
000220 e6 ed 09 bf 19 7c 98 be 28 50 e3 bd f3 08 f0 be
       -0.5387863 -0.2978218 -0.11099273 -0.46881828
000230 c8 89 a4 3e a9 4b a2 3d df 0a 16 3e 24 26 05 be
       0.3213637 0.07924587 0.14652584 -0.1300283
000240 25 1e 73 3e d2 7e a6 3c 1f a9 0f 3e 67 f7 22 bf
       0.23741968 0.020324145 0.14029358 -0.63658756
000250 fd 18 57 be 34 a4 71 bf 64 52 db 3e f2 28 1e bf
       -0.21005626 -0.9439118 0.42836297 -0.6178123
000260 69 d9 ff 3d a4 5d 62 3d 2a 82 06 bd 1d 8d 76 3c
       0.124926396 0.055265084 -0.032838978 0.015048292
000270 92 4d 9e bd 35 65 f0 be 10 8d bd 3d 67 e4 ba bd
       -0.07729639 -0.46952215 0.09255421 -0.091255955
000280 ba 80 2e 3e cd 32 28 bf 2b df cd 3c 6a 98 2b 3e
       0.17041293 -0.65702516 0.025130829 0.1675736
000290 ec 09 1a be 20 ca d0 be 5a 30 22 bf a4 b7 27 3e
       -0.15042847 -0.4077921 -0.6335503 0.16378647
0002a0 09 24 21 3e dc ae 37 3e c7 2a 6c 3e e2 21 f4 be
       0.15736403 0.17937797 0.23063193 -0.476821
0002b0 d3 d0 71 3e b7 fc 28 3e 1f 9a 10 bf 80 58 30 bf
       0.23614816 0.16502653 -0.5648517 -0.6888504
0002c0 1c b0 a4 3e d5 e8 ae be c4 21 06 3e 61 f3 8c 3e
       0.3216561 -0.34162012 0.13098818 0.27529433
0002d0 5c 0f 3e 3d 0c 5f 30 bf 69 de 11 3e 7d 21 d2 3d
       0.046401367 -0.6889503 0.14244999 0.10260294
0002e0 1a 94 19 3e da eb 76 bf 05 86 35 3f 82 12 08 bf
       0.14997903 -0.9645363 0.7090762 -0.5315324
0002f0 78 3b d5 bc 9c 38 9e be d0 b5 3d 3e cb 45 52 3d
       -0.026029333 -0.30902565 0.18526387 0.05133609
000300 0a c6 8a 3d 61 35 40 3e d0 3e 9a 3e 8a 97 34 bf
       0.06776054 0.18770362 0.30126047 -0.7054373
000310 7a 97 3a bf 2d 19 18 bf a6 82 ea 3c c7 de 0c 3c
       -0.72887385 -0.59413415 0.028626751 0.008598036
000320 10 67 5a bf fd 6f da bc 1c a6 25 be 4c 83 8f bd
       -0.8531351 -0.026664728 -0.16176647 -0.07007465
000330 16 d3 d5 3d 07 bc 5f bf 73 0d 7a 3d ab 5e ab bd
       0.10440652 -0.8739628 0.061047982 -0.08367666
000340 b1 b5 09 3e 1c 59 93 3e 06 c1 2e bf d1 0d 72 bf
       0.13448216 0.28778923 -0.6826328 -0.9455233
000350 ef da 7f 3e d3 32 9a be 36 da a2 bd e0 aa d4 3e
       0.2498586 -0.301169 -0.07951777 0.41536617
000360 a2 fb 65 bb ee 38 92 bf 53 a4 61 3e e2 a4 92 3e
       -0.0035092612 -1.1423624 0.22035341 0.2864142
000370 c4 01 0f be 34 20 1b bf fd b1 30 be f5 5a 0a be
       -0.13965517 -0.60596013 -0.17255397 -0.1351126
000380 e9 47 ae be 6a cd 02 3c 14 1e 24 bf 0e 31 11 be
       -0.34039238 0.007983545 -0.64108396 -0.14178869
000390 90 6d 1e 3f ad 6f 93 be 13 29 0a bf bd 3a aa bf
       0.6188593 -0.2879614 -0.53968924 -1.3299176
0003a0 f7 97 88 3d d1 53 03 3e d1 cb b3 3d 59 c1 48 3b
       0.0666961 0.12824942 0.08779109 0.0030632822
0003b0 8f ee cc 3e 76 8f bb 3e 57 3a ac bf 6e 71 71 3e
       0.40025756 0.3663289 -1.3455304 0.23578426
0003c0 72 27 bd 3e 55 27 5b be b6 d1 64 be 1e 6e 76 3e
       0.36944157 -0.21401723 -0.22345623 0.24065444
0003d0 50 3a dd be a3 65 7e be df f7 8d be 50 99 a3 bd
       -0.4320855 -0.24843459 -0.27728173 -0.079882264
0003e0 1b da 87 3e 3b 48 90 be 35 e3 a7 be 82 8a 15 be
       0.2653359 -0.28180107 -0.32790533 -0.14603618
0003f0 85 a8 44 3d d1 6d 8e be 62 c0 ee 3e 8c cd 86 bd
       0.048012275 -0.27818158 0.4663115 -0.06582174
