models/checkpoint.pkl (torch, 382370 bytes, 54 tensors)

layer1.0.weight f4 [16, 3, 3, 3]
00000000: fdba 753e 14d1 523d 5690 06be 3968 ee3c
00000010: 2992 57bd 03f1 bebc 65fa 76be 080a 6abd
00000020: 2ccb d53d 5b2a e63d 7e2f 623e 4315 703e
00000030: e259 23be 141c 363e 0d92 9e3d 5e54 813c
00000040: 0ee7 8ebd a190 083e 37b3 d73c c626 f43d
00000050: 9129 bdbc 209a 3cbe e070 d9bd 912f 103e
00000060: 977a 5dbe ba78 57bd 6f2f 663d 917c 36be
00000070: c843 a43d ac1f cdbd 4a0a 2abd 9eec 05bb
00000080: 6a86 633e 706e fbbd 85c0 483b 28c5 313e
00000090: 7c60 4ebe 20ea 5dbe b477 e7bc 75e1 e8bd
000000a0: 33df b83d b3a9 4a3d fb39 a23d d00f 163e
000000b0: 39e3 c1bd 49e4 bdbd 4666 84be 6bb3 f63d
000000c0: afd0 e33d 849a fdbc 9bbf d43d 4a35 40bd
000000d0: 94db eebd e88f a7bd f12d 50bc d85c 263c
000000e0: c95f 863c f812 1fbc 37ee c0b8 ce8e 16be
000000f0: 7e00 293e 3b09 d9bd 5a42 abbd 6b1a 1bbe
00000100: 9c1a abbd abca 14be 4fdc 03be a703 9bbe
00000110: b79f 753d 8a6d 38be 5177 b8bd 9ad3 283b
00000120: 0861 993d 002a 68be a39a 61be 2daa cd3c
00000130: e52c b23d 1343 103e 6136 21be eabd 93bd
00000140: 8909 773d 5018 1cbe f7d2 7f3d ee66 303e
00000150: 2184 50be 9985 6d3d d548 b5bd 1fb1 8bbe
00000160: dd2d aebd 0868 323c 1e10 cebd dea5 1c3e
00000170: 041a fd3d b01d 0ebe 7e81 0dbe 054f 75bc
00000180: acce 2ebe ae9c d93c bee8 60bd 471f 143e
00000190: 08ca ec3d 8f01 20bd 315a 433e 4d72 533d
000001a0: 5a66 9f3d 939d ce3d cf50 ecbd 33ee c4bb
000001b0: 5bc2 c73d 4e8b 353e 2345 b6bd 5dd6 ad3b
000001c0: c368 b93d 06fe 2abd 3526 8ebc bef9 12bd
000001d0: 94be cdbd b430 4c3e 56ae 903c 986f 843d
000001e0: 03b5 c7bd 9c27 b6bd d214 6fbe 8319 a1bd
000001f0: f9d5 29be ed15 1bbe a88b 483e 7723 afbd
00000200: 62bc b4bd 70cd c43d 87ef 29be 9530 6bbd
00000210: 737b bc3d 1113 c9bc 60ac b13b 61a2 f23d
00000220: d406 363e c8cb 5bbd 3e25 e2bd 6db0 663e
00000230: 205a a8bd 4ce1 343e 83f8 613e 32b0 6dbc
00000240: bbdf 9fbd 7187 29be cd8f 33be dd27 20be
00000250: 2181 67bd 2189 0a3e 0f9f 883d d894 75bc
00000260: 5c96 a33d ca81 153e c07a 4bbe 9b73 43be
00000270: 9384 55be 4f7b 223e 6d04 70be 284a 7cbe
00000280: ea2b fe3d 143b 30be 9291 85bd 44c6 3abe
00000290: 6adf 54be 89a4 bbbd 68f2 31be 300d a33c
000002a0: 5910 453d edc0 003e ae2f c2bd 1942 68be
000002b0: 4e96 c43d 1990 0f3e afce 453d 03d5 ff3d
000002c0: 582e eeba eb4e b4bc 546a c63d 747f 423e
000002d0: 0785 143d c165 78be 0dff 18be 150a 323c
000002e0: 5eb4 e13d 22a7 833d daa5 263d 9f96 08bc
000002f0: f5cd 503e be6f 8b3d 2bcb aabd 22b5 1d3e
00000300: b72e 653e ab0e 453d 1ae0 bd3d ac45 923e
00000310: ba40 3b3c b88c 9f3d 94cb 29be eb22 53be
00000320: 3fb2 b9bb 1c52 543e 5a26 30be aa31 f8bd
00000330: b4a0 eb3c 43ee bcbd e825 353e f88b ff39
00000340: 1c98 523e 5c24 fabd 4020 933d 1e0e f63d
00000350: b709 1cbe 361e 0d3e 3fe7 dcbc 5f25 793e
00000360: baf0 30be 0b2f 313d 2360 703d ead5 23be
00000370: 89f4 61bd 03bb 223e 7d2a 3d3e 16c6 3b3d
00000380: 1b2f 16be 673a 0cbe 4821 36be f43a 893c
00000390: 421b 193e 8327 b7bd d178 813d 06ed b33c
000003a0: fe58 663e 3106 203e 7707 e0bd 43bd 123c
000003b0: 4947 11be e711 21be f15b b0bd 0e41 7d3e
000003c0: 9412 0f3d 29d5 82bd e7cd f6bc b139 fb3d
000003d0: a256 03be 4836 d7bc 9653 84bd 6932 1a3e
000003e0: ae11 29be 95bb 1cbe 3821 2a3e bec3 133d
000003f0: 025a 0dbe dfc1 c5bd 0a81 39be a3f5 373e
0.23997112 0.051468924 -0.13140997 0.029102432 -0.052629624 -0.023308283 -0.24118955 -0.057138473
0.104391426 0.112385474 0.2208843 0.2344561 -0.15952256 0.17784148 0.07742701 0.0157873
-0.06977664 0.13336422 0.026330573 0.11921458 -0.02309111 -0.18418169 -0.10617232 0.14080645
-0.21628796 -0.05260537 0.05619758 -0.17820956 0.08020741 -0.100158066 -0.04151372 -0.0020435224
0.22219244 -0.12276924 0.0030632329 0.17360365 -0.20153993 -0.21671343 -0.028255321 -0.113711275
0.09026947 0.049478244 0.07921215 0.1465447 -0.094671674 -0.092720576 -0.25859278 0.1204594
0.111237876 -0.030957468 0.10388108 -0.04692582 -0.11662975 -0.08181745 -0.012706266 0.010153972
0.016403096 -0.009709112 -9.1996444e-05 -0.14702913 0.16504094 -0.10597464 -0.08362265 -0.15146796
-0.08354685 -0.14530437 -0.1287701 -0.30276224 0.05996677 -0.18010536 -0.09007133 0.002576089
0.0748921 -0.22672272 -0.22031645 0.02510556 0.08699969 0.14088087 -0.157434 -0.072139576
0.060311828 -0.1524365 0.06245705 0.17226765 -0.20362903 0.057988737 -0.08851782 -0.2728357
-0.085048415 0.010889061 -0.10061668 0.15297648 0.12358478 -0.13878512 -0.13818929 -0.014972453
-0.17071027 0.026563969 -0.05490946 0.14465056 0.11561972 -0.039063986 0.19077374 0.051622678
0.07783194 0.10088649 -0.115388505 -0.006009841 0.09753867 0.17728922 -0.088999055 0.005305095
0.09053185 -0.041746162 -0.017352203 -0.035882704 -0.100461155 0.19940454 0.017661255 0.06466597
-0.09751322 -0.08894274 -0.23347786 -0.07866194 -0.1658553 -0.15145083 0.19584525 -0.08551686
-0.08824994 0.096094966 -0.16595279 -0.05741938 0.092032336 -0.024545224 0.00542216 0.118473776
0.17776042 -0.053661138 -0.1104226 0.22528239 -0.08220315 0.17664069 0.22067456 -0.01450734
-0.07806345 -0.16555573 -0.17535324 -0.15640207 -0.05651963 0.13528873 0.06670963 -0.0149891
0.07987663 0.14600292 -0.19871044 -0.19087069 -0.20851354 0.15867351 -0.23439188 -0.24637663
0.1241072 -0.17210037 -0.06521906 -0.18239695 -0.2078835 -0.09162242 -0.17377627 0.01990375
0.048111293 0.12573595 -0.094817504 -0.22681464 0.09598981 0.14019813 0.048292812 0.12491801
-0.001817177 -0.022010287 0.09688249 0.18993932 0.036259677 -0.24257566 -0.14941044 0.010866662
0.110207304 0.064283624 0.040685512 -0.008336692 0.20391066 0.068084225 -0.083395325 0.15401128
0.22381102 0.04810969 0.092712596 0.2856878 0.011429006 0.07790512 -0.16581565 -0.20618789
-0.0056670005 0.20734447 -0.1720213 -0.12118848 0.028763153 -0.09225132 0.17690241 0.00048741675
0.20565838 -0.12213966 0.071838856 0.120144114 -0.15238081 0.13781056 -0.026965735 0.24330662
-0.1727933 0.043257754 0.058685433 -0.1599957 -0.055164848 0.15891652 0.18473239 0.045843206
-0.14666407 -0.13694154 -0.17786133 0.016751744 0.14951804 -0.08943083 0.06321872 0.021963608
0.22494885 0.15627362 -0.10938924 0.008956256 -0.1418735 -0.15729485 -0.086112864 0.24731848
0.034929827 -0.06388313 -0.030127479 0.12266863 -0.12826017 -0.026271 -0.06461255 0.15058292
-0.1651065 -0.15305932 0.16614234 0.036075346 -0.13803867 -0.096561186 -0.18115631 0.17964797

layer1.0.bias f4 [16]
00000000: 61ef c4bd 04d5 4f3e ca7b 93bd 465b 61bd
00000010: 2673 5b3c 3fac 8fba 58e5 e5bd 2ed4 063e
00000020: dec8 d93d 6230 5b3e 73f5 143e c88d e03d
00000030: 6542 b3bd 2ae8 2ebe da12 623e 4dbf 813d
-0.096159704 0.20296103 -0.07201345 -0.055018686 0.013394153 -0.0010961368 -0.112253845 0.13166878
0.106340155 0.21405175 0.14546756 0.109645426 -0.08752898 -0.17080751 0.22077504 0.06335316

layer1.1.weight f4 [16]
00000000: 3c90 663f f303 693f 0bd7 753f fee2 6e3f
00000010: d135 943f 0443 6b3f 993f 803f 813f 4b3f
00000020: bdbd 893f 1627 9b3f af8c 803f 79b2 773f
00000030: 2a5d 813f 8b06 573f df84 6f3f 4ae2 5a3f
0.90063834 0.9102165 0.96031255 0.9331511 1.1578923 0.9189913 1.0019408 0.79393774
1.0761029 1.2121303 1.0042933 0.967567 1.0106556 0.8399436 0.9356212 0.8550154

layer1.1.bias f4 [16]
00000000: 5c27 d83d baee ab3d 5a65 44bd 1c60 3ebe
00000010: 672a 20be b4ec a1bd 89b2 f2bd a71d 1fbe
00000020: 2a78 ef3b 0a01 88bc 365b d4bd d1c7 4bbe
00000030: ea7f 7fbc 0d44 0fbb 97f2 01be 9b5b 3bbe
0.10554382 0.08395143 -0.04794822 -0.1859135 -0.15641175 -0.07906476 -0.11850459 -0.15538655
0.007308026 -0.016602058 -0.103689596 -0.19900443 -0.015594462 -0.002186063 -0.12690197 -0.18296663

layer1.1.running_mean f4 [16]
00000000: 6054 053e 625d afbd 0c51 5ebf 44f2 77be
00000010: f7e4 75be 5569 7abe 4e4d 4dbe 2e90 343f
00000020: 46de 443d 3321 5c3e 9786 c1bc 91eb 75be
00000030: 2547 10bd 7594 86bd 62bd 2e3f 8327 2a3f
0.13020468 -0.08562733 -0.8684242 -0.24213511 -0.24013124 -0.24454243 -0.2004902 0.705325
0.04806354 0.2149704 -0.023623748 -0.24015643 -0.0352241 -0.06571285 0.68257725 0.6646654

layer1.1.running_var f4 [16]
00000000: 8586 373c 56d3 903c 67a3 d83d c00c 283c
00000010: 2dcb 643c 4422 3b3d 1e76 e93b 2be3 283d
00000020: 5559 083b 30cf 613a 6334 863b 7a4c be3c
00000030: 7288 ba3b 41d5 c23b f154 f33c ca87 3f3d
0.011201506 0.017678898 0.105780415 0.010256946 0.0139644565 0.045686975 0.0071246764 0.04123227
0.00208052 0.0008613942 0.0040956005 0.023229826 0.005692535 0.005945832 0.02970359 0.046760358

layer2.0.weight f4 [32, 16, 3, 3]
00000000: a170 dfbd 18be d2bd faf5 7cbd 3d72 95bc
00000010: c7a7 32bd 60e0 a8bc f47e f3bd 0f78 d5bd
00000020: df74 d8bc 6113 4f3d 50e3 d1ba 0bc2 803b
00000030: 31ab cebc b2bc 86bc e697 a83d cc2c 463d
00000040: 9610 a03d afaa 5e3d edc4 583d db05 fa3c
00000050: d8ce 753d fa08 c23d 0b0b a53d 790e 5d3e
00000060: ba45 b83d 6ab0 85bd 0728 71bd a427 03bd
00000070: e20f 353e 2f9a 073e 6643 02bd 1b07 783d
00000080: b620 cf3d 9cbb c53d 8224 adbd f5f5 19be
00000090: 17a8 9a3d 7d3e d23d 5148 333e 3562 c83d
000000a0: 3b79 5d3d b0a8 cbbd 37b0 f1bb 9ceb 86bd
000000b0: d329 3dbe 6b87 2bbd 31aa 4dbe 9ee1 2bbd
000000c0: bd5f 4e3d eb0e cdbc 9620 8c3d a3e6 4fbd
000000d0: d880 c33d cc57 9f3b 6030 a6bb e86c d9bc
000000e0: 4eca f8bc 4806 89bc a1f4 e43d 6540 afbc
000000f0: 0947 bcbd 7429 a23d 077d 8fbc 2c74 973c
00000100: f5d8 0bbc 52c6 a5bc e182 b33c 9939 83bc
00000110: 464d 29bd 3db6 34bc 8c3e e13c 0b90 50bc
00000120: d24a fcbd 53c5 dcbd ef3f 6dba 9a48 a1bd
00000130: dbd7 7e3a 42ad b73d 7579 af3d 4f1f f03d
00000140: e35a 7b3d 9cdc 0f3e c446 aa3d a2f7 993c
00000150: a863 d13c 29d8 20bd 73ca cdbc 1869 febd
00000160: 7c10 e3bd 6b62 c3bd 2b43 02be a1c1 1abe
00000170: 44cc e1bc 8aa8 363d 3e2d 8f3d dbd9 42bd
00000180: 7d66 abbc 8a54 94bd 53b9 b0bd 87d9 6abd
00000190: 5a54 df3d 1e79 853d bc46 673d 9026 f73d
000001a0: a0a6 bc3c 50f7 8cbc cd9c ab3c bafc 87bd
000001b0: 129e 333b aa33 9ebd afc9 e7bc 0ca7 033e
000001c0: 4d2d 85bc 6a9b 05be fb49 82bd 11b9 66bd
000001d0: 0745 17be 2c5f 6d3d e7bc e6bc b74c 88bd
000001e0: e1c1 1abd 8851 c3bd e38f e0bb f0ec 8cbd
000001f0: 3cbd 0dbc 7fd3 b03d 5c8c 76bd e59f e7bd
00000200: eedd 02bd ce5c f63c 8366 9fbc 4097 8b3d
00000210: 9019 0abe 28d5 813d 8927 b13b d9e6 2abd
00000220: a3fb 0d3d d663 0a3d afec 9ebd b391 ecbb
00000230: 4989 68bd 58e3 cebd 783f 8dbd 893a 8bbd
00000240: f65b 1b3d 1ce4 763d 01a6 853d d373 a1bd
00000250: c62f 0cbd adc9 b33a 7a44 86bd 5ada 2bbe
00000260: d4c4 d0bb ffa9 3e3e e464 b63c 0362 37bd
00000270: 757e 8e3c e1b3 02be 4a3b 4b3c 72a8 bebd
00000280: eba5 08be 935e 00be e71c c83c 4a89 d2bd
00000290: c916 1abd 2fb9 c9bd ebea bbbd 7bab f6bc
000002a0: 7e7c bebc faef b33d cd9c b53d d418 433d
000002b0: b27a 13bd 9e92 98bd 7b02 cabd f6ea 46bd
000002c0: ad57 bcbd 3b23 fb3d 8e17 9c3d 9b41 8b3d
000002d0: 879b 24be d538 153d f6f7 d939 cc7e 2f3d
000002e0: 422b c13d c409 c0bc 9bd7 553d 066e f33c
000002f0: 37e9 2a3d 61b5 213d 4612 fc3c c93f aabd
00000300: 0e3e cbbc 9489 aebb 954e a93d 2f0d 763c
00000310: c555 933c 527c 6abd 52af c33d cfc6 ccbc
00000320: 5554 883d 29f0 c13c 65d7 a4bc 84b1 f3bd
00000330: e022 b0bd 36f9 303c 9ed4 0a3d af0f bc3b
00000340: 27f3 f3bc d4d2 563d 83a4 423d 251d 50bd
00000350: 5754 1c3d 4c95 30bc 3d86 aabc 321c 96bd
00000360: cd78 033e de78 22bb 5a0e ffbc 35d5 da3d
00000370: 04a0 21be 23e8 573c c0f8 bbbd a092 82bc
00000380: d545 73bc 4e16 b13c 28f6 2ebe 06ee c5bd
00000390: 2f3a 07be 0fff 1fbe 4d80 67be c9c2 ce3a
000003a0: 594c 61bc d941 e4bd 60f7 a1bd fcc6 a23d
000003b0: 9499 dc3d b742 13bd 4caa 4abd 26d4 0c3d
000003c0: 7461 f13d 3e1a 873d 6a49 a4bb 9c88 acbc
000003d0: af88 e6bd 0185 d8bd 3c63 db3b 7a9d ccbd
000003e0: 2c0a aebd 6330 c23d 0385 3cbc 7251 c63d
000003f0: b338 313d ed62 6fbd 6ad6 81bd 04ba acbd
-0.10910154 -0.10290164 -0.06175802 -0.01824295 -0.043617036 -0.020614803 -0.11889449 -0.1042329
-0.026422916 0.05055559 -0.0016013179 0.0039293817 -0.025228115 -0.016447399 0.08232097 0.048382565
0.078156635 0.054361995 0.052922178 0.03052037 0.060011715 0.094743684 0.08058747 0.21587552
0.08997674 -0.06527789 -0.058876064 -0.032020226 0.1768184 0.1324241 -0.031802557 0.06055365
0.10113661 0.09654924 -0.08454229 -0.15035231 0.07551592 0.10265825 0.17508055 0.097843565
0.054070693 -0.09944284 -0.007375743 -0.06587908 -0.18472986 -0.04187719 -0.20084454 -0.041963212
0.050384272 -0.025031528 0.06842153 -0.05075706 0.09546059 0.004862761 -0.0050716847 -0.026541188
-0.030369904 -0.016726628 0.11179472 -0.02139301 -0.091932364 0.07918063 -0.017515672 0.018488012
-0.008535613 -0.020236168 0.021912994 -0.016018676 -0.04133346 -0.011029777 0.027495645 -0.012729655
-0.12318958 -0.10779824 -0.00090503594 -0.07875176 0.0009721496 0.08968593 0.08568088 0.11724722
0.061365973 0.14049 0.08314279 0.018794838 0.025560215 -0.039268646 -0.02512095 -0.12422389
-0.110871285 -0.09540256 -0.12720935 -0.15112926 -0.027563222 0.044594325 0.06991051 -0.047571044
-0.020922894 -0.07242687 -0.08629098 -0.057336356 0.10904761 0.06517242 0.056463942 0.12067902
0.023028672 -0.017207772 0.020948792 -0.06640001 0.002740745 -0.07724698 -0.028294412 0.12856692
-0.016256953 -0.13047567 -0.06361767 -0.056328837 -0.14772426 0.05795209 -0.028166248 -0.06655257
-0.037782554 -0.09537035 -0.00685309 -0.0688113 -0.008651074 0.0863409 -0.06019245 -0.11309794
-0.03194993 0.03007355 -0.019458061 0.06815958 -0.13486314 0.063394845 0.0054063243 -0.04172406
0.034663808 0.033786617 -0.077599876 -0.007219517 -0.05677155 -0.10101956 -0.06896871 -0.06798274
0.037929498 0.060276136 0.06525803 -0.0788342 -0.034225248 0.001371672 -0.065560296 -0.16782513
-0.00637112 0.18619536 0.022264905 -0.044771206 0.017394284 -0.12763931 0.012404272 -0.09309472
-0.13344543 -0.12536077 0.024427844 -0.10280092 -0.037619386 -0.09849774 -0.091756664 -0.030111065
-0.023252722 0.08786006 0.08867798 0.0476311 -0.036005683 -0.0744984 -0.09863754 -0.04856392
-0.0919641 0.12262579 0.0762168 0.067996226 -0.16074954 0.036431152 0.0004157421 0.042845532
0.09432079 -0.023442157 0.05220757 0.02971555 0.041726317 0.039479617 0.030770432 -0.08312947
-0.024809863 -0.005326459 0.082669415 0.015017792 0.017985234 -0.057247467 0.09554924 -0.024997143
0.0665671 0.023674088 -0.02012224 -0.11899093 -0.08600402 0.010801604 0.033894174 0.0057391743
-0.02977903 0.052447155 0.04752017 -0.050809044 0.03816637 -0.010777783 -0.020815963 -0.073295966
0.1283905 -0.002479128 -0.031134773 0.10685197 -0.15783697 0.013177904 -0.09178305 -0.015939057
-0.014848192 0.021617081 -0.17086089 -0.0966454 -0.13205789 -0.15624641 -0.22607537 0.0015774603
-0.013751113 -0.11145372 -0.07908511 0.079481095 0.1077148 -0.035952296 -0.049478814 0.034382008
0.11786166 0.06596802 -0.0050136345 -0.021061234 -0.11256539 -0.105722435 0.0066951793 -0.09990974
-0.08498034 0.09481885 -0.011506322 0.09683503 0.043266963 -0.058443952 -0.06339724 -0.08433917

layer2.0.bias f4 [32]
00000000: 12a1 0abd 3e7a 3e3d a7cf 9f3c 68d2 b53c
00000010: 75d8 c63b 78aa e83b 1550 8a3d f81b 4cbd
00000020: 4403 483d 1fc1 9dbd 24b5 133d 1b4a 99bc
00000030: c95c 9dbc 0ef9 943c 1d85 853c 52b4 623c
00000040: 618f 353d 7dbd 9bbd d199 aa3c 050f 3cbd
00000050: 9801 30bd 4a4b 32bc a98e 863c ce9d c53c
00000060: 8315 7d3d 6273 47bc 5d64 bc3b 19f2 10bd
00000070: c5b4 293c 6144 60bd 7819 643d f9fd a73c
-0.033845015 0.046503298 0.019508196 0.022195056 0.006068284 0.0071003996 0.06753556 -0.04983136
0.04883124 -0.077028506 0.03606142 -0.018712094 -0.019209282 0.018185165 0.016298825 0.013836937
0.04432619 -0.076045014 0.020825299 -0.04591276 -0.04297027 -0.010882208 0.016425448 0.024123099
0.061788093 -0.0121735055 0.005749269 -0.035387132 0.01035804 -0.05475271 0.05568835 0.020506846

layer2.1.weight f4 [32]
00000000: 137a 753f 0627 8e3f a0f4 853f 7696 703f
00000010: b8aa 7e3f 6696 743f cc10 7d3f 4b80 7d3f
00000020: 818f 723f 0e5a 753f 7e0a 7b3f 88be 883f
00000030: 01f1 6b3f 1946 7b3f f9e3 5c3f 646c 653f
00000040: cf2f 843f 98ed 7f3f 6cc8 873f d071 713f
00000050: 794f 5f3f cb5d 843f fe99 7a3f 92c1 913f
00000060: 296b 743f 87af 8d3f 2e63 853f 087a 8e3f
00000070: aa84 833f dd01 833f bbe8 933f e1cb 703f
0.95889395 1.1105659 1.0465279 0.93979585 0.99479246 0.9554199 0.98853755 0.99023885
0.9475022 0.9584054 0.98062885 1.0683146 0.9216462 0.98153836 0.8628536 0.89618516
1.032709 0.99971914 1.0608039 0.9431429 0.8723064 1.0341123 0.97891223 1.1387198
0.95476013 1.1069192 1.0420892 1.1130991 1.0274861 1.0234944 1.1555399 0.94061095

layer2.1.bias f4 [32]
00000000: 7863 65be 15a2 ae3c e24d cc3c 6fbb 5fbe
00000010: 51b7 b4bd 6be0 40be 058d 5cbe b208 6cbe
00000020: f4c4 7fbe 646a 00be da4e adbe cd1f a9be
00000030: 3c77 bdbe e3bc 01be 40ac 23be 245d 2bbe
00000040: 9331 29be 0747 45be 9428 dcbd 2376 aebd
00000050: 1162 2bbe b82e c2bd d999 10be bde8 7fbd
00000060: 5db0 94bd 5a41 e8bd 2176 f6bd 9d7f 6dbc
00000070: fe00 24be ba00 14be a1ef 483c 168a 24be
-0.22401226 0.021317521 0.024939481 -0.21848844 -0.08824027 -0.18835609 -0.2153817 -0.23050192
-0.24977475 -0.12540585 -0.3384922 -0.33032075 -0.3700503 -0.12669711 -0.15983677 -0.16734749
-0.16522817 -0.19265376 -0.10749927 -0.085186265 -0.16736628 -0.09481567 -0.14121188 -0.062477816
-0.07260201 -0.1134059 -0.1203425 -0.014495757 -0.16016003 -0.14453402 0.012264163 -0.160683

layer2.1.running_mean f4 [32]
00000000: 94b3 d4be 61ab 28bf c574 85bf 4d17 973e
00000010: 8fab b5be f84d fd3f f578 17bd 802c f03f
00000020: 951d 113e 1ad7 e2be 279f 9bbe 2f92 6fbf
00000030: a40c 613f f374 33bf 52c9 0abd 47d8 963e
00000040: d016 5a3f 437d a1bf 72e6 f2be 2926 71bf
00000050: ee19 f13e c4cd afbe 1ed7 44bf 1a9c 31bf
00000060: ddbf 28be 9293 52bf 91fe 1bbd a489 b5bf
00000070: 2775 68bf 44b5 e4bf f81b 7abf 9456 63be
-0.41543257 -0.65886503 -1.042626 0.29509965 -0.3548245 1.9789419 -0.036980588 1.876358
0.14171441 -0.44304734 -0.3039486 -0.93582433 0.87909913 -0.70100325 -0.0338834 0.29461882
0.8519106 -1.2616352 -0.4744144 -0.9419885 0.47090095 -0.34336674 -0.7689074 -0.6937882
-0.1647944 -0.82256424 -0.03808457 -1.418263 -0.9080376 -1.7867818 -0.97698927 -0.22200996

layer2.1.running_var f4 [32]
00000000: ca7c 833f 8b8c 1e3f 15ae 0e40 11c0 7c3e
00000010: d292 443e ba46 b63f a459 1f3f 9406 6d3f
00000020: c848 963f 54b8 5f3f d37c b93e 3723 b73e
00000030: 5663 ca3f bcee 9d3f 0dce 7d3f 065d f93e
00000040: 3d68 213f 599d 1b40 84ce e93f 8e78 1440
00000050: 196b c83f 817a 8d3f c7af 733f 93ea 2d3f
00000060: 8702 a93f 70c3 453f 30cf 113f 1c6e 993f
00000070: d085 c93f 1745 833f ae04 4a3f 1057 c53e
1.0272458 0.619332 2.2293751 0.24682643 0.19196633 1.4240334 0.62246156 0.9258816
1.1740961 0.8739064 0.36228046 0.35769054 1.5811565 1.2338481 0.99142534 0.48703784
0.6304968 2.4314787 1.8266149 2.319858 1.5657684 1.105301 0.9519009 0.67936057
1.3203896 0.7725134 0.5695677 1.1986728 1.5743961 1.025546 0.7891339 0.38542986

layer3.0.weight f4 [64, 32, 3, 3]
00000000: 0afd 5a3d f992 073e cb85 d2bc 4f89 d9bc
00000010: 665b fabd 7e20 2bbe 7fbd 4abd 9c29 353d
00000020: cd2e 64bd da67 cebb 8a56 d6bc 11fb 213e
00000030: b054 413d 579e 8c3d d81a ed3d 96f6 30bd
00000040: ad5c e4bd 7c33 33bc 963e 0fbc 437b b83c
00000050: a6c9 81bd 984b 51bd d056 ac3c 5a8f e23c
00000060: f639 a5bb b216 41bb 82d5 6f3d c22f b3bd
00000070: 4c22 f03d 0f6a b93d 8a45 f33d d949 403d
00000080: b929 8a3d a742 233d 39d6 d73c 3a2c 8f3d
00000090: 0d19 ac3c 40f8 123d db29 cbbc c989 e23d
000000a0: 7dcd 803d 06e1 ac3a 1a02 063e 2db2 aabd
000000b0: 016b 7a3d 005a 143d 1472 893d 9040 df3c
000000c0: 0e1f 0cbd af55 90bd d8e3 83bd d867 713d
000000d0: 40d0 643d 1538 c5bd 2b7f e13d e32a 183d
000000e0: c1db ebbd ffda 703d 26e9 3abe 0dd4 9cbd
000000f0: c4bd b23d c424 893d 0670 8f3d 36f0 b5bd
00000100: b1d7 52bd b1db fcbd 6d82 723d f54d 61bd
00000110: d638 5fbc f341 25bd 0439 61bd 41d8 123b
00000120: c322 123c 6a60 a03d 376e 8bbd 9ea7 303d
00000130: 196d a13d d228 82bd f136 f1bd c6b0 733c
00000140: 263e a4bd 357b c93d 33e8 84bd 656b 68bd
00000150: d29c f83d 0bcd 0b3c f783 60bd e721 c93a
00000160: 6980 b13c edf6 4f3d 2716 9bbd 1839 01be
00000170: 927d 2dbe ae62 ecbc 437f 893d 84c8 89bd
00000180: f027 fc3b fdf2 0ebe dae3 c33c bee3 c63b
00000190: 1333 8d3d 26d1 e9bb 119c ae3d cf92 44ba
000001a0: e0b4 953c 15ba bf3d 0ac9 5d3d d55a ccbd
000001b0: 3501 b03d 5cbd da3d fc9b 343d be05 60bd
000001c0: 1d5d 0dbe e47a 84bc a349 913c 70f6 93bd
000001d0: 6b89 6ebc 994c c9bd 5f88 c2bc d19e abbd
000001e0: 8e73 04be 6b7f d4bd 2cd9 c8bc fdce bd3c
000001f0: 1199 01bc a1d6 373d 15cb 9bbc 8a31 3fbd
00000200: b335 a1bc fe68 bc3d d21c 49bb ecbd 853d
00000210: 3005 e93d 3610 72bc 28e6 253a 301c 7ebd
00000220: d0cc d4bc d65f 223d 2c52 bdbc 86ee bfbd
00000230: 4c13 cd3d 2321 bf3c 1d2f b83c 33d5 373c
00000240: cce2 63bd 1209 e03b 69ad 95bc 8207 72bd
00000250: 2c7d a43b eeec 313e 01ef d2bd 9fbd 54be
00000260: 207b 5f3c 1367 bfbd 184f 03bd 99fd 293c
00000270: 2b3d babd 9e5f dfbc ba36 5d3d ed63 5c3d
00000280: 76f2 f7bc 870b dbbd 4c03 9c3d b533 85bd
00000290: 2328 e9bd 5e62 033d c597 783d 1418 15bd
000002a0: 6395 edbd 089b b7bc c4cf 36bb 594f a3bd
000002b0: f63b cebd 9357 233d 0019 c13d a8c8 1ebe
000002c0: 8904 553b de25 8d3d 0f49 2fbd ac02 27be
000002d0: eaea dfbd c8d5 45bd 50e9 41be a0f4 173e
000002e0: baf5 b33c dd17 eb3b e586 e5bc 213e 3ebe
000002f0: d33d 82bd b006 4abc db63 673c c0fa bebd
00000300: 81b7 e03d 328c a5bd 2f58 ff3d 93b5 96bd
00000310: 933c 27be dffa 47bd d106 1cbe da4c be3b
00000320: 8ef3 0fbd 0c75 033d ac2d e73c dd02 edbc
00000330: ed02 8bbd ad22 19bb ea7a 213d b439 4ebd
00000340: 311a 32be f0ae 8dbd 2619 cb3c 3af0 a53d
00000350: 0169 58bd 2916 743c 67b9 5bbd 5297 74bd
00000360: d21e 933d bc27 853c f36c 0d3c 9cc8 cbbc
00000370: f074 463d 9b5e 093e 4d9c d73d 73de 3f3d
00000380: bc3d e83d c971 463c 7859 76bd 4e44 4cbd
00000390: a7a5 9f3d 2a8a 6fbc 388b 233e a1af b4bc
000003a0: 4eff 43be a401 b73c 0e84 aa3d 1203 003d
000003b0: b5c4 443d 2a90 68bd 43bc e6bd 1361 863e
000003c0: c5f4 ddbd ba5a bbbd dcdc 263d 5947 75bc
000003d0: a291 19be 6b0b 9b3d 69ec 07be eaa3 f4bc
000003e0: 9f7f 09be 9b9b 59bc 1eda 3abc 3f7a 3a3a
000003f0: 4406 05be c1b3 9a3d 90d1 79bd 1759 0f3e
0.053463973 0.1323966 -0.025698563 -0.026554732 -0.12224464 -0.16711614 -0.049497124 0.044229135
-0.055708695 -0.006299001 -0.026164312 0.1581843 0.047199905 0.068661384 0.11577386 -0.043203913
-0.11150489 -0.010937568 -0.008742949 0.022519713 -0.063372895 -0.051097482 0.02103749 0.027656246
-0.00504231 -0.002946299 0.058553226 -0.087493435 0.117252916 0.09053432 0.11878498 0.046945427
0.06746239 0.039858487 0.026347267 0.069908574 0.021008039 0.03588128 -0.024800232 0.11061437
0.06289194 0.0013189621 0.13086739 -0.083347656 0.061137203 0.036218643 0.06711212 0.027252465
-0.034209304 -0.07047593 -0.06439942 0.058936924 0.055862665 -0.096298374 0.110105835 0.037150275
-0.11516524 0.0588026 -0.18253002 -0.07657633 0.08727601 0.066964656 0.07003789 -0.08883707
-0.05147523 -0.1234659 0.059206415 -0.055005986 -0.013624391 -0.040346097 -0.054986015 0.002240673
0.008919421 0.078308895 -0.06808131 0.043128602 0.07882137 -0.06355442 -0.11778057 0.014873689
-0.080196664 0.09837953 -0.06489601 -0.056743044 0.12139286 0.008532773 -0.05481335 0.0015345187
0.021667676 0.050772596 -0.075725846 -0.12619436 -0.16942433 -0.028855648 0.06713726 -0.067276984
0.0076951906 -0.1395988 0.023912359 0.0060696295 0.06894507 -0.007135528 0.08525861 -0.0007498683
0.018274724 0.09361664 0.054146804 -0.09978262 0.0859398 0.10680649 0.04409407 -0.054692976
-0.13805051 -0.01617188 0.017735308 -0.072247386 -0.01455913 -0.09829063 -0.023746667 -0.08379901
-0.12934706 -0.103758655 -0.024517618 0.023169989 -0.007910029 0.04488242 -0.019017735 -0.046678104
-0.019678926 0.09199713 -0.0030687344 0.06530365 0.113779426 -0.014774373 0.00063285464 -0.0620386
-0.025976568 0.039642178 -0.023110472 -0.093716666 0.10013446 0.02333123 0.022483403 0.011220264
-0.055636212 0.0068370188 -0.018271165 -0.05908919 0.0050198045 0.17375538 -0.102994926 -0.2077546
0.013640195 -0.09345832 -0.03205785 0.010375404 -0.09093698 -0.027267274 0.05400727 0.053806234
-0.030266982 -0.10695558 0.07617816 -0.06504003 -0.113846086 0.032076232 0.060691614 -0.036399916
-0.11600759 -0.022412792 -0.0027894834 -0.07974119 -0.100700304 0.03987844 0.094285965 -0.15506232
0.0032503924 0.06891988 -0.042794283 -0.16309613 -0.10933478 -0.04829958 -0.18936658 0.14839411
0.021967757 0.0071744756 -0.028018424 -0.18578388 -0.06359448 -0.012330696 0.0141229285 -0.093251705
0.109725006 -0.08083381 0.124679916 -0.07358851 -0.16331701 -0.048823234 -0.15236975 0.0058075013
-0.03514438 0.032094046 0.02822002 -0.02893203 -0.067876674 -0.0023366616 0.03942386 -0.050348
-0.17392804 -0.06918132 0.024792265 0.0810246 -0.052834515 0.0148978615 -0.05364361 -0.059714623
0.07183613 0.016254298 0.008631933 -0.024875931 0.048451364 0.13414995 0.10527859 0.046843003
0.113399 0.012112089 -0.060143918 -0.049869828 0.077952676 -0.014620343 0.15971076 -0.022056403
-0.1914036 0.02233965 0.08325969 0.031252928 0.048039157 -0.05677811 -0.11266377 0.26245937
-0.10837702 -0.09148164 0.04073797 -0.014970624 -0.14996961 0.07570537 -0.13273777 -0.029863317
-0.1342759 -0.013281728 -0.011404542 0.0007113553 -0.12990671 0.075538166 -0.06099087 0.13998829

layer3.0.bias f4 [64]
00000000: 43be d93c f581 993d 0535 ff38 9a87 edbc
00000010: 1714 d93c 57ed a93c 5fe1 f23c 3cdb 62bb
00000020: 6126 0cbd 9fe3 f0bc b9cf 9f3c a718 ff3c
00000030: de7d 41bd 4f9d 5639 595b 2c3b a6a7 3eba
00000040: a3aa 9a3c 2fdd 50bd e575 6abd 2343 4c3d
00000050: 7dc5 523d fd33 db3c c9dc 8b3d e272 31bd
00000060: ac05 0c3d a308 82bc 9709 9b3c fed9 41bd
00000070: 38b3 473d 78fa 88bb 70ae 3d3d 5cc4 c63c
00000080: 202a d1bc b759 0bbc 3c3f 9c3a 679c 9b3c
00000090: 661f 1a3c d425 1c3c c8b8 d53b 4a29 78bc
000000a0: 1fb4 bb3c 6860 33bb 1443 5dbc b95e 9dbc
000000b0: 3925 723d 624f 353d 1de5 933d 86da a5bc
000000c0: e31c 64bd 8801 e3bc 4f93 ae3c f197 89bc
000000d0: a234 12bc 6b5e 153d 7ad1 1bbd b345 fc3b
000000e0: 679e 09bd 4a40 d0bb 8ab5 323d 48b8 233d
000000f0: 151d 713d 9553 263d 42cf 67bd 8c18 d4bc
0.026579982 0.074954905 0.00012169223 -0.028995324 0.026498837 0.020743055 0.029648481 -0.0034615537
-0.03421629 -0.029405413 0.01950823 0.031139685 -0.047239177 0.00020467232 0.0026299565 -0.00072729064
0.018880194 -0.050992187 -0.05724134 0.049868714 0.05145787 0.026758188 0.06829221 -0.04332245
0.034185097 -0.015873259 0.018925471 -0.047327034 0.0487549 -0.004180249 0.046308935 0.024263553
-0.025532782 -0.008505276 0.0011920701 0.018995477 0.0094069 0.009530503 0.006522272 -0.015146563
0.022913037 -0.0027370695 -0.013504762 -0.019210206 0.05911753 0.04426516 0.07221434 -0.020245802
-0.05569161 -0.027710691 0.021310477 -0.016796084 -0.008923681 0.036466997 -0.03804157 0.0076987385
-0.03359833 -0.00635532 0.04363016 0.039970666 0.058865625 0.040607054 -0.05659414 -0.025890611

layer3.1.weight f4 [64]
00000000: 7f73 903f 1e35 913f b1df 8f3f c385 8a3f
00000010: ba08 823f 978e 8c3f 9625 903f ad54 8e3f
00000020: 9f05 8a3f ec16 8e3f a983 923f 172a a43f
00000030: f6c8 8a3f 5425 903f 254d 883f 2cdb 973f
00000040: 89ed 953f ace7 8e3f 0095 8a3f aee5 833f
00000050: 5ba2 8d3f 9f66 803f 81c7 983f c30c 8f3f
00000060: 9d17 903f d86f a33f d371 8f3f 6ef2 a03f
00000070: a01a 903f cc0a 903f eac8 873f 2fd1 863f
00000080: ab7c 8a3f 544a 883f 3917 893f 6093 923f
00000090: 84ff 883f b77f 863f 1fd8 8a3f 7a94 883f
000000a0: 7121 963f e98b 873f c73b 893f 5725 ab3f
000000b0: 65d9 873f bf1c 903f c253 963f 29a9 8c3f
000000c0: a300 973f da74 8a3f 4aec 933f 111d 973f
000000d0: baf5 843f dacb 893f 200d a03f 0532 8f3f
000000e0: 8211 8f3f f019 913f 9319 a03f debb 8e3f
000000f0: 6c71 963f b727 943f d2e0 853f 2d1c 823f
1.1285247 1.1344335 1.124014 1.0822071 1.0158913 1.0981015 1.126147 1.1119591
1.0782965 1.1100745 1.144643 1.2825345 1.0842578 1.1261392 1.0648543 1.1863761
1.1713115 1.1164451 1.0826721 1.0304468 1.1065172 1.0031317 1.1935884 1.117577
1.1257206 1.2768507 1.1206611 1.2573984 1.1258125 1.1253295 1.0608189 1.0532588
1.0819296 1.0647683 1.0710212 1.1451225 1.0702977 1.0507725 1.0847205 1.0670311
1.1728956 1.0589572 1.0721368 1.337077 1.0613219 1.1258773 1.1744311 1.0989124
1.1797069 1.081691 1.1556485 1.1805745 1.038749 1.0765336 1.2504005 1.118714
1.1177218 1.133604 1.2507805 1.1151083 1.1753364 1.157462 1.0459235 1.0164849

layer3.1.bias f4 [64]
00000000: 50f8 89be 8a57 94bd 3838 d3bd 4569 bfbd
00000010: 6845 a2bd 9ec4 33bd c0d4 bdbe 4684 34be
00000020: 2bd4 dcbd a847 5cbd d61f c8bd 4891 13be
00000030: bdf5 c4bd 3a99 31be 6a90 c8bd ade2 b1bd
00000040: 294f 4abe f34c a6bd 3584 7cbd 5f17 75bd
00000050: 7989 e6bd 4201 a7bd d215 7ebe 5740 10be
00000060: 4d48 6fbd 0d92 87be 3aa2 80be e096 3fbe
00000070: 89ec 02be 07e2 abbd f8c4 8bbd 3c33 84bd
00000080: 8001 c4bd d9d1 41bd 98d6 64bd a7fb bebc
00000090: f3d9 67bd da9b 54bd b3e1 53bd 6fa1 8cbe
000000a0: 18b2 62bd e97b 17be c876 12be c884 e0bd
000000b0: 159e 7abd ddaf 8bbe 9ac5 d0bd 2a0f 92bd
000000c0: 67bd c8bd 83b1 52bd 3f64 ddbd e25b 04be
000000d0: 95c9 95bd c05d 00bd 6006 83bd e2bb 8bbd
000000e0: 6cc5 87bd 4e86 9fbd c9f5 1fbe 13c9 54bd
000000f0: 999d 33be 92ae fdbd 4d64 dbbc 3e49 86bd
-0.2694726 -0.07243259 -0.10313457 -0.093462504 -0.079233944 -0.04388868 -0.37076378 -0.17628583
-0.10782655 -0.053779274 -0.09771697 -0.14410889 -0.09617183 -0.17343608 -0.0979317 -0.08685813
-0.1975676 -0.08120146 -0.06164952 -0.05983674 -0.112566896 -0.08154537 -0.24813011 -0.14087044
-0.05841856 -0.26478615 -0.2512377 -0.18709898 -0.12785544 -0.08392721 -0.06824678 -0.06455085
-0.095705986 -0.047319267 -0.055868715 -0.023313357 -0.056604337 -0.051906444 -0.051728915 -0.27466914
-0.055345625 -0.14793362 -0.14303124 -0.10962826 -0.061185915 -0.2728261 -0.101939395 -0.071317986
-0.09801751 -0.05143882 -0.10810136 -0.12925676 -0.07313839 -0.031339407 -0.063977 -0.06822945
-0.06629452 -0.077892885 -0.15621103 -0.05194957 -0.17540587 -0.12386812 -0.026781226 -0.065569386

layer3.1.running_mean f4 [64]
00000000: f7e8 67bf bb44 453f 9017 463f 5134 26be
00000010: d547 c53f f88c f13e 9369 cfbf 5e9e c5bf
00000020: f313 a63d 8097 903f d41e ba3f 130a 1abf
00000030: eb1e 58bf cf27 3b3f ea19 a43e 2c7c 40bf
00000040: ca83 c6be d77a ae3e fd2c bb3f b5d7 a1bf
00000050: ba08 423e 3097 3f3f a4f8 eabf 0abb a53f
00000060: b503 873f 5e34 b7be a40f dbbf b813 4e3e
00000070: 22f6 07bf f303 b7bf 52e2 ce3f 70b2 9a3e
00000080: 732f 073f 122c 66bf 1a2b 463f 5ef6 11bf
00000090: fa94 ed3e c093 c4be 7c89 e13e ff56 cabf
000000a0: f57f cd3e 8b04 743f 1ce2 41bf ee68 f1bf
000000b0: da99 21bf 16ac fa3d d0f6 e4bf cc91 ae3e
000000c0: 6077 bbbf c180 f5bf 74fd ebbf 884a 87bd
000000d0: 6b2e 7cbf 5f9e 5bbf 6bd6 8bbf bbb4 b03f
000000e0: bb24 97be c109 b43e e07b a13f b4d9 c13f
000000f0: 9ff5 b5bd 04a2 84bf 2301 d9bf 11d6 98be
-0.9058985 0.77058 0.77379704 -0.16230895 1.5412546 0.47177863 -1.6204094 -1.5438955
0.08109274 1.1296234 1.4540658 -0.6017162 -0.8442218 0.7310762 0.3205102 -0.7518947
-0.38772422 0.34078094 1.4623104 -1.2643954 0.18948641 0.7484007 -1.8357129 1.2947705
1.0548006 -0.3578214 -1.7114148 0.2012471 -0.53109944 -1.429808 1.6162817 0.30214262
0.52806777 -0.89910996 0.7740952 -0.5701655 0.46402723 -0.38393974 0.44050205 -1.5807799
0.40136686 0.9531943 -0.7573564 -1.8860147 -0.63125384 0.12239854 -1.7887821 0.3409561
-1.4645805 -1.9179918 -1.8436723 -0.066060126 -0.9850833 -0.8578853 -1.092481 1.3805155
-0.2952021 0.35163692 1.2615929 1.5144563 -0.08884739 -1.0361943 -1.6953472 -0.2985082

layer3.1.running_var f4 [64]
00000000: c036 873f 0304 bf3f ec09 b43f d523 ab3f
00000010: 0b7f 963f 71c9 3c3f af64 1b40 d71e ec3f
00000020: 91c6 633f 5244 563f 500f aa3f d7c2 f43f
00000030: 9a5e 9f3f a8f5 963f d65e 983f 222c a53f
00000040: 7c2f 283f b9f6 8f3f e0a8 633f 561a 873f
00000050: 6a45 4d3f d5e1 993f 7cce 2e40 1531 bc3f
00000060: 9695 b03f 902f 623f 8f81 0d40 2894 c53f
00000070: 6331 af3f f74c 0840 2749 de3f b08e 233f
00000080: 92ec 843f 0033 b93f 6eb7 ab3f ed0c 0040
00000090: dbec 643f c40d 9a3f 0513 803f c374 bf3f
000000a0: e985 683f 50ea 593f b3a0 a23f d6c8 f33f
000000b0: a051 883f be98 873f dadd 0140 bb52 a03f
000000c0: a1a4 c03f d6b9 f43f 7804 0d40 ce28 6c3f
000000d0: 2e9a b53f f8f9 213f 69c2 0d40 8189 633f
000000e0: 245b 3b3f 8be2 3540 2998 a33f e0c3 a73f
000000f0: 3d0d 013f 7850 e33f 1a89 703f 33af 0e3f
1.0563583 1.4923099 1.4065528 1.337031 1.175752 0.73744875 2.4280202 1.8446912
0.88974863 0.83698 1.3285923 1.912196 1.2450745 1.1793718 1.1903942 1.2904093
0.65697455 1.1247169 0.8892956 1.0554912 0.8018404 1.2022043 2.7313528 1.4702479
1.379565 0.88353825 2.2110326 1.5435839 1.3686947 2.1296976 1.7366074 0.638896
1.0384696 1.4468689 1.3415353 2.000789 0.8942391 1.2035451 1.0005804 1.4957508
0.9082933 0.8512316 1.2705292 1.9045665 1.064991 1.0593488 2.0291657 1.2525247
1.5050241 1.9119213 2.2033978 0.92249763 1.4187677 0.6327205 2.2149909 0.8888169
0.73185945 2.841952 1.278081 1.3106651 0.50410825 1.7758932 0.939592 0.5573608

fc1.weight f4 [10, 576]
00000000: 6ca7 393d dee5 1ebd 1da0 853d 9f60 3fbd
00000010: edf7 fa3d cdf0 473d f616 ce3b 3aa7 d2ba
00000020: d9ae a5bd 28d8 803d 20ff 903c 3483 0dbb
00000030: 4307 693d a786 af3d 1e63 813e 9f7f a03d
00000040: 2e50 f2bb cb4b 013d cd39 33bc d761 793d
00000050: dbe8 22bd a5c8 0b3d 539d 7fbd fe3a 663c
00000060: 14cf e33c c146 c8bc 040e ecbd d4c8 df3d
00000070: 115a 943d 4472 3abc f8a2 ca3c db2c 233e
00000080: 0796 fabd 8ee4 babd e036 05bd d9bc b4bc
00000090: 96be 4cbd 67d9 9dbd f512 01be cce3 34be
000000a0: b16c 5fbd 5e69 12bd 2502 6e3a b45a aabd
000000b0: 6d47 acbd 78f7 f63d 4196 ddbc da85 cdbd
000000c0: 724e 233d d9ee 1e3e 6d2b 603d 3bb7 6b3d
000000d0: bf06 e73d b64f 94bb 76f7 7cbd 8484 9abd
000000e0: 1be9 15bb b192 3b3a a0a0 48bd 2779 503d
000000f0: 0b29 213d aea4 173e 216d 5b3c fc88 25bd
00000100: c629 7ebd 07c4 1d3d 1c05 2bbd 0a69 e0bc
00000110: 1ff9 cc3d fb46 733c ac83 a6bd 62cd 92bd
00000120: 9d3d 333d 5c41 273e 5f21 d73d 1c01 70bc
00000130: f0e1 223e 0fb1 463a df14 d23c 7fb3 113e
00000140: 836d 5b3d c6f0 5dbc d734 77bb 504a 8e3d
00000150: 8e7f f33d f49e a73d 6094 d03d 9142 35bd
00000160: 3875 263d 6978 4ebc c3e1 f03d a301 8d3d
00000170: 8a88 163d a670 ddbd ba1e 6bbc 7419 bc3d
00000180: 1e86 513d 7787 7ebd ebed c7bd 5f24 1ebd
00000190: 927f 9e3d 8354 9c3c 5890 263e c180 2d3e
000001a0: 6e42 923d 96e4 10ba a64e 383b 886a de3d
000001b0: 3e58 cabd a5fd 34bd 9115 a23d fd86 83bd
000001c0: 2712 9ebd 5f46 6a3d 07be 413d da18 acbc
000001d0: 08ed 16bd 5b2d 043e 8fc9 223c e28c 0fbe
000001e0: c931 023e f8ef 2b3d 676e 10bd 38ec de3c
000001f0: ba7b bd3d f959 77bb 58d2 c7bd 4098 41be
00000200: b676 13bd a429 01bc baa1 203c 17ad 0d3e
00000210: a753 93bc e2b3 513d 7c7a 663d 9ac6 25be
00000220: 72b0 473d 0866 1f3e e9c8 883d 8dd7 d4bd
00000230: 4ce2 1f3d a379 cf39 d82e c2bd f27f 053d
00000240: 5266 8e3d 3b4f 6d3d 474b 373d 689c 3d3c
00000250: 610e 1fbd 5d98 953c af93 913d 2010 0bbe
00000260: 4edf 76bc f126 753d c3d3 143a ee1d afbc
00000270: a4cf ab3c 288f 4a3d 6d9a cf3d eed4 b23d
00000280: bb51 26be cadc 033d c43f 673d 0817 9dbc
00000290: 4279 ce3b 88a6 dbbd dedc 8cbc 75b0 7e3c
000002a0: 7ad3 6d3d 203f 623d ecb7 2d3d 880f 50be
000002b0: 41db c2bd 3576 a93c eebe a53c 2541 24bd
000002c0: 8e64 eb3c 85cc 703d 85bb 803c d068 853c
000002d0: c3e1 113e 9cd3 973d 2111 31be 7bc2 7c3d
000002e0: 53eb 493c d284 5b3b 6dad 91bd 3fb3 26bd
000002f0: 97d3 79bd 3e3c ed3c 789e c63d cb4b 31bc
00000300: 9383 8ebd befb 9dbd 288a 3f3a 7403 d0bc
00000310: 773a 88bd 7273 0e3d 20a7 72bb 0612 20be
00000320: 739d 8abd 4740 b53d b6eb b83c 0e8e 103d
00000330: 888c b03d 53d4 cf3d 1493 8d3d 3a8e 933d
00000340: c22e 183e 4b32 7b3d 57e4 1cbe 4d95 acbb
00000350: fa4c aabc 67bc 95bd abe5 83bd af13 2abd
00000360: c2c4 ef3c 69fe 4dbd 557e 103e 3d40 753d
00000370: b893 1a3e 6f32 1a3e 8a5f e33c 4096 a13d
00000380: 254d a1bd a42d 2d3d 62a0 523c 4b4d 023e
00000390: c1a3 243d bc62 0d3e 4240 453e 179e d53a
000003a0: 2b6a 31bd c8d1 493d 8ea8 4e3c 3766 643b
000003b0: 31fe 4cbd da3a 0e3d 440d 24bd 3658 923c
000003c0: aca4 af3d 2372 f53c cdab 0b3e 66e5 2f3d
000003d0: 476f df3c 7f99 cdbc 4c28 223d 7d5f f93d
000003e0: 95e7 853d 10a1 e7bc 97b9 c63d ea9e 3a3d
000003f0: fcce 9bb9 58c9 b3bc 35fc 113a 9cd7 15bd
0.04532568 -0.038793437 0.0652468 -0.046723004 0.12254319 0.04881363 0.0062893583 -0.0016071566
-0.0808999 0.062912285 0.017699778 -0.0021593096 0.05689169 0.08570605 0.25270933 0.07836842
-0.007394812 0.031566422 -0.010939074 0.060884323 -0.03977285 0.034126896 -0.062405895 0.014052151
0.027808703 -0.0244478 -0.11526111 0.10926977 0.07243741 -0.011379782 0.024735913 0.1593508
-0.12235647 -0.091256246 -0.032523036 -0.022062706 -0.049986444 -0.07707482 -0.12604888 -0.17665023
-0.054547016 -0.035745017 0.0009079299 -0.083180815 -0.08412061 0.1205892 -0.027049186 -0.10035296
0.039869733 0.155208 0.054728914 0.05754779 0.112805836 -0.004526104 -0.061759435 -0.075448066
-0.0022874537 0.00071553426 -0.04898131 0.05089679 0.039345782 0.14808914 0.013392718 -0.04041384
-0.062051557 0.038517024 -0.04175292 -0.027393837 0.100084536 0.014848466 -0.08130583 -0.0716808
0.04375993 0.16333526 0.10504412 -0.014648702 0.15906501 0.00075794844 0.025644718 0.14228629
0.053571235 -0.013546174 -0.0037720704 0.06947768 0.118895635 0.08184615 0.1018455 -0.044252936
0.040639132 -0.01260195 0.11761811 0.06885078 0.036751308 -0.108125016 -0.0143505875 0.09184542
0.051153295 -0.062140908 -0.09762176 -0.038608905 0.07739176 0.019083267 0.16266 0.16943647
0.07141577 -0.0005527226 0.002812305 0.10860163 -0.09880112 -0.044187207 0.0791427 -0.06422231
-0.07718306 0.057196017 0.047300365 -0.021007944 -0.036847144 0.12907927 0.009935751 -0.14018586
0.12714304 0.0419769 -0.035261538 0.027212247 0.092521146 -0.0037742837 -0.09756917 -0.18905735
-0.036001883 -0.007883463 0.009804184 0.1383556 -0.017984224 0.05119694 0.056269154 -0.16189042
0.048752256 0.15566266 0.066789456 -0.103926755 0.039034173 0.00039572743 -0.09481591 0.03259272
0.0695311 0.05793689 0.044749524 0.011572935 -0.038832072 0.018261129 0.071082465 -0.1358037
-0.015067888 0.05985159 0.0005677307 -0.021376576 0.020973034 0.04945293 0.10136876 0.08732019
-0.16242115 0.032192983 0.056457296 -0.019176021 0.006301076 -0.10725123 -0.017195161 0.015545
0.058063008 0.055235982 0.04241173 -0.20318425 -0.095144756 0.020686248 0.020232644 -0.04010119
0.028734472 0.058788795 0.015714416 0.01628533 0.14246278 0.07413408 -0.1729169 0.06170891
0.012324172 0.0033495915 -0.071131565 -0.040698286 -0.060992803 0.02895939 0.09698194 -0.010821293
-0.069586895 -0.07714032 0.00073066587 -0.025392272 -0.06651776 0.034778066 -0.0037025884 -0.15631875
-0.06768312 0.088501506 0.022573333 0.035291724 0.08620554 0.101479195 0.069128186 0.07204862
0.14861587 0.06132726 -0.1532148 -0.0052668215 -0.020788658 -0.073113255 -0.0644029 -0.041522678
0.029268626 -0.050291453 0.14110692 0.059875716 0.15095413 0.15058301 0.027755518 0.07889986
-0.07876042 0.042279854 0.012855621 0.12724797 0.04019523 0.13807195 0.19262794 0.0016297725
-0.04331414 0.04927233 0.012613429 0.0034850964 -0.050047103 0.034724094 -0.040051714 0.017864328
0.085763305 0.029961651 0.13639756 0.04294338 0.02727474 -0.025097607 0.03958921 0.12176416
0.065383114 -0.028275043 0.09703367 0.04556171 -0.0002971812 -0.021946594 0.0005568893 -0.036582574

fc1.bias f4 [10]
00000000: 4dbd 8b3c 43a3 ec3b d38d c0bc 5656 00bc
00000010: 6d7b 3abd e46d 9fbc 692c 3bbd 752d a13c
00000020: 0c3d e03c 9beb bbbb
0.01705804 0.0072216108 -0.023505127 -0.007833084 -0.045527864 -0.01946158 -0.04569665 0.019674996
0.02737286 -0.0057348735

fc2.weight f4 [2, 10]
00000000: 4ca0 10bf 554d 67be c38c 1dbf 7f8c 5a3e
00000010: d4c9 64bd 0e0f b7bc 9774 183e 81ed f5be
00000020: b0cf a13e c19b 09bd 111f 153f 5176 ef3e
00000030: 629e 293f c23c a5bd c594 323e e966 f9be
00000040: 0206 f73d ea28 b03e 794f 17be ae50 c9be
-0.56494594 -0.22588094 -0.6154291 0.21342658 -0.05585654 -0.022346046 0.14888225 -0.48032764
0.31603765 -0.033595804 0.5825053 0.46769956 0.662573 -0.08068229 0.17439564 -0.48711327
0.12061693 0.34406215 -0.1477641 -0.39319366

fc2.bias f4 [2]
00000000: fa03 083e 4bfb 93be
0.13282767 -0.2890266

exp_avg f4 [16, 3, 3, 3]
00000000: b868 f62e ac99 182f 4525 2d2f 3c04 d42e
00000010: f7d6 092f 3640 1f2f 25ec b62e d3f0 f42e
00000020: 7306 0c2f d89e ccae 965b c5ae 3b73 d0ae
00000030: 44f5 01ae 5317 14ae 67f7 2eae fca2 dbad
00000040: 7ee6 ddad d3fd 0fae 7cb0 e6af 8f3b ebaf
00000050: 52fb f7af 3c8f c7af ba2f ccaf 1344 dfaf
00000060: cd06 b7af 4e5c bbaf ce8a ccaf 5703 fe2d
00000070: 03d2 bb2e 780b 082f d9ee 012f 516a 3c2f
00000080: 72aa 5f2f 39af 542f fd22 822f 615b 8f2f
00000090: 9ba2 152e a387 ea2e 688d 352f c1a8 092f
000000a0: 4c59 552f b154 8a2f a057 5b2f 219c 902f
000000b0: f29d a82f 2f19 cc2e de81 402f a5c0 872f
000000c0: e7d0 412f 148a 8b2f 68cd ad2f 3171 872f
000000d0: e885 ad2f e5f7 c82f 62c8 35af b812 3baf
000000e0: 03c6 39af ca8b 2eaf 406e 39af 34c8 37af
000000f0: d8b6 1daf bf20 2caf 4b85 2daf f924 1a2c
00000100: 9902 bd2c 6b2f 8a2d b0a3 c32a 6c07 602c
00000110: 3450 862d 2445 9b2d b8e0 ab2d 1e20 052e
00000120: 94ef 872e 718b 902e a68e a62e 9e68 8d2e
00000130: 6dc5 912e f387 aa2e ccb5 b32e 5d08 b82e
00000140: 963b d12e 378c f72f 7327 0330 07eb 0730
00000150: 6804 d62f 4356 e22f fbcc ea2f b196 c12f
00000160: 0140 c82f e765 cf2f cc3f a82f 996c ba2f
00000170: 36b4 c82f 3667 8c2f ca99 9e2f 3eb3 ae2f
00000180: 6b62 792f 4d61 8b2f 9c21 982f 96e8 f22f
00000190: 9914 0030 d5ab 0530 621c ed2f b37b fb2f
000001a0: 5f09 0430 43db dc2f fdee e92f 3535 f32f
000001b0: d69e 1f30 271b 2630 9dc2 2c30 0d3a 1330
000001c0: 637e 1830 cda3 1e30 fe60 fc2f 41b5 0030
000001d0: 801d 0530 7702 262f b124 552f 37cf 862f
000001e0: d088 a32e 876f f52e 5988 292f 9f56 342d
000001f0: 3e78 142e 56c1 9c2e 0ff3 7a2f 8a67 982f
00000200: 9817 b92f 38ca 2e2f df71 692f 5d5b 942f
00000210: 1642 142e 26df 9e2e 91bf 152f 1f93 9baf
00000220: 9838 95af 4308 8caf 1a6c 9aaf e87d 96af
00000230: 914a 8eaf bbf9 a3af 759d a2af 12a9 9caf
00000240: 62e2 33af ec83 2caf c301 20af 9c59 33af
00000250: c57d 2caf 0f48 21af 0fd7 60af b7a4 5daf
00000260: f9a5 52af 8715 34af c860 29af b084 1baf
00000270: eba2 3daf b1d0 36af 5c4f 28af 16da 60af
00000280: 020d 62af b09c 5aaf d6a0 e72f a682 e82f
00000290: f90e dd2f 263b 4030 0f04 3d30 c724 3330
000002a0: 471b 7530 d2ad 6f30 37e9 6530 f511 7fad
000002b0: ffcb c2ad fda3 73ae b247 872f ec79 782f
000002c0: b428 482f 4c4d f12f ce12 e52f 7dae ca2f
000002d0: cb01 88af c17f 86af 3cf2 9aaf 237b a12e
000002e0: e65e 982e f9d4 d42d 0efc 8f2f cf5a 892f
000002f0: 4fbb 5e2f e451 ecae 7631 e3ae 8930 d8ae
00000300: 16ac 99ae d3f8 94ae 1b95 88ae f430 7bad
00000310: 4127 79ad b0b5 45ad 72a9 10af aa15 09af
00000320: c67a 04af ad03 c5ae 8540 baae 1ed6 b4ae
00000330: 8933 a6ad 888c a5ad 5c84 aead fbc3 03af
00000340: 0bbe 00af 6ac4 03af 84f1 8dae dfed 8fae
00000350: b81b 95ae 025c 882d ee46 4f2d 8982 e62c
00000360: 566b 1eaf 8194 4a2f 0fc8 2330 efb6 1aaf
00000370: 3e0d 3a2f 8dc4 1730 047a efae 6aba 152f
00000380: 5e1b ed2f 90a3 c9af 5b68 9d2e 1f72 2730
00000390: 587f 89af 1cc7 302f 4034 4030 44f9 99ac
000003a0: 9168 c32f f60b 5130 1622 9930 ca47 d930
000003b0: d631 1331 753c 9930 e648 da30 1645 1131
000003c0: 6ce8 b330 d9e1 e830 ce7d 1131 f179 3ab1
000003d0: 4f69 4cb1 74b9 5fb1 df20 5cb1 8112 63b1
000003e0: 9a36 74b1 697e 7ab1 5711 77b1 2302 80b1
000003f0: 100e abb1 7415 b1b1 f25a b5b1 158d b4b1
1.12053866e-10 1.3878915e-10 1.5747499e-10 9.641396e-11 1.2536448e-10 1.4483778e-10 8.3183495e-11 1.1138614e-10
1.2735217e-10 -9.305062e-11 -8.974792e-11 -9.479214e-11 -2.9549044e-11 -3.367202e-11 -3.9782757e-11 -2.4969797e-11
-2.522715e-11 -3.2739877e-11 -4.1962156e-10 -4.278857e-10 -4.5107612e-10 -3.6299663e-10 -3.7141296e-10 -4.0611833e-10
-3.3292338e-10 -3.4080688e-10 -3.720601e-10 2.887794e-11 8.541081e-11 1.2373202e-10 1.1817337e-10 1.7136272e-10
2.0342286e-10 1.9343539e-10 2.3671723e-10 2.6076477e-10 3.40231e-11 1.0665182e-10 1.6512092e-10 1.2520031e-10
1.9403962e-10 2.516223e-10 1.9949065e-10 2.6304384e-10 3.067125e-10 9.2813195e-11 1.7508436e-10 2.469324e-10
1.7627465e-10 2.5382063e-10 3.1614467e-10 2.4636784e-10 3.1563663e-10 3.6555928e-10 -1.6533044e-10 -1.7014201e-10
-1.6896e-10 -1.5874871e-10 -1.686482e-10 -1.671488e-10 -1.4344026e-10 -1.5654943e-10 -1.5781614e-10 2.190524e-12
5.3719915e-12 1.5709841e-11 3.475254e-13 3.1836435e-12 1.5269654e-11 1.7652164e-11 1.9540244e-11 3.0269225e-11
6.181647e-11 6.5731316e-11 7.5741455e-11 6.4305214e-11 6.6289065e-11 7.7548544e-11 8.172271e-11 8.368837e-11
9.514804e-11 4.5028667e-10 4.7713583e-10 4.944671e-10 3.8929504e-10 4.1170453e-10 4.271e-10 3.5213568e-10
3.6425266e-10 3.7725487e-10 3.0604352e-10 3.3910366e-10 3.6507836e-10 2.5539187e-10 2.8849306e-10 3.1777775e-10
2.2681383e-10 2.535309e-10 2.767252e-10 4.4184806e-10 4.65954e-10 4.8629306e-10 4.3130216e-10 4.5744528e-10
4.803464e-10 4.0173562e-10 4.2552264e-10 4.4239248e-10 5.806958e-10 6.0429034e-10 6.28498e-10 5.3560784e-10
5.5476884e-10 5.771284e-10 4.590745e-10 4.6823706e-10 4.842704e-10 1.5098488e-10 1.9385273e-10 2.4521693e-10
7.4366846e-11 1.1161121e-10 1.5418901e-10 1.0251049e-11 3.37581e-11 7.128402e-11 2.2823719e-10 2.7722208e-10
3.3668068e-10 1.589705e-10 2.1231682e-10 2.698596e-10 3.371e-11 7.224647e-11 1.3619529e-10 -2.8298872e-10
-2.7143154e-10 -2.5471722e-10 -2.8089248e-10 -2.7374303e-10 -2.5882632e-10 -2.9826971e-10 -2.9579508e-10 -2.8496366e-10
-1.6360382e-10 -1.5690177e-10 -1.4552541e-10 -1.6311791e-10 -1.5687991e-10 -1.4668465e-10 -2.0449085e-10 -2.0158351e-10
-1.9158354e-10 -1.6378553e-10 -1.5404844e-10 -1.4144308e-10 -1.724733e-10 -1.6626946e-10 -1.5307705e-10 -2.0450161e-10
-2.0559202e-10 -1.9882651e-10 4.2132936e-10 4.2293385e-10 4.0210305e-10 6.993325e-10 6.8763567e-10 6.5172084e-10
8.9169244e-10 8.7194707e-10 8.3641133e-10 -1.4499059e-11 -2.2145839e-11 -5.5397454e-11 2.46073e-10 2.2598784e-10
1.8204355e-10 4.3892567e-10 4.166822e-10 3.6867567e-10 -2.473953e-10 -2.4465233e-10 -2.8184555e-10 7.343306e-11
6.929017e-11 2.4196188e-11 2.6190644e-10 2.4984678e-10 2.0257328e-10 -1.0746584e-10 -1.0331551e-10 -9.8311644e-11
-6.988203e-11 -6.774461e-11 -6.2110504e-11 -1.4278568e-11 -1.4162727e-11 -1.1238496e-11 -1.3156923e-10 -1.2467774e-10
-1.2048948e-10 -8.959176e-11 -8.469762e-11 -8.223487e-11 -1.8894901e-11 -1.8820737e-11 -1.984029e-11 -1.1984007e-10
-1.1709049e-10 -1.1984161e-10 -6.4548394e-11 -6.5451415e-11 -6.7806594e-11 1.550227e-11 1.1782337e-11 6.5514855e-12
-1.440815e-10 1.8424552e-10 5.9583355e-10 -1.407121e-10 1.6921306e-10 5.5212795e-10 -1.0890136e-10 1.3617699e-10
4.3129494e-10 -3.6677905e-10 7.158071e-11 6.091642e-10 -2.5010638e-10 1.6077845e-10 6.9923445e-10 -4.3761956e-12
3.5544592e-10 7.6050755e-10 1.1141903e-09 1.5809232e-09 2.1419644e-09 1.1149398e-09 1.5882307e-09 2.1139548e-09
1.3090022e-09 1.6944411e-09 2.1171789e-09 -2.7135878e-09 -2.9745768e-09 -3.2556189e-09 -3.2032899e-09 -3.3043366e-09
-3.553771e-09 -3.6451644e-09 -3.5953087e-09 -3.725533e-09 -4.9783537e-09 -5.153817e-09 -5.2781326e-09 -5.2547287e-09
