models/checkpoint_t3.pkl (torch, 387913 bytes, 54 tensors)

layer1.0.weight f4 [16, 3, 3, 3]
00000000: b5c7 d8bd 1444 2fbe cfe3 babd eb90 7cbe
00000010: 045c 1cbe 4f3f 27bd a717 66be df2c 7abe
00000020: 983c e8bd 3d0a fabc 99c2 073e 5f39 10be
00000030: cb72 7f3c 72f2 a9bd d923 39bd da2d 5e3e
00000040: 7359 6d3e 6609 f2bc 37e5 553e 1601 7ebd
00000050: bde3 34bd 0658 673e ae06 b4bd e487 2f3e
00000060: c6a2 883e 1015 853e 5396 493c 5a5d 08be
00000070: 5035 113e b089 003e 42e4 53be 0ae1 04be
00000080: 2e17 713e 4179 173e ccf8 0ebe 1307 04be
00000090: a6b5 0bbe 0c3d 8ebe 8f25 4fbe fe14 62be
000000a0: bda9 91be cff9 9e3d bafc 58be e6bb 70be
000000b0: 5322 b73d 29d9 203d 3aa1 c83c 07c0 0f3e
000000c0: 77a8 2b3e b294 7d3e ee52 563e dbad c43c
000000d0: 4276 e23d 1635 8bbd 60b6 a33d 3406 8cbe
000000e0: 7bc5 7abe 87fc 77bd 3a3a 2dbe 778a 9e3d
000000f0: bb36 db3c fec7 f9bd ac79 21be c4eb 773d
00000100: 240d bfbd aac2 24be 73b6 e1bd 437b 113e
00000110: 9bcb 573e 7628 d93d 4989 143e 6010 b23d
00000120: 5b7d 163e fdde 2a3d 4dd1 863e 0220 343e
00000130: 67f1 1e3e e36d b63e 3ba2 073e 0abf 903d
00000140: 21ae 6f3e fec6 9d3e cbcd e03d 3992 623d
00000150: 7f7d 5c3e 5cac 983e 09e1 853e b440 1abd
00000160: 66ba 0d3e 6e6c 9b3e 6dad 7dbd 80aa f6bd
00000170: 59e2 843d e493 debd a0fa 0ebe 21c8 183e
00000180: 314c fcbd 76e6 a43d 3da9 e83d 2347 1bbe
00000190: 7634 743d 8c37 01be 5ae7 45be a60b 2cbe
000001a0: b9ae a1bd c07c 073e 86ac 66be 5e9a cfbd
000001b0: aea7 2dbe 8d7c 68bd 1e3f 85be 6f6d 07bd
000001c0: 42db 89be 3f65 2bbe 262e 9fbe 3155 31be
000001d0: cb1c f2bd 7ed5 72bd 9a79 513e 37e3 523e
000001e0: 7f0a 703e 5186 09bc 0c25 133e fa1c a63d
000001f0: 72ae 5cbc 2393 acbc a799 3cbe 2cf6 aabc
00000200: 07c1 86bd a1a2 ccbd f009 0fbe a81f 5fbe
00000210: 7ad6 eebd 4681 67be 4d8d 8d3d 06d8 1ebe
00000220: 9591 3c3e f6a3 0b3d 3314 f9bc 37d2 053d
00000230: 9ad1 e4bd 5b29 c4bc 9f85 d03c 184d 25bd
00000240: 42dc d2bd 2f9e 3a3e 4976 53be c1c2 ed3d
00000250: 173b 1f3e 0388 d03d 5bfe 86bd 2eaf bbbd
00000260: 0e57 b33d f7a5 233e 2706 a7be fbf6 e6be
00000270: 3ecf bbbe c034 0fbf 69bd 49bf 566d 2bbe
00000280: 48fb eabe 33bf 2abf c8d8 a63d 9e7e 2a3e
00000290: 5fc5 673e 5ea3 61bd 4929 8f3e 84dd 3f3e
000002a0: 75f1 cb3d d8ff 6d3e 379f 843d f8be 01be
000002b0: 8757 c4bc 9423 f7bd 3a6e 7cbd 8ffb 47be
000002c0: c4fc a2bd 5385 b73d e4b2 adbd 414a 8abe
000002d0: b0e9 f9bd 1237 4bbe 8064 67be eddf cbbc
000002e0: 7fc7 abbd b895 1f3d 19d6 50be d227 72bc
000002f0: 3087 443d c227 533d a67e 673e 743d 733e
00000300: ca0a eb3c 217e b43d a40a b9bd f167 f9bd
00000310: de81 cf3d 7c51 213e 9896 ba3c 4189 31be
00000320: c5a7 633d db98 58be 2f1a bc3b 8c9f 6bbe
00000330: 4853 58be ead0 9fbd a241 b03b 549a 753e
00000340: 9517 a23d 18e1 6c3e 0197 b03c d500 973e
00000350: b815 b8bb b044 dfbd 21d7 2b3e 7525 973e
00000360: 2c20 683e eb33 0ebe 7b82 1fbd 2782 1e3e
00000370: a1e8 843d 8384 a73b 4727 3e3e 12cd 62be
00000380: 37bb 78be f428 2e3e 0295 523e 8681 f83d
00000390: a3a2 da3d 5ef0 83bc e4a0 d6bd 4727 b0bc
000003a0: 1376 92be 0551 53be 1586 143d 021f 03be
000003b0: 50c0 193e b438 6ebd 2cc4 e83d 3613 313e
000003c0: 7259 03be 6773 b3bd 41f7 00bd 41c9 283e
000003d0: 6e0e c13e 318a e33e 6501 173e 1b2f 723e
000003e0: ff22 b53e da97 643d 183f 0f3d e883 c33d
000003f0: 0bca 073e 7282 333e deef 39ba b21c e23d
-0.10584966 -0.17115813 -0.09125482 -0.24664657 -0.15269476 -0.04083186 -0.2246996 -0.2443118
-0.11339682 -0.03052246 0.13257827 -0.14084385 0.015591334 -0.08298196 -0.045200203 0.21697178
0.23178653 -0.029545497 0.2088822 -0.062012754 -0.0441625 0.22592172 -0.087903365 0.17141682
0.26686686 0.25992632 0.0123039065 -0.13316861 0.14180493 0.12552524 -0.20692542 -0.1297647
0.23543999 0.14792348 -0.13962096 -0.12893324 -0.13643512 -0.2778095 -0.20229171 -0.2207832
-0.28449813 0.07762491 -0.21190158 -0.23509178 0.08942094 0.0392696 0.024490941 0.14038096
0.16763483 0.24763754 0.20930073 0.024008682 0.11057712 -0.06797235 0.0799377 -0.27348483
-0.24489395 -0.060543563 -0.16916743 0.07741254 0.026759496 -0.121963486 -0.1576907 0.060527578
-0.09328678 -0.16089883 -0.110211276 0.14207177 0.21073763 0.106034204 0.14505495 0.086945295
0.14696257 0.041716564 0.2633156 0.17590335 0.15521775 0.35630712 0.1324548 0.07067688
0.23406269 0.30815881 0.10976752 0.05531523 0.21532248 0.29819 0.2614825 -0.037659362
0.13840637 0.30356163 -0.06193297 -0.12044239 0.06488485 -0.10868052 -0.13962793 0.14920093
-0.1231922 0.080517694 0.11360405 -0.15163855 0.059620343 -0.12618846 -0.19326535 -0.16801319
-0.07894654 0.13231182 -0.2252675 -0.10136865 -0.16958496 -0.056759406 -0.26024717 -0.03306335
-0.26925093 -0.16737841 -0.31089896 -0.17317654 -0.11821898 -0.059285633 0.20456544 0.20594488
0.23441504 -0.00839384 0.14369601 0.081109956 -0.013469325 -0.021066254 -0.18417989 -0.020869337
-0.06579786 -0.099919565 -0.13968635 -0.2178942 -0.11662002 -0.22607908 0.069117166 -0.15512094
0.1841491 0.034091912 -0.03040514 0.03267118 -0.11172791 -0.023945501 0.02545434 -0.040356725
-0.10295917 0.18224405 -0.20650591 0.11609412 0.15549885 0.10182192 -0.06591483 -0.09164272
0.08756839 0.1598128 -0.3262188 -0.45110306 -0.3668155 -0.55939865 -0.7880464 -0.16740927
-0.45894837 -0.66697997 0.081468165 0.16649863 0.22633885 -0.05508744 0.27961186 0.18736845
0.09958164 0.23242128 0.0647568 -0.12670505 -0.023967518 -0.12067333 -0.061628558 -0.19529556
-0.079583675 0.089609765 -0.08481386 -0.27009776 -0.122027755 -0.19845226 -0.22596931 -0.02488705
-0.0838766 0.038961142 -0.20394172 -0.014780002 0.047980487 0.051551588 0.22606906 0.23753911
0.028691668 0.0881312 -0.09035233 -0.121780284 0.10132192 0.1575374 0.022776887 -0.17337514
0.05557992 -0.2115206 0.005740426 -0.23010081 -0.2112552 -0.07803519 0.005378918 0.23984653
0.07914654 0.23132741 0.02155638 0.29492822 -0.0056178235 -0.10901773 0.16781284 0.29520765
0.22668523 -0.13886993 -0.038942795 0.15479337 0.06489683 0.005112232 0.1856967 -0.2214854
-0.24290167 0.1700781 0.20564654 0.1213408 0.10675552 -0.016105827 -0.10479906 -0.021503104
-0.28605708 -0.20636375 0.036260683 -0.12804797 0.15014768 -0.058159545 0.11365542 0.17292485
-0.1282709 -0.087622456 -0.0314858 0.16483022 0.3770632 0.4444137 0.14746626 0.23650782
0.35378262 0.05580888 0.03497228 0.095466435 0.13260667 0.1753023 -0.0007092933 0.110406294

layer1.0.bias f4 [16]
00000000: 2c25 ffbd 96c3 26bd 9d10 853e 015e 18bd
00000010: fc30 1bbd f5e7 513d 74eb 03be 2de3 0ebc
00000020: e048 39bc 1ba7 6dbc 5510 96bc 6f16 aebc
00000030: 4fdf 383d 4ed7 fd3c 4741 1d3e 1842 24be
-0.12458262 -0.04071387 0.25989237 -0.037199024 -0.037888512 0.051246602 -0.12882787 -0.008721155
-0.011308879 -0.014505173 -0.018318335 -0.021250932 0.04513484 0.030986454 0.15356933 -0.16040838

layer1.1.weight f4 [16]
00000000: 01b3 933f ad8d 823f 8fd3 833f 22bb 903f
00000010: 6bc5 503f 21b6 6a3f f7e6 3f3f 99a1 803f
00000020: c049 853f 4c6a 823f f367 4c3f 2c43 5f3f
00000030: bf50 623f 4dae 9b3f c486 6b3f 9097 8a3f
1.1539003 1.0199486 1.0298938 1.1307108 0.81551236 0.91684157 0.749618 1.0049316
1.0413132 1.0188689 0.79846114 0.8721187 0.8840446 1.2162567 0.9200251 1.0827503

layer1.1.bias f4 [16]
00000000: ba4e ca3d b29e 80be 5132 3abe c038 563e
00000010: dd8d 14be 3b44 aabe 2f32 0a3d 05bc 373d
00000020: a4a1 97be f1b3 353d 2ab2 11be f087 563d
00000030: 0df0 b0be c037 b03d dd6f b5be ce4e 3d3d
0.09878297 -0.25121075 -0.18183257 0.20920086 -0.14507242 -0.3325518 0.033739265 0.044857044
-0.2961551 0.04436106 -0.1422812 0.052375734 -0.34558144 0.086043835 -0.35436907 0.046217732

layer1.1.running_mean f4 [16]
00000000: 7cea 9fbe 29e0 bcbe 7f9a 4d3f 046d d43e
00000010: 0db4 87bf 3e76 e5bf cf39 89be 89ff 183f
00000020: f114 233a 3edf cf3f d706 60bd af64 96bf
00000030: 948f 97bf cb19 4dbe f1dd 15bf 3571 253d
-0.31233585 -0.3688977 0.8031387 0.41489422 -1.0601822 -1.792671 -0.26801917 0.59764916
0.0006221077 1.6240003 -0.054694023 -1.1749476 -1.1840692 -0.2002937 -0.5854178 0.040391166

layer1.1.running_var f4 [16]
00000000: 8a2b 513d 9eec cc3c 3b03 1b3e 82b6 703d
00000010: bbeb 043e a472 4f3f 7d70 8f3d 768b 823d
00000020: 9331 9a3a 45cd a43e 26dc 2d3b 7328 2b3e
00000030: cc79 8b3e f3e8 843c bc5a e33d b034 503c
0.051066913 0.025015172 0.15137951 0.058767803 0.12980549 0.810343 0.07003877 0.06374256
0.0011764042 0.32187858 0.0026528924 0.16714649 0.2724136 0.01622436 0.111012906 0.012707874

layer2.0.weight f4 [32, 16, 3, 3]
00000000: bdd2 1e3e f0d8 b4bb e8ed aabd aedb 073e
00000010: b746 13bd 2cf0 8dbd 3f2d 8c3d 5f75 0fbb
00000020: bafd febd 3739 debd 7e16 773d dda1 be3d
00000030: a040 55be e2dd 19bd 8fd1 dc3d 867c 6dbe
00000040: 7dc0 6abd 030e 513d 163b e23c 8039 5ebd
00000050: a68f 19bd 29fd 80bc 4e77 403d 732b 4c3d
00000060: 8c1c 5b3d f158 d5bd 2a0a c2bd a596 bfbc
00000070: b2bd 043d 61ab aebd fc51 473d 9804 e8bd
00000080: 6191 fdbd 092c c8bc 4143 97bd 8208 32be
00000090: b29d 0cbe dc64 6abd a314 2c3e 2f5b 66be
000000a0: b770 d03c f4ef 473d 3ba8 a6be 91ee a5bd
000000b0: 9595 d73d 43e2 fbbd 727b af3b f168 3e3e
000000c0: 4400 81bd 8a38 eb3d f3fc 5a3e 7a18 2fbe
000000d0: baa1 5e3c 2477 453d 2a09 883b 9d01 78bd
000000e0: e6e4 ee3d 0db0 a4bd 2247 65bc 656d e23d
000000f0: c1c5 f73c f4bd 95bc ce74 3f3d 8c85 dabd
00000100: ec6a 62be 4005 3fbe f27c 13be 0a5e 5cbe
00000110: d4d3 59be bfa2 88bd d6fe e0bd 177e 21be
00000120: 91d7 c13d 3de6 05be dcc8 f2bd 4ad4 1a3e
00000130: 9d6a 75bd 9aff 92bd a81c 823d ddfc 5c3d
00000140: bebd 20be ed40 acbc 76ca 423d 6be2 943d
00000150: ae55 47bb 9444 c93c 84e9 acbb 620d 143e
00000160: 0894 f4bc a2e5 babd 8831 c8bd f7e6 b73c
00000170: 5051 34bd 04d4 4ebd ad66 43bd 16ee 10bd
00000180: 7811 d9bd ba3a 1a3e 7067 c13c a058 bcbd
00000190: 395e 593e 2c9a 253e 6100 45be 36cb 933d
000001a0: d4a6 123e a06e b8bd 34b1 e73d 18ca 5b3e
000001b0: 2bcf 4fbe 4f32 56bd c365 173e 75e0 56be
000001c0: 0773 9dbd 7d5d df3d 4f49 8dbe bd6e cabd
000001d0: f77b e03d 9be5 2cbe a92a 20be 8925 3ebe
000001e0: e181 98be 8190 17be 87df 3fbe 1692 86be
000001f0: bf2e d0bd 5de3 31be 567f 58be 789c a7bd
00000200: 3bb3 b53c 00c2 77be bbe5 efbd c3b4 7dbc
00000210: e520 86be 32ce d0bc ada7 cd3d c9b1 fb3c
00000220: 38ea ecbb 3fff 303d ad74 29bd 41ef d13c
00000230: 3ab0 f6bd 7970 1e3e f2db 51bd 3ed5 18be
00000240: 1548 e0bd d62e 543d 39d1 3ebc fe65 37be
00000250: 1844 1dbe 6cb9 93bd ffec 6abe 760d edbd
00000260: dd31 69be cc57 48be c8a5 65bd 60c9 1e3d
00000270: 5450 5dbe ac25 32be 08de 06be ea21 59be
00000280: ee26 63be abc4 c4bc 7af9 103e ff27 1e3e
00000290: 169e be3d 7685 18bd fca5 7fbd 9b16 f13d
000002a0: b84c 3bbd 3ccb b5bd 31df 7dbd b5f9 9dbe
000002b0: 36ea 9dbe 6db9 9ebe 0bf9 73be 21cb 59be
000002c0: 2611 d2bd bc8a dcbd 68f3 55bd e4aa 13bd
000002d0: 96a7 fbbd a994 8cbb 0393 bbbd 6eef b63c
000002e0: 6912 febc 5cca 4e3d 5bac 513c d2d0 5dbd
000002f0: c208 a03d 2063 abbd 8c02 d6bd 1f50 8cbd
00000300: ba62 b93c 4e90 bdbc c86c 8b3d f167 23ba
00000310: aed7 933c be4e f13d 7756 4bbe 120c 9cbd
00000320: 8af9 1abd b12a 1abe 2d18 debd bd33 363d
00000330: 1abc 30be f400 eabd 8f7f a53d 8bc1 8dbd
00000340: 1dd8 9a3c 9070 4f3d 734a abbd 4068 27bd
00000350: 6697 053d c047 07bd c377 a1bd 7168 64bc
00000360: 75e4 24be 1b9c 23bd 3a85 bcbd 7d04 1ebe
00000370: fa1d 59bd 3ea5 893a 4a2c f8bd 2fbd 81bd
00000380: 5749 b9bd a989 c0bd e7d7 95bd 1247 ed3c
00000390: cf6e a5bd ff1f f2bd f721 2e3d e6c4 f4bc
000003a0: 27a9 f5bc 6a86 9fbc 24b9 e6bd 3389 debd
000003b0: 6139 0bbe bda3 4dbd 896e 99bd 8bbe dbbb
000003c0: f30b 94bd a9fd e1bd 297c 09be b915 d2bc
000003d0: 324c e5bd 3881 073b 9d44 ccbd fba0 c3bb
000003e0: 15df d8bc 3c35 dbbc e48f e6bd 4d82 93bc
000003f0: 5663 f3bd f5dd 04be 86e0 1cbe af1e d23c
0.15510078 -0.005519025 -0.08346158 0.13267395 -0.03595611 -0.06930575 0.068445675 -0.0021890027
-0.12450738 -0.108507566 0.060324185 0.09308217 -0.20825434 -0.03756512 0.10782158 -0.23192033
-0.057312477 0.051038753 0.027616065 -0.054254055 -0.03749051 -0.015745716 0.046988778 0.049846124
0.05349402 -0.10417355 -0.09474595 -0.023387263 0.03240747 -0.08528782 0.04866217 -0.11329001
-0.123812445 -0.02443506 -0.073858745 -0.17386058 -0.13732031 -0.057225093 0.16804747 -0.22495721
0.025444372 0.04881282 -0.32550225 -0.081021436 0.105265774 -0.122990154 0.005355292 0.1859472
-0.06298879 0.11485393 0.21385555 -0.17099181 0.013588363 0.048209324 0.004151483 -0.060548414
0.11664753 -0.080413915 -0.01399401 0.110560216 0.030245664 -0.018279053 0.046742253 -0.10670003
-0.221111 -0.18654346 -0.14403132 -0.21520248 -0.21272212 -0.06671666 -0.10986106 -0.15770756
0.09464944 -0.1307611 -0.11854717 0.15120044 -0.059916127 -0.071776584 0.06353122 0.053952087
-0.15697381 -0.021027053 0.047556363 0.07269748 -0.003041606 0.024568833 -0.0052768607 0.1445823
-0.029855743 -0.0912583 -0.09775072 0.022449 -0.04402286 -0.050495163 -0.04770534 -0.035383306
-0.10599035 0.15061465 0.023608893 -0.091965914 0.2122735 0.16172093 -0.19238426 0.07216494
0.14321452 -0.09005475 0.11313096 0.21463811 -0.20293872 -0.05229407 0.14784913 -0.20984061
-0.07687955 0.10906503 -0.27594993 -0.09884403 0.109611444 -0.16884463 -0.15641274 -0.18569006
-0.2978659 -0.14801218 -0.18737613 -0.2628333 -0.10165166 -0.17371888 -0.21142325 -0.08184141
0.02218019 -0.24195099 -0.117137395 -0.0154849915 -0.26196972 -0.025488947 0.10041747 0.030724423
-0.0072300695 0.04321217 -0.041371036 0.02562678 -0.12045331 0.15472592 -0.051235147 -0.14925095
-0.109512486 0.05180248 -0.011646562 -0.1791 -0.15358007 -0.07213101 -0.2294197 -0.11574833
-0.22772928 -0.19564742 -0.056066304 0.038766265 -0.21612674 -0.17397183 -0.13170636 -0.21204343
-0.22182819 -0.02401956 0.14157668 0.15444945 0.09307496 -0.037236653 -0.062414154 0.1177189
-0.04572746 -0.088766545 -0.06198043 -0.30854574 -0.3084275 -0.31000844 -0.23825471 -0.21268894
-0.10257177 -0.10768649 -0.052234083 -0.036051646 -0.12287824 -0.0042901826 -0.091589 0.022330966
-0.031014638 0.050485954 0.01279744 -0.054154225 0.078141704 -0.08368516 -0.104497045 -0.068512194
0.022630084 -0.023140099 0.06807858 -0.0006233445 0.01804718 0.11782597 -0.19857202 -0.0761949
-0.037835635 -0.15055348 -0.10844455 0.044482935 -0.17259255 -0.11425963 0.080809705 -0.06921681
0.018901879 0.050644457 -0.083638094 -0.040870905 0.032615088 -0.03302741 -0.07884171 -0.013940916
-0.16102774 -0.039943796 -0.092050985 -0.154314 -0.053007104 0.0010501517 -0.121178225 -0.06334912
-0.090471916 -0.094012566 -0.07316571 0.028964553 -0.08077776 -0.11822509 0.04251286 -0.029879045
-0.029987885 -0.019473273 -0.112657815 -0.108660124 -0.13596107 -0.05020498 -0.07491786 -0.006706064
-0.07228842 -0.1103471 -0.1342627 -0.025645124 -0.11196174 0.0020676386 -0.099740244 -0.005970118
-0.026473561 -0.026758783 -0.11257914 -0.018006468 -0.11884181 -0.12975295 -0.15320024 0.025649397

layer2.0.bias f4 [32]
00000000: 4c3c b53c 0690 523c d5a1 1a3d 0067 543d
00000010: b69a 67bd 2220 9f3c 92af b5bd d96e 66bd
00000020: b668 20bd 4a00 813d ec67 8d3c f0ca a2bd
00000030: 224d e1bb 7bc8 9a3d ca38 cabc 2fd7 0c3d
00000040: dcb9 07be f881 123e 3e38 c5bd b9e5 773d
00000050: 5d62 6e3d 908a a7bd a31a 41bd 1e61 a83d
00000060: dc7c a33c dd47 103d 2eea 22bd dd3d 4cbd
00000070: af8a 423d 9dd2 d13d 43e0 8cbd cba1 76bd
0.022123478 0.012851721 0.03775199 0.05185604 -0.05654403 0.019424502 -0.08871378 -0.056258056
-0.03916236 0.06298883 0.017261468 -0.079488635 -0.00687565 0.0755777 -0.024685282 0.034384903
-0.13254493 0.14307392 -0.09629868 0.060521815 0.058199275 -0.081807256 -0.047144543 0.08221649
0.019956999 0.035224784 -0.039774112 -0.049863685 0.04749554 0.102452494 -0.06878712 -0.06021289

layer2.1.weight f4 [32]
00000000: fcac 953f 9f3e 8d3f 561f 433f 8e55 5f3f
00000010: 9c67 823f 6436 863f 185e 6e3f 1637 893f
00000020: c193 9c3f 98ce 893f 98ed 7f3f 907f 573f
00000030: e127 903f 9bcd 7f3f 3f16 783f fd75 763f
00000040: af99 413f 26c2 733f 7ff2 853f d9f9 873f
00000050: 6140 503f 636c 583f 25c7 9e3f f512 943f
00000060: 0c56 7c3f 4a4f 6a3f e0e2 883f ec1d 5c3f
00000070: 7145 683f 0d35 853f 3e6e 953f 35ac 6c3f
1.1693416 1.1034735 0.7621969 0.8723992 1.0187869 1.0485349 0.93112326 1.0719936
1.2232591 1.0766172 0.99971914 0.8417902 1.126217 0.99923104 0.96908945 0.96273786
0.7562513 0.9521812 1.0464629 1.0623122 0.81348234 0.84540385 1.2404524 1.1568285
0.985688 0.91527236 1.0694237 0.8598316 0.9073096 1.0406815 1.1674268 0.9245027

layer2.1.bias f4 [32]
00000000: d0a7 ddbd 3b58 09bd b203 5abe 9949 a4be
00000010: 1d22 85be ef0e 97bc 200a f8be b863 1abd
00000020: 7758 cdbc 5bee b73d bf8f 6ebe 9b27 36be
00000030: e981 7fbe fc41 f2bd 46ce 86be f0a0 bbbe
00000040: 9a6b e7be 8187 54bd 3f29 cabe 3423 fa3d
00000050: b93f b3be 6b56 5fbe 2c8d 61be 2859 7dbe
00000060: 11b8 39be 5a6a 99be 8b8c 39be 0b60 1abe
00000070: 6dc4 aabe dbbb 8fbe b5f9 82be c600 4bbe
-0.10823023 -0.03353141 -0.21290472 -0.320874 -0.2600259 -0.018439738 -0.48445225 -0.037692755
-0.025066597 0.089810096 -0.23297022 -0.17788546 -0.249519 -0.11828992 -0.2632925 -0.36646223
-0.4519928 -0.05188704 -0.39484593 0.12213746 -0.35009554 -0.2181031 -0.22026509 -0.24741042
-0.18136622 -0.29963952 -0.18120019 -0.150757 -0.33352986 -0.2807301 -0.25581136 -0.19824514

layer2.1.running_mean f4 [32]
00000000: 951d 14c0 0d8a 12c0 ea20 8bbf aae1 5f3f
00000010: afcd 1dbf f0de 96be 96cf 0fbf a7c3 1ec0
00000020: 6bdd 4ec0 7e8d 20c0 fe00 2bc0 183e ecbf
00000030: ffa8 fcbe 8815 7fc0 bd2c f2be 6495 28bf
00000040: fa98 cc3f 722b e5be 787d 08bf d19a 0dc0
00000050: 5115 5240 51be 1ac0 75ef 23c0 9352 afbf
00000060: 31e0 ba3e 4191 9ebe fcd3 c93f fb32 27c0
00000070: ed11 0ebf 3658 4dbf 601e 4ac0 71b8 d3bf
-2.3143055 -2.289676 -1.086942 0.8745371 -0.61641973 -0.29466963 -0.56176126 -2.4806917
-3.2322643 -2.508636 -2.6719356 -1.845645 -0.49347684 -3.9856892 -0.47299758 -0.6585295
1.5984185 -0.4475971 -0.5331645 -2.2125742 3.282551 -2.417866 -2.5614903 -1.3697075
0.3649917 -0.30970195 1.5767817 -2.6124866 -0.554961 -0.80212724 -3.158104 -1.6540662

layer2.1.running_var f4 [32]
00000000: 6b7d 1140 c819 a240 557c 0640 215c 9b40
00000010: 5cd9 0d41 863c 4f40 9f63 ed3f f091 a040
00000020: aea9 0f41 43cc 2c41 63bc 8840 df03 9540
00000030: 3158 d140 9191 2b41 abc1 8a40 90a0 5740
00000040: 867a e03f f9f5 c440 ed0e 1340 89ff 7a40
00000050: b40b 7340 add7 3d40 9411 b440 112f 3440
00000060: 4c4d d240 b7de f93f d3ed b340 fe52 c840
00000070: a180 663f 1509 1241 259d a940 24f4 c040
2.27328 5.065647 2.1013386 4.854996 8.865566 3.238069 1.8546027 5.0178146
8.978926 10.799869 4.2729964 4.6567225 6.5420156 10.723039 4.336141 3.369175
1.7537391 6.155026 2.297786 3.9218466 3.7975893 2.9662888 5.627146 2.8153727
6.5719357 1.9521092 5.6227813 6.260131 0.9004002 9.127217 5.3004327 6.0298023

layer3.0.weight f4 [64, 32, 3, 3]
00000000: 288b 90bd b0e2 0e3e 24aa 4a3e 91b0 c3bc
00000010: 442a aebc c70b fdbc 5815 08be 3688 40bc
00000020: cc9c 50be 01c4 fabd be82 bebc a9db cf3d
00000030: 9c56 debd b979 5ebd f11e 82bd d634 09be
00000040: 619a 933d 5a3b 2d3d 34b5 9fbc edbe 11be
00000050: 262c e7bd 4dae 2b3e 35bb b23d 6333 233e
00000060: 89bc 063e 3e12 3c3e 888a a3bc 1266 d9bd
00000070: 9d44 90bd fa7d b33c ebd5 11be 91ed 54be
00000080: 75e6 23bd 5e7c a8bd 2b63 bbbd d625 dcbd
00000090: 3194 8dbd ca0e 03be 4417 b2bc 5455 9abd
000000a0: d653 21be 747d ffbb 123a 7a3d 4091 bbbc
000000b0: 9353 433e c81f 943d bca1 233d fc87 35be
000000c0: 6912 e53d 0b8f ae3c ad6c d8bb 5865 bfbd
000000d0: c488 4dbd 1361 b13d a411 10be 1e9c e9bd
000000e0: 24e9 cbbd 52ca 863e 38c6 7a3d 11c0 82bd
000000f0: 0c09 383e 6f30 c93a 51c5 7a3d 8d38 09be
00000100: 5048 e13d 4343 793d a4a4 a93d 9b8d 88bd
00000110: 846f febb d366 853d 482b 113e eb42 253d
00000120: 93cb 3b3e 4f75 333e e1c4 443e 537b 103d
00000130: 1db6 12bd 04c0 aa3c 90d1 833d ebea b4bd
00000140: a0ef f83c d51f e3bd 6922 e2bd b778 dfbd
00000150: 2f63 0f3e c550 67bd 568d e3bd be8d b63e
00000160: 0580 be3d 0591 e3bc 10c9 7abd cb5c aa3d
00000170: 69a5 273d 7c1f b5bd ada3 c73d bf1f a43d
00000180: e2f6 023e 59d2 f43d ba66 1b3e a545 2a3c
00000190: efd8 47bd d01f f23d 3afc 4a3e c12e d53d
000001a0: 1eb8 a43d 8645 e63c 27a5 ec3c 5035 d7bd
000001b0: 848d d13d db24 963d acb6 853c 97aa 28bb
000001c0: 9c45 f3bd 5c29 29bd 7865 2ebe ef7e 98bd
000001d0: aab4 84be a529 97be 780e c6bc e1e7 a33d
000001e0: 25d5 d6bd 4ea8 cbbd bbbb 7ebd 9704 8cbd
000001f0: a619 1abe 4a2f 29be 5164 a03d 72c1 0dbd
00000200: 1acc 323d c7c2 133e b210 903d 1d3c 723e
00000210: f875 bf3d fe9b 923d f159 103e 06ee 743d
00000220: a767 d13c a106 1b3e f985 793e eb6e 283d
00000230: 1f91 c23d 1625 9d3b e29e 0d3e 84c5 b33e
00000240: 4030 033c 43f2 d9bd 3297 06ba 038c 693d
00000250: 81cf 763d 6007 be3c 5275 77bd 724b 1fbd
00000260: 5db5 d9bd 2bcd 42bb 56eb b43b e2de 00be
00000270: 1792 193e 7af1 47be d004 96be 051d 8d3e
00000280: 602c 00bc 77cd 8f3d 0cc9 da3d b554 02bd
00000290: 3213 37bd 6ef7 cd3d 6eaf 943c e5e6 88bd
000002a0: 1fe7 8d3d 165d 123d 527e a7bd 4364 03be
000002b0: 02f6 4dbd 410e 74bd ad7f 7cbe 78f8 07be
000002c0: c6ba 8bbe 7b27 033e 9fda 333e ca24 023e
000002d0: c6ce 143d 6a1e e0bd f9e3 143d d299 a2bc
000002e0: 970a 0b3d 4618 19bd 86fc fbbd 01f0 94bd
000002f0: 6ae0 1cbe 3158 72bd d0eb 37be 1d5c b83d
00000300: 4c77 913d 0b39 d03d f6fd 463e 28e5 df3c
00000310: d7bd cb3d c1ab b13d c2f2 a93c d800 7c3d
00000320: 9767 c13d 7ead 1dbe f40c c2bc b38d 38bd
00000330: 6320 773d 34ef 5b3c f2ef e93d 26d4 3bbe
00000340: 8836 723d e4f4 753d 3981 1f3d 0098 1abb
00000350: 47f2 ce3d 3dca 36be 7d40 7ebd cc52 6bbd
00000360: 6786 873e a338 ed3d b22a 243e 33db 653b
00000370: e529 e2bc d964 5b3e 4f5f aabb 222f ce3d
00000380: 92aa 083e fd7c 0cbe 0446 b7bd 20e5 6d3c
00000390: b530 5a3d 5ff5 803d 9588 04bd 4f9d 103b
000003a0: f9e0 c33c d9ea 4ebd 1756 7fbd bfbd fbbc
000003b0: 9088 493b 90d6 5bbe 0d4e 0bbe c3fb 8abc
000003c0: 6fdf 67bd a7b2 05b8 fbbb 3abd bdba 6ebd
000003d0: df2b 7e3d 8206 223e 5a23 593e 1b35 b43d
000003e0: f284 923c 62d2 a53e 1bcf e93d 708c 4fbc
000003f0: 7213 c0bc c912 29bd 9ec4 893e 25a5 b8bd
-0.07057792 0.13953662 0.19791466 -0.023887904 -0.021260388 -0.030889405 -0.13289392 -0.011751225
-0.20372313 -0.12244416 -0.023255702 0.10149319 -0.10856363 -0.054315303 -0.06353558 -0.13399062
0.0720718 0.04229293 -0.019495584 -0.14232989 -0.112877175 0.16765709 0.08727113 0.15937571
0.13157858 0.18366334 -0.019963518 -0.106151715 -0.07044337 0.021910656 -0.1424176 -0.2079375
-0.040014703 -0.08226846 -0.09149774 -0.10749404 -0.06913031 -0.1279861 -0.02173961 -0.07535806
-0.15754637 -0.0077969376 0.061090536 -0.022896409 0.1907485 0.07232624 0.039949164 -0.17727655
0.11185152 0.021308443 -0.006604752 -0.09345502 -0.050179258 0.086610936 -0.1406923 -0.1140673
-0.099565774 0.26326233 0.061224192 -0.0638429 0.17972201 0.0015349517 0.06122333 -0.13400479
0.11000121 0.06085516 0.08283356 -0.06667634 -0.0077647585 0.06513753 0.14176667 0.04034702
0.18339376 0.17525218 0.19215728 0.03527386 -0.035818208 0.020843513 0.06436455 -0.088338695
0.0303877 -0.11090056 -0.110417195 -0.109116964 0.1400268 -0.056473512 -0.11110942 0.35655016
0.093017615 -0.027779112 -0.061226904 0.0831848 0.04092923 -0.08843896 0.097480156 0.080138676
0.12789491 0.11954183 0.15175906 0.010392581 -0.04879087 0.11822474 0.1982278 0.10409308
0.0804293 0.028109323 0.028887345 -0.105082154 0.1023207 0.073312484 0.016322456 -0.0025736445
-0.11878511 -0.04129921 -0.17030895 -0.07446086 -0.25919086 -0.2952396 -0.024176821 0.08003212
-0.10489873 -0.09944211 -0.062190752 -0.06836813 -0.15048847 -0.16521946 0.07831634 -0.034608312
0.043651678 0.1442977 0.070344344 0.23655744 0.09348673 0.071586594 0.1409681 0.05979731
0.02556212 0.15139247 0.24367513 0.041121405 0.09500336 0.0047956808 0.1383014 0.3511163
0.008007109 -0.10641911 -0.0005134224 0.05701829 0.060256485 0.023196876 -0.06041462 -0.03889031
-0.106302954 -0.002972434 0.0055212183 -0.12585023 0.14997135 -0.1952571 -0.29300547 0.27561203
-0.00782308 0.07021611 0.10682878 -0.031819064 -0.04469604 0.10056959 0.018150058 -0.06684665
0.069288485 0.035733305 -0.081783906 -0.12831216 -0.05028344 -0.059583906 -0.2465808 -0.13278377
-0.27290934 0.1280803 0.17563866 0.12709346 0.036330007 -0.10943301 0.036350224 -0.019848738
0.033945646 -0.037376665 -0.123040244 -0.072723396 -0.15319982 -0.059166137 -0.17961049 0.09001944
0.07102832 0.1016713 0.19432816 0.02733095 0.099483185 0.086753376 0.020745639 0.061524242
0.09443586 -0.15398213 -0.023687817 -0.04505701 0.06033362 0.01342373 0.11422719 -0.18342647
0.059134036 0.060048 0.038941596 -0.0023589134 0.101048045 -0.17850585 -0.06207322 -0.057452008
0.26469728 0.11583068 0.16031912 0.003507328 -0.027607867 0.21425189 -0.00519935 0.100675836
0.13346317 -0.13719554 -0.08948901 0.01451996 0.053269107 0.06296801 -0.032356817 0.002206642
0.023910986 -0.050516937 -0.06233796 -0.030730126 0.0030751564 -0.21468568 -0.13603993 -0.016965752
-0.056609567 -3.1876054e-05 -0.04558943 -0.058283556 0.062053557 0.15822795 0.21204892 0.087991916
0.017885659 0.32387072 0.11416455 -0.01266776 -0.023446772 -0.04127768 0.2690782 -0.09015874

layer3.0.bias f4 [64]
00000000: 8324 8cbd f96e 2fbd 6e11 a6bc a90f 233d
00000010: 0cea 9ebb ac6c e73c 5487 783d ef3a 2ebd
00000020: b2e2 733d 1c42 393c 3af8 a43c 1ab9 383d
00000030: 2ef6 b13c e5ba 973c 7ce9 67bd f1aa bf3c
00000040: 03a2 f5bb 84c7 a33d 958c 7abd 8018 97bc
00000050: 7bdc 88bd 74d3 8bbd f6ed d53c 49dd 723d
00000060: 64b7 b83d 3aa6 913c a58b 54bd 6c25 c73c
00000070: 1dbb a53c 01b0 0fbd 9f9b 163e d42d bd3c
00000080: 3688 ddbc 2bff 713d 5758 a9bc 4f6e 323d
00000090: 1b26 093d 7816 edbb a837 64bc 803a 99bb
000000a0: 6d04 7fbd 327e 65bc fe4e 263d 3d46 2e3d
000000b0: 1026 8fbd 65ac f53c 9062 32bd ff57 06bd
000000c0: 7d9b 6cbd 6ee4 3d3b c0f0 793c a5b9 c83b
000000d0: 4664 563a 3ff0 1b3c 8a0a b43d e0be 82bd
000000e0: fb75 963d f380 b43c bdef c9bb e879 7d3d
000000f0: 7016 5cbc 0a58 f0bc c84e 833d 50d9 3b3c
-0.068429016 -0.04283044 -0.020271983 0.039809857 -0.004849678 0.028250061 0.060675934 -0.042536672
0.059542365 0.011307266 0.020137895 0.0450984 0.021723833 0.018521735 -0.056619152 0.02339694
-0.00749612 0.07997039 -0.061169226 -0.0184443 -0.06682678 -0.06827441 0.026114445 0.059293065
0.09019354 0.017779458 -0.051890988 0.024309836 0.020230824 -0.03507996 0.14707802 0.023093142
-0.02704249 0.059081238 -0.020672007 0.04356223 0.033483606 -0.0072353445 -0.013929285 -0.004676163
-0.06226008 -0.014007138 0.040602677 0.042547453 -0.06989682 0.02998943 -0.043551028 -0.032798763
-0.057765473 0.0028975266 0.015255153 0.006125646 0.0008178394 0.009517728 0.08791073 -0.06384063
0.07346722 0.022034144 -0.0061626122 0.061883837 -0.013433084 -0.029338855 0.06411511 0.011465386

layer3.1.weight f4 [64]
00000000: 96f6 f03f aac0 c53f 2adb 0040 9a6b d23f
00000010: 6862 f23f 674c ef3f 2c36 fe3f f01d 1040
00000020: bf79 c03f 46b0 df3f db1b e03f f130 fc3f
00000030: 6c7d 0e40 80a5 e43f a01f fc3f 9b6e df3f
00000040: 057f ff3f 0d1d 1540 5684 1e40 d4a7 d63f
00000050: 82b2 1340 03ac d83f 4852 ec3f 0a09 f63f
00000060: a239 c33f b06d 0840 bc7c e23f c2dd 0c40
00000070: 84f0 1040 3fb5 0c40 9655 f93f f446 da3f
00000080: f463 db3f 584a 0540 f25d 0040 1718 0040
00000090: 8a69 d23f ddef ed3f dfab ee3f 01b4 0f40
000000a0: 5d5f 0a40 0239 0040 d91b e53f 0ca9 ee3f
000000b0: 6b27 c73f 1435 0040 40d9 c03f f584 cf3f
000000c0: 2afa 1040 1565 f03f 9c83 1940 b797 1040
000000d0: db89 ed3f 2fbe fe3f 7207 c73f 36b3 c73f
000000e0: 055a c83f a498 ce3f bd4b 0040 bb47 c93f
000000f0: 99e6 cc3f 51c0 e33f e392 0340 08a6 ed3f
1.8825252 1.5449421 2.0133767 1.6439087 1.8936281 1.8695191 1.9860282 2.2518272
1.5037154 1.7475669 1.7508501 1.9702436 2.2264051 1.7863007 1.9697151 1.7455629
1.9960638 2.329898 2.4768271 1.6769967 2.3077703 1.6927494 1.846261 1.9221509
1.5251963 2.1316948 1.7694316 2.201035 2.26468 2.1985624 1.9479244 1.7052903
1.7139878 2.0826626 2.005734 2.0014703 1.6438458 1.8588825 1.8646201 2.2453616
2.1620705 2.0034795 1.7899123 1.8645339 1.5558904 2.0032396 1.50663 1.621245
2.2652688 1.8780848 2.3986578 2.25926 1.8557695 1.990179 1.5549147 1.5601566
1.5652472 1.6140332 2.0046227 1.5725015 1.6007873 1.7793065 2.0558403 1.8566294

layer3.1.bias f4 [64]
00000000: b9ca 803e aba2 bdbb b222 723d 81f3 bebd
00000010: 0bfa 38be 9932 393e 52a5 7c3d 7878 d03d
00000020: 5049 b5bd 307b 3a3e eb5a 75bd 67ab cabd
00000030: 931b cfbd 1361 b3bd e903 1c3d 788e 0e3e
00000040: d941 533d 6ecd 5c3e 2fef ff3e f208 80bd
00000050: ece9 e13d 146d 473e b94e 2bbc 6d85 32bd
00000060: a67e 83bc 38cf e73d dea0 033e 7ebd 8fbb
00000070: 919a 233d 5a69 043c bad7 223e 16bd 1cbe
00000080: 2710 5e3d ec7c ec3a d2d1 0e3e 8162 863d
00000090: eef5 b4bd 077e d3bc f8f1 893d b376 cb3d
000000a0: 80f5 493e 8744 f63d dee8 313e a4dd a8bc
000000b0: 6053 7f3d 4fe9 59bd b76f 7abe bf58 c23d
000000c0: eb37 97bd 87f9 6d3e b9e3 6f3e 4a33 273d
000000d0: 039b 1c3d 7966 a1bd 0041 89bd 500f 7e3d
000000e0: d42c 63be 776c 1ebd 5cc9 8fbc 6ead c3bd
000000f0: 4463 f33b a08e 603e 3c10 a33d 3a85 88bd
0.25154665 -0.005787214 0.05911512 -0.093237884 -0.18064134 0.18085708 0.0616811 0.101792276
-0.08851874 0.18211055 -0.05990116 -0.09895974 -0.10112681 -0.0875875 0.038089667 0.13921535
0.05157647 0.2156274 0.4998717 -0.06251706 0.11030945 0.19475204 -0.010455781 -0.043584276
-0.016051602 0.11318821 0.12854335 -0.004386603 0.039942328 0.008081758 0.15902606 -0.15306506
0.054214623 0.0018042601 0.13947228 0.06561757 -0.0883597 -0.02581693 0.06735605 0.099347495
0.19722557 0.12024789 0.17373988 -0.020613499 0.062335372 -0.053201016 -0.24456678 0.09489583
-0.073837124 0.23239718 0.23426713 0.040820397 0.03823377 -0.07880873 -0.06701851 0.062026322
-0.2218507 -0.03867766 -0.01755207 -0.095545635 0.007427605 0.21929407 0.07962081 -0.06666036

layer3.1.running_mean f4 [64]
00000000: 5186 453f f69d 91bf 279d 7cbd 0196 323f
00000010: 65a5 183f 2e77 89bf c8ed 30bf 6730 7c3d
00000020: 17ac 0c3f f2e2 b4bf 2de7 a53f ee3c 0dbf
00000030: e03d 143c 1e89 eb3f 7830 723f 5729 3b3f
00000040: cde4 8b3e fd21 ac3f 4605 6dc0 4b4c 3ebf
00000050: f34d 0ebf aa35 4dbf d350 0a40 ae15 b63f
00000060: bae3 923f 4454 e03e 0c2a f53e f1a7 2fbe
00000070: 6a14 bf3d 87ad b9be 12e0 8340 8e6f 2b3f
00000080: a0cb f63d 918f ae3f d35f 033f f238 2940
00000090: 2037 e33f acca 81bf efd4 e6bf bc1a 4a3f
000000a0: 5c54 c13d cb07 31bf 5952 2c3f 38d9 573f
000000b0: a0c9 54c0 de78 d7be 12c2 5440 9c55 0740
000000c0: 5ac4 8a3e 328a abbf 7c0b bcbe 7bc7 9d3f
000000d0: 0ca6 cb3f 4bf7 e43f 2664 493f b149 6ac0
000000e0: 1bee 303f ffc8 53bf 2e82 22be 7f9a 3840
000000f0: befc ce3f 7c07 103f a44e 133f 1417 1f3f
0.77158076 -1.1376331 -0.06167331 0.6976014 0.5962737 -1.0739496 -0.69112825 0.061569598
0.5495009 -1.4131758 1.2961174 -0.55171096 0.009047955 1.840122 0.9460521 0.73109955
0.27323 1.3447872 -3.7034469 -0.74335164 -0.5558769 -0.8016001 2.161183 1.4225366
1.1475747 0.4381429 0.47883642 -0.17153908 0.093300655 -0.36265203 4.1211023 0.66967094
0.12050557 1.3637563 0.5131809 2.6441007 1.7751198 -1.0139976 -1.8033732 0.78947043
0.094399184 -0.69152516 0.6731315 0.84315825 -3.3248062 -0.42084402 3.324345 2.1146002
0.2710293 -1.3401549 -0.36727512 1.2326502 1.5910048 1.7887968 0.7866844 -3.6607478
0.6911332 -0.8272857 -0.15869972 2.8844297 1.6170881 0.5626142 0.5754187 0.6214459

layer3.1.running_var f4 [64]
00000000: ca7a 3240 1e7b 0f40 94ed 0740 8144 5640
00000010: 6bc3 1640 4013 a740 54cf db3f 58cc 1040
00000020: 5af8 3140 a4e0 4c40 71d7 3840 d11c 5640
00000030: 4c21 f13f 47a5 2a40 e6d3 d53f e075 fa3f
00000040: 96e3 f53f b59f fb3f bb58 9e40 d81a 1040
00000050: 1a30 ea3f f6f7 4640 08df fa3f 3b9c 0640
00000060: ebea 1540 82a7 d63f b16f 4b40 be3e 5340
00000070: c5cc c03f 102f 3a40 37ca 7140 bcd3 0d40
00000080: 3636 a340 8c7a e13f 3be6 e53f 2932 d83f
00000090: 4a99 3840 e949 f53f 8431 8140 d049 4c40
000000a0: 80af 0f40 f445 4940 d228 0940 d13d f23f
000000b0: dde6 7f40 3de7 b83f 0d04 3840 9290 1a40
000000c0: 3b58 1440 a7d3 5040 627b 1440 2d49 eb3f
000000d0: 659e e83f 4dac 0940 deca 0d40 945b 2341
000000e0: 0121 1b40 3177 7140 df28 2e40 efd4 6140
000000f0: b808 8240 abcb 3440 5b5d 1340 e76c da3f
2.7887444 2.2418895 2.1238756 3.3479311 2.3556774 5.2211 1.7172647 2.2624722
2.7807832 3.201211 2.8881495 3.3455088 1.8838286 2.6663377 1.6705291 1.9567223
1.9210079 1.9658114 4.9483314 2.2516384 1.829593 3.1088843 1.9599314 2.1032856
2.3424633 1.6769869 3.178692 3.3007045 1.5062491 2.9091225 3.7779672 2.2160482
5.1003675 1.7615523 1.7960886 1.6890308 2.884356 1.916318 4.0372944 3.1920052
2.2450867 3.1448946 2.1431165 1.8925115 3.9984658 1.4445568 2.8752472 2.4150739
2.3178852 3.2629182 2.3200307 1.8381706 1.8173338 2.1511414 2.215507 10.209858
2.4238894 3.7728999 2.7212446 3.5286214 4.0635643 2.824931 2.302573 1.7064484

fc1.weight f4 [10, 576]
00000000: ad4a 2dbe 6590 4d3e ba17 863d c02e 163e
00000010: 9c91 903e 880a 343e ce61 27be ed1b 87bd
00000020: 87bc d1bd 0d18 e4bd 873a b73d 850d 883e
00000030: 2035 4dbe 6b3d 22be e3a1 d6bd 5160 0f3a
00000040: cd8a 753e 4139 5d3e 75f8 cbbc 2a0f 813e
00000050: 67a2 1d3e 7dcd 9c3b 4856 cb3c 3d21 343e
00000060: 1cef 88bc ecab 7b3d 04c4 21bd f573 55bd
00000070: 228b 673e fc03 013d 4db7 653e 354d 243f
00000080: f8d4 923e 8959 16bd 0fdf ee3e e7b4 193e
00000090: 30eb f43e 6b7d 1c3e 2031 c03e da0b 5d3e
000000a0: 24c6 48be ceb1 ab3e 8c6b 743e 3671 17be
000000b0: e5da bdbd aad4 09bd ca26 3bbe 7296 60be
000000c0: aef3 95bc 8d67 01bf 6b88 95be 8bc3 4c3d
000000d0: 938a c1be 3478 dabc 1189 d1be 4cd1 12bf
000000e0: c4ab 3dbe dbd7 68bd 8cc0 693e 6d3f 1a3d
000000f0: d2ee f23d 7937 e73e e98d 963e d2ff efbc
00000100: ecff 9e3d fbd1 373e 1132 73be b117 35be
00000110: a1e5 09be e315 aabc af54 543e 3685 9fbc
00000120: 5596 013f 2a6c 013c 2bdb 003e 70cb 0cbe
00000130: 986f 803c 2707 513e 9041 1dbd 26d5 c5bc
00000140: 479d 483e 3c67 b6be dd76 0fbf 85e8 f9bd
00000150: 610b 6cbe 6f28 5fba 1452 d8bd 1f98 023e
00000160: e206 883e 214e 8a3e 535c 933e 412c ba3e
00000170: 1b7e 593e 129f 1c3e 8f07 3b3e 8b9c 063d
00000180: ddbf a83e db2b 0c3e ada9 053e 6e91 59be
00000190: 73c6 85bc 0d10 dd3c 3ca3 7c3d e60d e13e
000001a0: fcf2 f13c f162 b43d faf1 213e c336 473d
000001b0: 9ecf 843d 3497 afbd 7f4a b7bb c992 81be
000001c0: c1a3 abbe e710 46bd 8cf9 a83d 1bcf fb3d
000001d0: 8da4 463e b373 c6be 1bc0 c23e ff23 a4be
000001e0: bc2e 423d d61e febd f589 01be 1746 533e
000001f0: b2e7 38bd cab5 263e 963d 2b3e bbf4 573d
00000200: 27fc 01be 2928 113e a2f7 593e 1232 5c3e
00000210: dcc4 fcbc 064d d13e 65b4 ab3e 355d 813d
00000220: fa72 6d3e 10cf 37be cf90 973c e7d4 493d
00000230: 6de1 573e 7738 043e 77bc 653e 2c4a 873e
00000240: 2525 0a3e 8903 353e 6ec1 46be 832b 313e
00000250: e491 603e e63e 903e 8f3a 1b3e 9d5b ae3e
00000260: a8bb 80bd e1a8 763e a160 153f 338c 30bd
00000270: ba4d 3e3d 6e4b de3d 3158 15be b052 44be
00000280: 59e2 b73d 0d15 a63e a86c 26be 61a3 bebe
00000290: f6af f9bb 9c72 0d3e 0f96 033d 7fe9 123d
000002a0: 8f03 2b3e 75e3 9e3d 7d29 a03c 1231 d73d
000002b0: bb61 94be 2a3a 6fbe dcaf 8bbd 7a82 06bf
000002c0: 469e d5be 3a92 12be 14e5 00be 9e2a a0bd
000002d0: 9595 a63e 3325 b43d 90f5 7e3e 259f 783d
000002e0: 9253 e6bd 7d08 e33d 4169 7c3e 78df 8ebe
000002f0: 89dd 15be 57bb 9bbd ff53 c8be c0cc a5bd
00000300: 85e1 1ebd b926 c7be 7a19 46be 6b90 8a3d
00000310: 20e9 7cbc dc0e 7f3e 8343 b33d 66e1 1c3e
00000320: e081 fdbd 1467 3abc 5426 77be 85b6 08be
00000330: 3203 3b3d 4534 df3c 5893 6c3e 61f1 df3e
00000340: 5eb5 c03e 86f1 bd3e 2cd0 793e af93 083e
00000350: dbcd be3e 4d36 3bbe cc1c 21be 1e6e 303d
00000360: 9519 413e 22cc 7a3e 6530 5a3e a7aa bf3d
00000370: 2610 503e 2351 1c3f ef38 733d 36ee 8d3e
00000380: 7c42 593e 0079 30be 0aff 34be ae71 babd
00000390: 5a61 8bbd 7007 d63d 19cf b93e 2da3 1c3e
000003a0: b8d5 a53e ae93 763e 5425 f13c c8b0 863e
000003b0: bd47 17be 9637 aa3d 4d1b 2ebe 5005 44bd
000003c0: 2a20 53bd 281e c9be c690 37be 9726 13be
000003d0: 11d3 fe3d d984 1e3d 6863 603d 05ea a0be
000003e0: f1b1 9c3e 627f d83c 20f4 92be 9f5a 9cbc
000003f0: c4f0 ff3d 6270 fd3e b0b6 063e 5ec1 93bc
-0.16923018 0.20074613 0.06547494 0.14666271 0.2823609 0.17582142 -0.16345903 -0.06597123
-0.10241037 -0.111374 0.0894671 0.26572815 -0.20039797 -0.15843742 -0.10480096 0.00054693694
0.2397873 0.21603872 -0.024898747 0.25206882 0.15393983 0.0047852383 0.024821416 0.17590804
-0.016715579 0.061443254 -0.039493576 -0.05211254 0.22611669 0.03149794 0.22433205 0.6418031
0.28678107 -0.03670648 0.46654555 0.15010415 0.47835684 0.15282218 0.3753748 0.21586552
-0.19606835 0.33534092 0.23869151 -0.1478928 -0.092702664 -0.033650078 -0.18276516 -0.2193239
-0.018304672 -0.5054863 -0.2920564 0.04999117 -0.37801036 -0.026668645 -0.40924886 -0.5735061
-0.18522555 -0.05684648 0.22827357 0.037658144 0.118619576 0.4515951 0.29405144 -0.02929679
0.07763657 0.17951195 -0.23749568 -0.17684819 -0.13466503 -0.02076239 0.20735429 -0.0194727
0.50620013 0.0078993235 0.12583606 -0.1374948 0.015678212 0.20412885 -0.038392603 -0.024149489
0.19591247 -0.35625637 -0.56040746 -0.12202553 -0.23051216 -0.00085128 -0.1056253 0.12753342
0.2656775 0.27012733 0.28781375 0.36361888 0.21239512 0.15295056 0.18264602 0.032864135
0.3295888 0.13688605 0.13053007 -0.21246883 -0.01632998 0.026985193 0.06167911 0.43955916
0.02953481 0.08807934 0.15814963 0.04863621 0.06484912 -0.085737616 -0.0055935974 -0.253073
-0.33523372 -0.048355963 0.08250722 0.122953616 0.19398709 -0.38760146 0.3803719 -0.32058713
0.04740785 -0.12408225 -0.12650283 0.20632206 -0.045142837 0.16280285 0.16722712 0.052723628
-0.12693845 0.14175476 0.2128587 0.21503475 -0.030855589 0.40879077 0.33536068 0.06316606
0.23188391 -0.17950082 0.018501667 0.049275305 0.21082087 0.12912165 0.22435175 0.26423776
0.13490732 0.1767713 -0.19409725 0.17301755 0.21930653 0.28172988 0.15159057 0.3405427
-0.062857926 0.2408786 0.5835057 -0.043102454 0.046460845 0.10854231 -0.14584424 -0.19172168
0.08978719 0.32437935 -0.16252387 -0.37234023 -0.007619853 0.13813251 0.03212553 0.03586721
0.16700576 0.07758228 0.019551033 0.10507406 -0.28980812 -0.23362032 -0.06820652 -0.5254284
-0.41722316 -0.14313594 -0.12587386 -0.078206286 0.32535997 0.08796158 0.24898362 0.060698647
-0.112464085 0.110856034 0.24649526 -0.27904868 -0.1463529 -0.076040916 -0.39126584 -0.080956936
-0.03878929 -0.3889673 -0.19345656 0.06765827 -0.015436441 0.24908012 0.08753111 0.15320358
-0.12378287 -0.011377115 -0.24135715 -0.13350876 0.045657344 0.027246604 0.23103082 0.43738845
0.37638372 0.3709833 0.24395818 0.13337587 0.3726643 -0.18282433 -0.15733641 0.043073766
0.18857415 0.24491933 0.21307524 0.09358721 0.2031866 0.61061305 0.059380468 0.27720803
0.21216768 -0.17233658 -0.17675415 -0.09103714 -0.06805678 0.10450637 0.36290815 0.15296622
0.32389617 0.24079773 0.029436745 0.26306748 -0.1477346 0.083113834 -0.17002602 -0.04785663
-0.051544346 -0.3928082 -0.1792632 -0.1437019 0.124426015 0.038700912 0.0547823 -0.31428543
0.3060451 0.026427928 -0.28701878 -0.01908618 0.12497094 0.49499804 0.13155627 -0.01803654

fc1.bias f4 [10]
00000000: 49ad 96bd 43db 06bd 86cf bbbc a960 203c
00000010: e41b 413e 6e93 16bd a6bd fb3b c2dc dbbd
00000020: ae00 fd3c f24c cbbc
-0.0735727 -0.032923948 -0.022926103 0.009788671 0.18858296 -0.036761694 0.00768252 -0.107354656
0.030884113 -0.024816964

fc2.weight f4 [51, 10]
00000000: d343 c5bd 9efe 3e3e 36fd 023e a4fb 39bf
00000010: d11b cfbf 6d9f e3bd 52d7 a4be 5bcd 3d3d
00000020: 05db 053f fefc 193e 1457 563e 2342 7c3d
00000030: e192 84be 126e debe 70da eabe 7bfa 78be
00000040: 92d5 49be db31 ae3e 8e99 22be 8f8e 893e
00000050: a268 83bf 4e64 3b3e fcc8 25be fd39 3f3e
00000060: 6edf e63e db1f 3e3e 4440 71bd 1056 c7be
00000070: 57ef d8be 05f7 65be bae1 fcbe 3c27 053e
00000080: 4166 88be b51e b93e a7c7 413c 6273 403e
00000090: b806 c83d aaa2 b6bd 89fd 11bf 1091 10be
000000a0: acea ffbd 0b0d 9abc 9602 73be a6e8 b73e
000000b0: ae53 1e3d ae3f 75bd 12f7 03be 0fc7 88bf
000000c0: f788 89be 9963 11be 7953 51be 9b2a 0c3e
000000d0: 8334 803e 07e9 303e 2118 40bf 890b 81be
000000e0: 0afc 90be 5d13 7cbf a823 cc3e c6e6 233e
000000f0: 6b49 de3e 2e76 08be 91d3 01be ae61 c8be
00000100: 89c5 3ebe 71b3 1fbe 55ad b53d 40a6 99be
00000110: 51dd 79bd 23d7 f5bd 0718 32bd 0a62 fdbd
00000120: 4b86 4b3e ef69 96bf 5119 e3be 715a e9bd
00000130: c941 913e c188 4f3e 985b af3e 5173 a0bd
00000140: 4c28 3dbd 3bbb 9d3d 5ca8 873e b3e8 063e
00000150: 8713 85bd 41bf 193e cf5c 07be 3e11 a8bf
00000160: fdc6 3f3e d71b f2bd db5c b43d 8962 f93d
00000170: e465 16be 53d1 66bf 889d c43e 4bc6 2bbe
00000180: bb24 10be 3e0f cebe 7b97 82bd e0ca 93bc
00000190: 4d4d 443e c258 26bd dba4 a3be 6648 543c
000001a0: ac69 933c c6b5 5c3e 5e1f 4bbe 0230 64bb
000001b0: 13be 71bf 78ba d83d 8491 e3be 039d 423e
000001c0: 2193 833c 7035 423e 69d1 9abd 9f84 ddbd
000001d0: 0ff4 963e eba9 b5be ff27 1a3e ba3d 6b3e
000001e0: f9c1 e0bd b824 af3d ba55 3f3e be65 0cbf
000001f0: e109 f63d dae9 4d3d 8c0d 12be 91e1 56bf
00000200: b7df c53e c8f9 c8bd 42df 66be 2bee c23d
00000210: b636 07be bfc6 58bf 6f66 e33e 07f0 11bc
00000220: 8fc9 f4bd 5f92 4a3d 5c6a 97be 756c 5d3e
00000230: 29ec 5c3e 2c65 30bd 54e6 0a3e f68c d3be
00000240: fb54 a7be 7734 a2bd 54e7 6e3e 5398 26bf
00000250: b9ba c33e ec36 f3bc ae70 2e3e cbcc 99be
00000260: 67da 2c3e 1dda aa3d 006b 95be 89a2 5bbe
00000270: e840 8bbe da6b a2be c6ce 34bc 23f2 773e
00000280: d3ca 63be ca6f e9bd d713 91be 35e6 b13e
00000290: 6d61 14bf 74d1 88be 9d42 3e3b f2e6 c5bd
000002a0: 8959 27bd ee02 91be 3116 d8bd a8ca fbba
000002b0: 64f8 f3bd 98c3 20be c095 23be e855 043d
000002c0: a7bb 8c3d 2e75 adbd bdfa 543e cfca 61bc
000002d0: 60f5 713d 14b8 62bb 5943 2ebe df10 1ebf
000002e0: 4188 d0bd 51fe 85be 1e77 9b3d 9875 bc3d
000002f0: 24c6 da3d 72ea 9dbe ada3 59be bd06 e9bd
00000300: fb67 93be c8a8 b9be 6fb5 47bf 3bc4 77bd
00000310: a4c2 86bd 195b 1f3f be3f 0bbe 471b 99be
00000320: ad58 86be 65cc 2a3e d2a5 643e 5bc5 c5be
00000330: 65b9 cb3b afa0 533e 1dfe 82be eceb a13e
00000340: 501a 98bd 989e 903e 00f6 b6bf 799c 9bbe
00000350: fd16 d4bd d82a bfbe 7b35 033d 6f1e af3d
00000360: ab51 09be a28e 893e 55ae 2f3e b526 683e
00000370: b10e ba3e 0b4c d9bd 1d13 893e 02b5 793e
00000380: 68e1 5abf bf0c 5dbe a470 00be c996 09be
00000390: 539b 4ebf 9560 6bbd 2722 86bf 8d54 63be
000003a0: 3d96 7ebe 6bbe 7a3e f328 8dbe 561c 113c
000003b0: 4a84 9abe aacb 0ebf 5242 b53e d019 fc3d
000003c0: aaf9 8c3e 483f 89be a7f1 5dbd 05fa 8abb
000003d0: 61da b4be eed7 403e c53b 113e eb59 603d
000003e0: f17a c3be 0987 843e 5cd7 2e3e 8101 2f3d
000003f0: 8e48 f23d 24f8 6ebd c5b0 8e3e fd3d 70bd
-0.09632077 0.18651816 0.12791905 -0.726496 -1.6180364 -0.111143924 -0.32195526 0.04633842
0.5228732 0.15037915 0.20931655 0.06158651 -0.2589331 -0.43443352 -0.4586978 -0.243143
-0.19710377 0.34022412 -0.15878889 0.26866576 -1.0266306 0.18299982 -0.1618995 0.18674465
0.45092338 0.1856684 -0.05889918 -0.38932848 -0.42370102 -0.22457512 -0.49390966 0.13003248
-0.26640514 0.3615624 0.011827386 0.18794015 0.097669065 -0.089177445 -0.5702749 -0.14117837
-0.12495932 -0.018805047 -0.23731455 0.35919684 0.038654022 -0.059875183 -0.12887219 -1.0685748
-0.26862308 -0.1419815 -0.20441999 0.13688128 0.25040063 0.17276393 -0.7503682 -0.25204113
-0.2831729 -0.98467046 0.39870954 0.16006002 0.43415388 -0.13326332 -0.12678362 -0.39137024
-0.18630041 -0.15595795 0.08870951 -0.3000965 -0.06100208 -0.12003925 -0.043479946 -0.12372215
0.19875447 -1.1751078 -0.44355252 -0.113942035 0.28370503 0.20267011 0.34249568 -0.07834495
-0.04618101 0.07701727 0.26495636 0.13174705 -0.06497865 0.15014364 -0.13218997 -1.3130262
0.18728252 -0.11821716 0.08806773 0.12176997 -0.14687306 -0.90163153 0.38401437 -0.16774862
-0.14076512 -0.40246004 -0.06376549 -0.018041074 0.19170113 -0.04061199 -0.31961712 0.012956714
0.017994724 0.21553716 -0.19836184 -0.0034818654 -0.94430655 0.10582441 -0.44446957 0.19005208
0.016061367 0.18965697 -0.07559473 -0.10816311 0.29483077 -0.354812 0.1505432 0.22972766
-0.10974497 0.085519254 0.18685046 -0.54842746 0.12013603 0.050271846 -0.1426298 -0.8393794
0.38647243 -0.09813267 -0.22546104 0.09518083 -0.13204464 -0.8467826 0.44414088 -0.008907325
-0.11952507 0.049455997 -0.29573333 0.21623404 0.21574463 -0.043065235 0.13564426 -0.41318482
-0.32682022 -0.07920163 0.23330432 -0.6507618 0.38228396 -0.029689275 0.17035171 -0.30039057
0.16880189 0.08342383 -0.29183197 -0.21448721 -0.27197957 -0.3172291 -0.011035627 0.24213462
-0.2224534 -0.11398275 -0.2833545 0.34745947 -0.5796116 -0.267223 0.0029031404 -0.0966319
-0.04085687 -0.28322548 -0.10551108 -0.0019210177 -0.11912611 -0.15699613 -0.15975094 0.03230849
0.06871729 -0.08469616 0.20798774 -0.0137812635 0.0590719 -0.0034594582 -0.17017879 -0.61744493
-0.10182238 -0.2617059 0.07591079 0.09202117 0.106823236 -0.3084293 -0.21253844 -0.11378238
-0.28790268 -0.36261582 -0.7801122 -0.060489874 -0.065800935 0.6224838 -0.13598534 -0.29903623
-0.2623953 0.16679533 0.2232888 -0.38627133 0.006217169 0.20666765 -0.25584498 0.31625307
-0.07426894 0.28245997 -1.4293823 -0.30392817 -0.10355947 -0.37337375 0.032033425 0.085507266
-0.1341006 0.26866633 0.17156346 0.22671016 0.36339334 -0.10610207 0.26772395 0.24385455
-0.8550019 -0.21586893 -0.12542969 -0.13436426 -0.80705756 -0.057465155 -1.0479172 -0.22200222
-0.24861999 0.24486701 -0.27570304 0.0088568535 -0.30179054 -0.55779517 0.3540216 0.12309611
0.2753423 -0.26806092 -0.054185536 -0.0042412304 -0.3532286 0.1883237 0.14182957 0.054773252
-0.38179734 0.25884274 0.1707434 0.042726044 0.11830245 -0.058342114 0.2786924 -0.058652867

fc2.bias f4 [51]
00000000: 4701 90be 2764 cebe 0957 2a3e 12ce 5e3e
00000010: 05be bfbd 2c9a 23be 96aa da3e 656e ee3e
00000020: 1d6c 943e e077 10be 9833 2fbe 3cea 19bd
00000030: e9d6 e43d 101b 103e 45ec 0f3e 068a aebe
00000040: 783f 31bf 856b 88bf af11 1abf 084b 8ebd
00000050: 5d45 6cbe 007b 52be 11dc 4a3f 30be b53d
00000060: 60be b8be f600 7a3f 91bb 0b3f a135 8abe
00000070: 748d 98be 585c 973e aca5 52bf f7d9 74be
00000080: 6d29 a7be c083 733e f352 0bbd 1ed9 353b
00000090: e936 243f 9d25 063f 4d08 443e 6fec e2be
000000a0: 9a1b 213e bd8d 96be 58c6 a5be ba1c 23be
000000b0: 39f7 d43c ee90 86bd 79ac 55bd c7b2 ba3e
000000c0: 6cfb c0be 3fec 8abe a8cb 603d
-0.28125975 -0.40310785 0.16634764 0.21758297 -0.09362415 -0.1597678 0.42708272 0.465686
0.28988734 -0.14108229 -0.17109525 -0.0375769 0.11173803 0.14072824 0.14054973 -0.3408968
-0.6923747 -1.0657812 -0.60183233 -0.06947905 -0.23073335 -0.20554733 0.79242045 0.08874166
-0.36082745 0.97657716 0.5458308 -0.2699404 -0.2979542 0.2956264 -0.82284045 -0.23911272
-0.32648793 0.23780727 -0.034014653 0.002774782 0.64146286 0.52401143 0.19143791 -0.4432101
0.15733185 -0.29405013 -0.32377887 -0.15928927 0.025996791 -0.06570612 -0.052166436 0.3646452
-0.3769182 -0.27133366 0.05488172
