models/checkpoint copy.pkl (torch, 485282 bytes, 54 tensors)

layer1.0.weight f4 [16, 3, 3, 3]
-0.016780075 0.18702886 -0.12505916 0.007813104 -0.086845145 0.18945055 -0.025764411 -0.05650929
0.032563187 0.102157235 -0.18505947 0.039799344 -0.10006659 0.071600996 -0.15482047 0.084933035
-0.10136735 -0.17635368 -0.108459756 0.07455272 0.048353173 0.1915117 0.02525147 -0.14527935
0.027153881 0.019529227 0.1331415 -0.074390836 0.12295595 0.09704812 0.06082595 -0.061548315
-0.127773 -0.028542446 -0.048820965 0.048555963 -0.16923249 -0.09587317 -0.08157778 0.05438069
-0.0997951 -0.054472234 0.13779026 0.05957673 0.0133989435 -0.17302044 -0.10830187 0.084613174
0.08085653 -0.12620093 0.02192397 0.08700223 -0.034602944 0.13303624 -0.06382382 -0.10854194
0.07036117 0.07731364 0.18483022 0.0056014885 -0.05763378 -0.103599034 0.058881205 0.05304042
0.018341197 0.13685343 0.046071347 -0.023298156 0.13818975 0.059883587 0.16165236 0.10424545
0.030170348 0.12742797 -0.056541987 0.14829957 0.06654932 0.12613833 -0.1913422 -0.0074198944
-0.07021211 0.0022429558 -0.13485584 -0.039370663 -0.060293343 -0.14050752 0.02522913 0.13268884
0.069129966 -0.009724173 0.046585254 -0.11724976 0.15991132 0.12870072 0.15609302 -0.062257066
-0.13308758 -0.13773617 0.11568102 -0.078901395 -0.097114734 0.11878043 0.07270565 0.10660341
-0.003763827 -0.14279397 0.10111904 0.14657472 -0.14552014 -0.061282534 0.13735767 0.08273791
-0.14208889 0.14625864 -0.04202214 0.09287551 -0.10754841 -0.031015692 -0.035174113 -0.18118311
-0.025518848 0.14352345 -0.16489244 -0.027879244 0.09798082 0.01301963 -0.15285026 0.037306715
-0.03219509 -0.020598732 -0.1197993 -0.038287677 -0.1653906 0.08477139 0.1716622 0.034647997
-0.048142336 -0.010568397 0.03800523 0.009887869 -0.028010286 -0.122374564 0.06329316 0.027381664
0.09566453 0.009841543 0.117390595 -0.07062588 0.12480602 0.13033535 -0.17147948 -0.05351254
0.17993282 -0.11308767 -0.046206214 -0.054350697 -0.16763882 -0.0042392644 0.14123829 -0.18320706
-0.048084717 0.19112201 -0.116638616 -0.13953047 0.13964354 0.0056406516 -0.116861664 0.18121204
-0.06483944 0.05838398 -0.025215419 0.056154653 -0.18975227 0.08847539 0.14259875 0.19156761
0.19012412 0.044578407 -0.04889788 -0.050783 -0.09556926 -0.069858335 -0.045833834 0.17667867
-0.12738906 -0.06721094 0.12454137 0.09792153 -0.062322255 0.18210664 0.08324436 -0.14945261
0.111360416 0.19097401 0.008382315 0.21407829 0.009677278 -0.07813471 -0.012872258 0.07273589
-0.10609201 0.034542624 0.013871555 0.013384091 -0.058476135 0.009954048 -0.08872613 -0.14643195
0.028349098 0.11348912 0.081777215 0.03545841 0.022699991 0.056275144 0.033392422 -0.15896492
-0.053132474 0.08199718 -0.05157049 -0.027960204 -0.12538439 0.15823151 -0.14654608 -0.07777157
0.06441871 0.03877943 -0.17977846 0.17375974 0.10614112 -0.10582625 -0.15680256 0.15518807
0.12508908 0.04544454 0.031987343 0.09698679 -0.09296684 -0.002371227 0.024429703 0.1592782
-0.14536466 0.02223662 -0.15765187 0.14216769 -0.03825754 -0.05719335 -0.17612894 -0.17813857
-0.16927007 -0.010046403 -0.089774504 -0.07541029 0.008374266 -0.16939297 -0.023081198 0.120388515
00000000: 5e76 89bc 7e84 3f3e 820f 00be 8902 003c
00000010: dedb b1bd 53ff 413e e30f d3bc 4976 67bd
00000020: fa60 053d d037 d13d 3b80 3dbe a304 233d
00000030: b6ef ccbd 8ba3 923d 4289 1ebe 5ff1 ad3d
00000040: af99 cfbd 0f96 34be 2620 debd 19af 983d
00000050: fa0d 463d a51b 443e 2cdc ce3c 1cc4 14be
00000060: d171 de3c c2fb 9f3c 3f56 083e 395a 98bd
00000070: 54d0 fb3d 2ac1 c63d a224 793d 161a 7cbd
00000080: edd6 02be d9d1 e9bc 7ef8 47bd 9ee2 463d
00000090: 484b 2dbe 2759 c4bd 4012 a7bd 49be 5e3d
000000a0: 6061 ccbd 471e 5fbd e418 0d3e bb06 743d
000000b0: 3e87 5b3c 452c 31be 5fcd ddbd ac49 ad3d
000000c0: 1c98 a53d d13a 01be e699 b33c 3a2e b23d
000000d0: d1bb 0dbd a73a 083e 10b6 82bd 3d4b debd
000000e0: 8419 903d 9d56 9e3d 2244 3d3e b18c b73b
000000f0: 6611 6cbd bb2b d4bd 6b2d 713d e940 593d
00000100: 4740 963c 4e23 0c3e 4fb5 3c3d c6db bebc
00000110: 9d81 0d3e 7e48 753d 3288 253e a37e d53d
00000120: ce27 f73c 7a7c 023e 9298 67bd d8db 173e
00000130: 034b 883d 682a 013e 36ef 43be 9622 f3bb
00000140: 5ecb 8fbd 8efe 123b a617 0abe 2243 21bd
00000150: 27f6 76bd 34e1 0fbe 52ad ce3c 95df 073e
00000160: 0394 8d3d 2352 1fbc 2ed0 3e3d a420 f0bd
00000170: cbbf 233e 1fca 033e d9d6 1f3e 4401 7fbd
00000180: 1c48 08be b60a 0dbe 2cea ec3d 0e97 a1bd
00000190: 17e4 c6bd 2743 f33d b3e6 943d e352 da3d
000001a0: 8aaa 76bb 9538 12be 8017 cf3d af17 163e
000001b0: 3b03 15be 6503 7bbd 7da7 0c3e 7e72 a93d
000001c0: c07f 11be d3c4 153e 681f 2cbd 8435 be3d
000001d0: 5742 dcbd 9f14 febc bb12 10bd 1188 39be
000001e0: e70c d1bc d0f7 123e 90d9 28be 0363 e4bc
000001f0: 2baa c83d 4950 553c c784 1cbe edce 183d
00000200: 00df 03bd acbe a8bc 5659 f5bd 8ad3 1cbd
00000210: 275c 29be 9f9c ad3d 37c8 2f3e 0feb 0d3d
00000220: e630 45bd 1227 2dbc 5fab 1b3d ba00 223c
00000230: d475 e5bc 849f fabd d89f 813d 834f e03c
00000240: c4eb c33d 6c3e 213c 7b6a f03d 4da4 90bd
00000250: 4c9a ff3d a176 053e 5198 2fbe f72f 5bbd
00000260: 4f40 383e 829a e7bd ba42 3dbd d69e 5ebd
00000270: 83a9 2bbe 87e9 8abb c5a0 103e a29a 3bbe
00000280: 7bf4 44bd 7db5 433e 3ae0 eebd 13e1 0ebe
00000290: b7fe 0e3e 37d5 b83b 2b55 efbd a68f 393e
000002a0: 8aca 84bd 0a24 6f3d 9190 cebc 6c02 663d
000002b0: 6b4e 42be 9632 b53d 6805 123e 4d2a 443e
000002c0: e6af 423e d997 363d 2549 48bd d601 50bd
000002d0: d1b9 c3bd e311 8fbd 42bc 3bbd 41eb 343e
000002e0: 4772 02be e4a5 89bd 8c0f ff3d 158b c83d
000002f0: 9f45 7fbd 2a7a 3a3e 057c aa3d 1b0a 19be
00000300: ee10 e43d b18e 433e fa55 093c 5737 5b3e
00000310: 728d 1e3c 1705 a0bd 2ae6 52bc 8ef6 943d
00000320: c546 d9bd 917c 0d3d 8545 633c f248 5b3c
00000330: ac84 6fbd 4e16 233c 0cb6 b5bd 42f2 15be
00000340: 5e3c e83c fc6c e83d d07a a73d d63c 113d
00000350: 55f5 b93c c480 663d 7ec6 083d b3c7 22be
00000360: 70a1 59bd 23ee a73d 943b 53bd cc0c e5bc
00000370: c464 00be 7107 223e 2d10 16be b346 9fbd
00000380: f5ed 833d 2ed7 1e3d d817 38be 13ee 313e
00000390: 8460 d93d 6fbb d8bd da90 20be 9fe9 1e3e
000003a0: 5a17 003e 0e24 3a3d 2905 033d 03a1 c63d
000003b0: 6665 bebd 9666 1bbb cd20 c83c d319 233e
000003c0: 79da 14be 9229 b63c 7e6f 21be 6894 113e
000003d0: f0b3 1cbd 9343 6abd 255b 34be f569 36be
000003e0: 2255 2dbe ab99 24bc b2db b7bd b670 9abd
000003f0: 3834 093c 5a75 2dbe c814 bdbc 418e f63d

layer1.0.bias f4 [16]
0.07686552 0.039773513 -0.17243294 0.1945192 -0.19008811 -0.018731387 0.1016184 0.044890612
-0.0043930993 -0.13391016 0.07582712 0.02911358 -0.19327694 0.10734962 0.14976646 -0.0221739
00000000: ab6b 9d3d 8de9 223d 4392 30be 0b30 473e
00000010: 75a6 42be 9172 99bc 4f1d d03d 38df 373d
00000020: fdf3 8fbb bf1f 09be 404b 9b3d 9a7f ee3c
00000030: 64ea 45be 1eda db3d 615c 193e 0aa6 b5bc

layer1.1.weight f4 [16]
0.99334896 1.0026315 1.0065832 1.0107896 0.9996837 0.97977954 1.0314226 1.0398062
0.99220073 1.0036373 1.0061458 0.98802155 1.0112051 1.0177784 0.98326766 0.9841666
00000000: 1e4c 7e3f 3b56 803f b8d7 803f 8e61 813f
00000010: 45eb 7f3f d5d2 7a3f a805 843f 5f18 853f
00000020: de00 7e3f 3077 803f 63c9 803f fbee 7c3f
00000030: 2b6f 813f 9046 823f 6eb7 7b3f 58f2 7b3f

layer1.1.bias f4 [16]
0.017712915 0.022483204 0.028695788 0.007605837 0.0031282918 0.013198938 0.04487158 0.045692116
-0.035951216 0.03878533 0.016960535 0.033116434 0.008310915 -0.011768083 0.014483147 -0.007258779
00000000: ad1a 913c b22e b83c 6e13 eb3c 633a f93b
00000010: 0704 4d3b 5c40 583c 43cb 373d a827 3b3d
00000020: 9541 13bd 5edd 1e3d d2f0 8a3c 19a5 073d
00000030: 812a 083c ebce 40bc b94a 6d3c 0ddb edbb

layer1.1.running_mean f4 [16]
0.051288135 -0.10009918 0.3037328 0.30282205 -0.4340631 0.0061709653 0.24035758 0.3177943
-0.02874416 -0.31444657 -0.4401548 -0.10768927 -0.4224548 0.10864081 0.11764762 -0.072264515
00000000: 8213 523d cd00 cdbd de82 9b3e 7e0b 9b3e
00000010: 853d debe cf35 ca3b 4c20 763e efb5 a23e
00000020: df78 ebbc 24ff a0be f85b e1be 318c dcbd
00000030: ff4b d8be 137f de3d 3cf1 f03d 6bff 93bd

layer1.1.running_var f4 [16]
0.00067176536 0.004080183 0.041467354 0.0038516393 0.011484523 0.0014130367 0.004308779 0.012402687
0.00034358187 0.008954371 0.04241004 0.0035759762 0.012564332 0.0008689259 0.00034200336 0.0006494908
00000000: 6919 303a 0eb3 853b acd9 293d c96b 7c3b
00000010: 9529 3c3c a535 b93a a830 8d3b a434 4b3c
00000020: c722 b439 5bb5 123c 26b6 2d3d ed5a 6a3b
00000030: a1da 4d3c a1c8 633a ea4e b339 9742 2a3a

layer2.0.weight f4 [32, 16, 3, 3]
-0.052609865 0.006888953 0.012258098 0.039481424 -0.017998332 -0.06528586 0.008951451 0.0391228
0.049795303 0.056394875 -0.04031852 0.07244215 0.055806234 0.072645076 -0.06708294 0.035575498
-0.010679604 -0.053192187 -0.042728424 -0.018618593 -0.07657258 -0.004128056 0.051469147 -0.008213954
0.023270696 -0.043000303 0.043213576 0.036053374 0.07577944 0.06338038 0.048358355 -0.005430485
-0.075841725 -0.07460815 -0.08281226 -0.07596585 0.03494039 -0.06942383 0.009244201 -0.074896924
-0.018878907 -0.04477726 0.07431663 0.05774971 -0.014587941 0.03631146 0.08054923 0.055609275
0.019492567 -0.07681649 -0.023884928 0.07753616 -0.036683068 0.039157197 0.048303667 -0.090412796
-0.04623326 0.00068600994 0.00873658 0.06663549 -0.065202154 -0.028468974 0.019950809 0.023456767
0.060240664 -0.02230951 0.038804587 -0.07429807 0.03441035 -0.018188166 0.019526843 -0.015847504
-0.0036367585 -0.070535466 -0.016898554 0.08148371 0.027311107 0.0054104785 -0.035662066 -0.060331643
-0.08130758 -0.047564607 -0.050099242 0.04758413 -0.00777642 -0.06303123 0.011867903 0.06495085
-0.0028142883 0.06301815 -0.07240179 0.008981582 -0.07537338 0.04049265 -0.029142058 -0.040829804
-0.033967037 -0.03215089 0.060670212 -0.03109979 -0.030343827 -0.015401444 0.034995716 -0.024036221
0.047396418 -0.013995011 -0.045262627 -0.07596858 0.029983748 0.0040200357 -0.09102656 -0.03259717
-0.064596795 -0.08984009 -0.07781063 -0.09611465 -0.031242989 -0.047273885 -0.003150915 -0.09978688
0.010000222 -0.037140798 0.05622531 -0.03328548 0.047602482 0.033185326 0.06102852 -0.037195314
-0.060066905 0.04912357 -0.041857217 0.054924313 0.044443842 -0.04422702 0.070241116 -0.06240245
0.026690284 0.06256519 0.018084321 0.037229594 -0.07098761 -0.09500082 -0.0060558445 0.046969797
-0.029862687 -0.04739367 -0.078003004 0.0076960875 -0.054065604 -0.07549236 0.029369473 -0.0139129115
-0.06288458 0.023689235 0.05323926 0.06468333 -0.039433148 0.027620833 0.009991469 0.032416407
-0.033172864 -0.013139834 0.057367336 0.07906793 0.058180444 0.0022786765 -0.08197183 -0.0619089
-0.0034437652 -0.015669223 0.06400523 0.022154884 -0.028326698 -0.020553216 -0.055029746 0.006453325
-0.005031019 -0.019557571 -0.05289084 0.03296095 -0.018649956 0.06662232 -0.018817961 -0.022064919
0.008556224 0.05695732 0.012539588 -0.0062465053 -0.044337675 0.0070025995 0.04162461 -0.06984132
-0.010267036 0.006755645 -0.0377015 -0.117211975 0.061621465 -0.061775498 0.06261997 0.073109135
-0.071883604 -0.019491855 -0.096139304 0.027119158 -0.010161824 0.03361195 -0.06855521 0.080726475
0.044557698 0.018485656 -0.06333535 0.051308535 -0.031049741 0.0050898534 -0.047130834 -0.011611751
0.07065601 0.027416553 -0.06746862 -0.05759816 0.06301948 -0.05535283 0.059699446 0.034159526
-0.01178668 0.06948202 0.0019236353 0.017965065 0.040549252 -0.09263598 -0.017416544 0.02727323
0.03333889 -0.069082454 -0.049321227 -0.02666 -0.05150192 -0.07382485 -0.026588343 -0.055359673
0.056409515 0.0018307487 -0.004060598 0.009275043 0.06363037 -0.034420807 0.015382885 0.061738204
-0.0678986 -0.039900918 -0.08141761 0.051697087 0.051993795 0.07389712 0.06463215 0.06826932
00000000: 717d 57bd babc e13b 31d6 483c 46b7 213d
00000010: 3d71 93bc 98b4 85bd 1ba9 123c 3b3f 203d
00000020: 29f6 4b3d 50fe 663d 0825 25bd 8d5c 943d
00000030: 1495 643d f1c6 943d c862 89bd 9db7 113d
00000040: 81f9 2ebc 0de0 59bd 0004 2fbd 0586 98bc
00000050: 16d2 9cbd a544 87bb 50d1 523d d293 06bc
00000060: 30a2 be3c 1621 30bd b800 313d b4ac 133d
00000070: 4032 9b3d 93cd 813d 6913 463d 36f2 b1bb
00000080: e852 9bbd 28cc 98bd 7999 a9bd fc93 9bbd
00000090: a81d 0f3d 152e 8ebd fd74 173c 8f63 99bd
000000a0: f0a7 9abc 5c68 37bd 5133 983d f68a 6c3d
000000b0: 4202 6fbc 53bb 143d fff6 a43d 8dc6 633d
000000c0: e0ae 9f3c f751 9dbd 53aa c3bc 47cb 9e3d
000000d0: fc40 16bd 4c63 203d 11da 453d 582a b9bd
000000e0: 165f 3dbd 59d5 333a df23 0f3c 3078 883d
000000f0: b588 85bd c437 e9bc e16f a33c 6828 c03c
00000100: eabe 763d 6fc2 b6bc 8ff1 1e3d 9629 98bd
00000110: def1 0c3d 59ff 94bc c2f6 9f3c a0d2 81bc
00000120: af56 6ebb e674 90bd d66e 8abc eee0 a63d
00000130: 8bbb df3c 624a b13b 6312 12bd 501e 77bd
00000140: 9784 a6bd 1bd3 42bd dd34 4dbd 94e7 423d
00000150: 57d1 febb 8416 81bd 9871 423c f404 853d
00000160: ec6f 38bb a90f 813d 6447 94bd 7c27 133c
00000170: 5c5d 9abd 9fdb 253d 53bb eebc 273d 27bd
00000180: 0521 0bbd a7b0 03bd 5481 783d fdc4 febc
00000190: 9e93 f8bc 5756 7cbc ab57 0f3d 9ce7 c4bc
000001a0: bf22 423d 554b 65bc 4e65 39bd 6a95 9bbd
000001b0: 7aa0 f53c 81ba 833b 226c babd 9c84 05bd
000001c0: 534b 84bd 15fe b7bd 2e5b 9fbd c2d7 c4bd
000001d0: 4cf1 ffbc 43a2 41bd 957f 4ebb 105d ccbd
000001e0: f9d7 233c f320 18bd 834c 663d 5b56 08bd
000001f0: d2fa 423d 56ed 073d 0bf9 793d 1d5a 18bd
00000200: b708 76bd cc35 493d 7972 2bbd 51f8 603d
00000210: bf0a 363d 6427 35bd 93da 8f3d b699 7fbd
00000220: 95a5 da3c 2e22 803d 9225 943c 0f7e 183d
00000230: f461 91bd ca8f c2bd 1b70 c6bb 6763 403d
00000240: 98a2 f4bc dd1f 42bd 0ac0 9fbd 762f fc3b
00000250: e573 5dbd bd9b 9abd 4098 f03c fbf2 63bc
00000260: a1c9 80bd ed0f c23c 6911 5a3d b278 843d
00000270: a784 21bd 1645 e23c 42b3 233c 11c7 043d
00000280: 45e0 07bd 7548 57bc 03fa 6a3d 5eee a13d
00000290: 9e4e 6e3d d955 153b d9e0 a7bd 3094 7dbd
000002a0: cbb0 61bb be5c 80bc 2d15 833d 297e b53c
000002b0: 640d e8bc 385f a8bc df66 61bd 6a76 d33b
000002c0: 3fdb a4bb 3337 a0bc 11a4 58bd 1002 073d
000002d0: cbc7 98bc 4871 883d 2028 9abc 7dc1 b4bc
000002e0: 682f 0c3c 144c 693d d872 4d3c 7caf ccbb
000002f0: 6c9b 35bd 1076 e53b 917e 2a3d f708 8fbd
00000300: 1237 28bc 755e dd3b e36c 1abd d50c f0bd
00000310: ca66 7c3d 4e08 7dbd e63e 803d 3eba 953d
00000320: b637 93bd 62ad 9fbc afe4 c4bd ff28 de3c
00000330: c77d 26bc afac 093d ad66 8cbd ec53 a53d
00000340: 2282 363d 3b6f 973c f7b5 81bd e628 523d
00000350: 075c febc c9c8 a63b 430c 41bd 373f 3ebc
00000360: 19b4 903d ae98 e03c fd2c 8abd 0cec 6bbd
00000370: 5b10 813d a6b9 62bd 6887 743d dcea 0b3d
00000380: eb1c 41bc 974c 8e3d 7d22 fc3a 792b 933c
00000390: f916 263d efb7 bdbd 24ad 8ebc 1c6c df3c
000003a0: 5c8e 083d 1a7b 8dbd 0e05 4abd 1366 dabc
000003b0: adf3 52bd 7c31 97bd cccf d9bc d3c0 62bd
000003c0: aa0d 673d bcf5 ef3a c40e 85bb 5af6 173c
000003d0: a450 823d d5fc 0cbd 7f08 7c3c 33e1 7c3d
000003e0: 6c0e 8bbd 256f 23bd 47be a6bd 53c0 533d
000003f0: 72f7 543d 6057 973d dc5d 843d c9d0 8b3d

layer2.0.bias f4 [32]
0.065179065 -0.0674913 0.005477706 0.021767804 -0.07464477 0.040687263 -0.04928017 -0.013836419
0.053255063 0.007924554 -0.013084724 -0.070634015 0.03989599 -0.02389164 0.07281059 0.06336803
-0.08734087 -0.046284787 0.0107515175 -0.017165741 0.012565117 0.07064995 0.05079245 -0.07082171
-0.034277122 -6.994255e-05 -0.015798546 0.06700876 0.034099538 -0.031363726 -0.026264114 0.02439355
00000000: 9a7c 853d e138 8abd 547e b33b 6552 b23c
00000010: 5bdf 98bd b0a7 263d 01da 49bd 26b2 62bc
00000020: fb21 5a3d fdd5 013c 4f61 56bc 91a8 90bd
00000030: fa69 233d 67b8 c3bc b81d 953d 19c7 813d
00000040: c5df b2bd 1e95 3dbd 2227 303c 2b9f 8cbc
00000050: ecdd 4d3c ecb0 903d be0b 503d f90a 91bd
00000060: 2b66 0cbd 1fae 92b8 f46b 81bc e43b 893d
00000070: f5ab 0b3d 4077 00bd d727 d7bc fbd4 c73c

layer2.1.weight f4 [32]
0.98538387 0.99460226 1.0103766 0.98312074 0.9792379 1.0271034 0.9942642 0.9952664
0.9970526 1.0050713 1.0215214 0.9871913 1.0112418 0.98939586 0.9884973 0.9757961
1.0258515 1.0249019 1.0376129 1.027452 0.9926862 0.9834352 1.0122428 0.99114054
1.0004082 1.0308121 1.0003884 1.0140729 0.986681 1.0037462 0.971913 0.9867299
00000000: 1e42 7c3f 419e 7e3f 0554 813f cdad 7b3f
00000010: 56af 7a3f 2078 833f 1988 7e3f c7c9 7e3f
00000020: d73e 7f3f 2da6 803f 37c1 823f 92b8 7c3f
00000030: 5f70 813f 0c49 7d3f 290e 7d3f c6cd 793f
00000040: 1a4f 833f fc2f 833f 80d0 843f 8c83 833f
00000050: af20 7e3f 69c2 7b3f 2c91 813f 63bb 7d3f
00000060: 600d 803f a7f1 833f ba0c 803f 24cd 813f
00000070: 2097 7c3f c17a 803f 4acf 783f 559a 7c3f

layer2.1.bias f4 [32]
-0.037069995 0.012907492 0.014360275 -0.018962868 -0.0081628105 -0.0075121317 -0.011293237 -0.021621391
0.016613375 -0.00839069 0.0026727682 -0.0041517452 0.035586424 0.021055996 -0.008696836 0.018781915
-0.010609474 -0.0024131392 0.0061449204 0.004524401 -0.002615278 -0.0026165794 -0.007704542 0.018682571
-0.0059181917 0.01823873 -0.015925275 -0.0018796781 -0.005851566 0.00013421808 -0.009632502 0.0007439646
00000000: b5d6 17bd f279 533c 5c47 6b3c 0458 9bbc
00000010: 4fbd 05bc 5428 f6bb 4507 39bc 581f b1bc
00000020: c618 883c 1b79 09bc 9c29 2f3b 5d0b 88bb
00000030: 12c3 113d a07d ac3c 2d7d 0ebc 88dc 993c
00000040: 5cd3 2dbc c225 1ebb 545b c93b 6d41 943b
00000050: 1565 2bbb eb7a 2bbb 6276 fcbb 310c 993c
00000060: 64ed c1bb 6469 953c b975 82bc 885f f6ba
00000070: 7ebe bfbb e4bc 0c39 a4d1 1dbc 9f06 433a

layer2.1.running_mean f4 [32]
-0.33738962 -0.11583737 -0.44182238 0.7754846 -0.13530289 -0.63078547 0.14292726 0.1812684
-0.27422506 -0.5096335 -0.80308735 -0.26269254 0.08050024 -0.52626264 0.11186523 0.3427897
-0.83424425 -0.6016434 -0.41156623 -0.107119374 0.210716 -0.07003195 -0.59063965 -0.44352347
-0.15268417 -0.19181316 -0.06390031 -0.11517853 0.25524616 -0.22776204 0.11761417 0.15933312
00000000: 55be acbe 253c edbd 8b36 e2be 2986 463f
00000010: d78c 0abe 287b 21bf 865b 123e 6c9e 393e
00000020: 3a67 8cbe 5777 02bf 2297 4dbf a37f 86be
00000030: 4fdd a43d 26b9 06bf 9919 e53d 2282 af3e
00000040: 0891 55bf 4d05 1abf cfb8 d2be 6761 dbbd
00000050: efc5 573e e96c 8fbd 2934 17bf 8215 e3be
00000060: 3d59 1cbe ab6a 44be 2ade 82bd b9e2 ebbd
00000070: a0af 823e 743a 69be b3df f03d 3928 233e

layer2.1.running_var f4 [32]
0.19190162 0.109667234 0.21699598 0.30982274 0.1490851 0.18860346 0.18908174 0.28822076
0.08505542 0.18893182 0.56248677 0.08607823 0.7057298 0.7023335 0.44395003 0.10092608
0.29777202 0.17605157 0.21360439 0.22719014 0.8894582 0.11755865 0.9478865 0.15443344
0.081408724 0.11084 0.12412033 0.1427896 0.2849578 0.08073262 0.388916 0.33400887
00000000: dc81 443e 3799 e03d 3234 5e3e 16a1 9e3e
00000010: c4a9 183e 4421 413e a59e 413e ac91 933e
00000020: 8931 ae3d 5877 413e 22ff 0f3f c849 b03d
00000030: b5aa 343f 21cc 333f 6b4d e33e 55b2 ce3d
00000040: 9375 983e dd46 343e 1cbb 5a3e 88a4 683e
00000050: 88b3 633f 97c2 f03d b1a8 723f cd23 1e3e
00000060: 9eb9 a63d 1500 e33d cd32 fe3d 7037 123e
00000070: fde5 913e 2557 a53d ff1f c73e 3603 ab3e

layer3.0.weight f4 [64, 32, 3, 3]
0.03829567 -0.044339497 8.437245e-05 0.04227899 0.012978505 -0.011793591 0.0025356999 0.036456082
-0.05670929 0.031938214 -0.07013515 0.0027911682 -0.0015916983 -0.026336748 0.035583127 -0.037365414
-0.026375938 0.019077696 0.0046786056 -0.040021624 0.017363973 -0.02138476 -0.023412347 0.0074716345
-0.07700807 -0.014524594 0.0126682725 -0.032477673 -0.049416583 0.05779625 0.042609725 -0.02791348
-0.0017226047 0.061882235 0.041945547 -0.046087604 -0.012927654 -0.026160803 0.023476608 -0.014367173
-0.0018722223 0.04623832 -0.05694756 0.008237479 -0.017383229 0.08587445 0.045808945 0.043113623
0.0075152456 0.010400713 -0.065508276 0.055636294 -0.052179307 -0.017743384 -0.05380728 -0.015259127
-0.01004836 0.008568014 0.057804696 0.0054109273 0.039336234 -0.018388074 0.000834793 0.038058758
0.019479908 0.043754283 -0.04604471 0.005687721 0.022533163 0.051939253 0.053533107 -0.0032666347
-0.0190925 0.007818066 0.08786593 0.023448769 0.046656333 0.036937166 0.016115718 0.001183217
-0.0033252032 -0.0026352783 0.042116057 -0.02812855 0.059327103 0.048867177 0.060287762 0.011386084
-0.032871652 3.771421e-05 0.048895575 0.032676984 -0.01817859 0.0105727 0.016708193 0.011887163
-0.002544658 -0.025393598 0.0285555 0.029193029 0.033441562 -0.018350547 0.013225309 0.0335028
0.03987979 0.01860636 0.021527369 -0.0027358984 -0.0038497162 -0.049676053 0.012157631 0.03354974
-0.033914488 -0.011094319 -0.071721874 0.04803084 0.07018649 0.02815322 0.0168665 -0.03702126
0.0017334593 -0.012784455 -0.028008368 -0.04349686 0.061116785 0.027004352 -0.016673207 -0.019968467
-0.059503272 -0.019094365 -0.041521486 0.0037456427 -0.019062204 0.047035217 0.008688028 -0.023049662
-0.04462595 -0.052970625 -0.025536057 -0.01982423 0.024398874 -0.03495677 0.02583144 0.00947232
0.0729054 0.0029019224 0.013770719 -0.013054353 -0.0028303347 -0.015800899 0.019287558 0.012459185
0.04703111 0.010373284 -0.012678454 0.06995603 -0.020100288 0.061108302 0.057053566 0.0007675174
0.009115757 0.06719718 0.021606462 0.039796863 -0.022753708 0.0041444935 -0.03986077 -0.0140312025
-0.013428284 -0.01336079 -0.050629564 0.045666933 0.007414208 0.008349314 -0.06296607 0.004439725
0.041883316 -0.026274573 0.013012327 0.027967257 -0.06553783 0.015738495 -0.06175363 -0.040084265
-0.03637448 -0.0319047 0.0056401417 0.006129824 -0.01112708 -0.030635903 -0.049293842 -0.012893131
-0.049867135 0.038621213 0.030822525 0.019828567 0.027940568 0.057743974 -0.05976206 -0.003896322
-0.049880136 -0.031904653 0.010844367 -0.020364325 -0.008231083 0.014062005 0.017702485 0.073893696
0.004468318 -0.020842185 0.015899792 -0.058701675 -0.049763314 -0.018207626 0.045161206 -0.00617712
0.015807053 -0.0064290897 0.027633455 0.031288113 -0.034567256 -0.02252314 0.050099213 0.024421822
-0.016609035 -0.022959856 0.06148157 -0.010678726 0.006159914 0.020523973 0.030779298 0.05700096
-0.039862003 0.032814123 -0.006229258 -0.025578449 -0.026767168 -0.00486819 -0.050297868 0.025487633
-0.010404621 -0.045304455 0.0036178003 0.010379998 -0.017680839 -0.0061810655 -0.045476202 -0.039184388
-0.015593223 0.039453343 -0.06259303 -0.041339893 -0.00396269 -0.020065786 -0.03557379 -0.039708395
00000000: ecdb 1c3d 559d 35bd 1df1 b038 bc2c 2d3d
00000010: cca3 543c e839 41bc fc2d 263b f952 153d
00000020: 0048 68bd a5d1 023d 04a3 8fbd 08ec 363b
00000030: 88a0 d0ba 2ac0 d7bc 9dbf 113d 7a0c 19bd
00000040: 5a12 d8bc d448 9c3c fd4e 993b b7ed 23bd
00000050: e43e 8e3c 182f afbc 40cb bfbc 9dd4 f43b
00000060: 68b6 9dbd 90f8 6dbc 968e 4f3c 4f07 05bd
00000070: 0b69 4abd c3bb 6c3d 8987 2e3d cfaa e4bc
00000080: 06c9 e1ba 3a78 7d3d 18cf 2b3d 5bc6 3cbd
00000090: 83ce 53bc 2e4f d6bc 0452 c03c 4b64 6bbc
000000a0: 5b65 f5ba 6564 3d3d d841 69bd 7ef6 063c
000000b0: 4667 8ebc f2de af3d 29a2 3b3d e997 303d
000000c0: 7342 f63b c167 2a3c 3429 86bd e2e2 633d
000000d0: f8b9 55bd 935a 91bc 0665 5cbd 6b01 7abc
000000e0: e0a1 24bc db60 0c3c 9ec4 6c3d 264e b13b
000000f0: 081f 213d 96a2 96bc 03d6 5a3a 80e3 1b3d
00000100: 5494 9f3c b137 333d 6199 3cbd 1060 ba3b
00000110: 7897 b83c 41be 543d 8845 5b3d 0915 56bb
00000120: e067 9cbc 5817 003c 0df3 b33d a217 c03c
00000130: b61a 3f3d 6d4b 173d 1c05 843c 2d16 9b3a
00000140: a7eb 59bb a2b4 2cbb e381 2c3d d86d e6bc
00000150: fa00 733d f328 483d 4df0 763d b38c 3a3c
00000160: 6da4 06bd 532f 1e38 ba46 483d 4dd8 053d
00000170: 44eb 94bc 1e39 2d3c 9fdf 883c 60c2 423c
00000180: 47c4 26bb 3c06 d0bc 39ed e93c 3826 ef3c
00000190: 05fa 083d e353 96bc f7ae 583c 3b3a 093d
000001a0: fe58 233d 5d6c 983c 2a5a b03c c24c 33bb
000001b0: 854b 7cbb 1e79 4bbd cd30 473c 746b 093d
000001c0: ebe9 0abd f2c4 35bc ebe2 92bd fcbb 443d
000001d0: efbd 8f3d 95a1 e63c 9d2b 8a3c 9ba3 17bd
000001e0: 3e35 e33a e475 51bc ce71 e5bc c329 32bd
000001f0: 9855 7a3d 3b38 dd3c 4096 88bc e994 a3bc
00000200: b4b9 73bd c96b 9cbc 6f12 2abd 7579 753b
00000210: 5728 9cbc 00a8 403d 3b58 0e3c a5d2 bcbc
00000220: b3c9 36bd baf7 58bd fe30 d1bc 6c66 a2bc
00000230: 26e0 c73c d42e 0fbd 759c d33c ca31 1b3c
00000240: 6d4f 953d 2e2e 3e3b 959e 613c ede1 55bc
00000250: 237d 39bb e370 81bc f100 9e3c 9c21 4c3c
00000260: b1a3 403d b5f4 293c 4ab9 4fbc 1b45 8f3d
00000270: 5ca9 a4bc b34c 7a3d 00b1 693d 3933 493a
00000280: 425a 153c ad9e 893d 0900 b13c 0902 233d
00000290: fc65 babc 88ce 873b 0c45 23bd 21e3 65bc
000002a0: 4e02 5cbc 37e7 5abc f260 4fbd 400d 3b3d
000002b0: e2f2 f23b 90cb 083c 5bf4 80bd 1d7b 913b
000002c0: d78d 2b3d c63d d7bc a831 553c 971b e53c
000002d0: b338 86bd 04ee 803c 60f1 7cbd 662f 24bd
000002e0: 68fd 14bd 81ae 02bd f0d0 b83b b1dc c83b
000002f0: 5b4e 36bc 25f8 fabc 57e8 49bd b63d 53bc
00000300: 7b41 4cbd 4731 1e3d 857f fc3c 856f a23c
00000310: 9ee3 e43c f284 6c3d 10c9 74bd 7059 7fbb
00000320: 1d4f 4cbd 74ae 02bd 92ac 313c 16d3 a6bc
00000330: aadb 06bc 5364 663c cd04 913c 9455 973d
00000340: f86a 923b 3bbd aabc 4840 823c 2b71 70bd
00000350: 9ed4 4bbd 2928 95bc f5fa 383d 7069 cabb
00000360: cb7d 813c 1dab d2bb 8e5f e23c f727 003d
00000370: 6596 0dbd 7382 b8bc d534 4d3d 4610 c83c
00000380: ac0f 88bc 4f16 bcbc 19d4 7b3d d3f5 2ebc
00000390: 1bd9 c93b e421 a83c de24 fc3c d779 693d
000003a0: 5746 23bd 1a68 063d ce1e ccbb e589 d1bc
000003b0: d246 dbbc 5685 9fbb 2305 4ebd 71cb d03c
000003c0: 2578 2abc 2a91 39bd 9e18 6d3b de10 2a3c
000003d0: 68d7 90bc 898a cabb 4145 3abd cf7f 20bd
000003e0: b87a 7fbc d499 213d c630 80bd 0554 29bd
000003f0: 74d9 81bb 0161 a4bc d3b5 11bd 45a5 22bd

layer3.0.bias f4 [64]
0.05178568 -0.050219044 -0.055288747 -0.053291075 0.019036483 -0.018449623 0.033187456 0.05476719
0.03196257 0.018803863 0.052972678 -0.040625095 0.037118077 -0.032149132 0.013176621 -0.034602847
0.011200418 0.029476658 -0.010977359 -0.021919101 -0.03170597 -0.056583036 0.053609394 0.035045464
-0.055664554 0.016153596 -0.058671508 0.05769878 0.024952194 -0.011520368 0.024090007 -0.003818388
0.012520575 0.046847202 -0.005621153 0.03572855 0.03494113 0.052307587 -0.025719095 0.024330053
0.008562983 -0.044223033 -0.038269833 -0.04384185 0.03967125 -0.008847816 -0.05059097 0.04142649
-0.0024129432 0.056875113 -0.043322794 -0.036665175 0.03892374 0.019822504 0.0065871216 0.04079692
-0.03888931 0.01636119 0.015625091 0.009478581 0.041191116 -0.021590143 -0.0025739302 0.052501205
00000000: 391d 543d 7cb2 4dbd 7476 62bd be47 5abd
00000010: 66f2 9b3c aa23 97bc 92ef 073d 9053 603d
00000020: 2feb 023d 8f0a 9a3c e1f9 583d 8066 26bd
00000030: 2009 183d cfae 03bd c1e2 573c b7bb 0dbd
00000040: f581 373c 0879 f13c 61da 33bc b08f b3bc
00000050: 1fde 01bd 9dc3 67bd 8695 5b3d d58b 0f3d
00000060: 8400 64bd 8c54 843c 8951 70bd 8e55 6c3d
00000070: 8b68 cc3c edbf 3cbc 6858 c53c ec3d 7abb
00000080: 1923 4d3c dae2 3f3d a631 b8bb 1a58 123d
00000090: 6e1e 0f3d 7b40 563d dab0 d2bc d24f c73c
000000a0: c14b 0c3c 3623 35bd d4c0 1cbd 8393 33bd
000000b0: 527e 223d 6ef6 10bc 7a38 4fbd d3ae 293d
000000c0: 7822 1ebb e1f5 683d 3e73 31bd 392e 16bd
000000d0: 806e 1f3d ce62 a23c c8d8 d73b ac1a 273d
000000e0: 664a 1fbd e707 863c 3100 803c 0d4c 1b3c
000000f0: 04b8 283d d0dd b0bc 62af 28bb 810b 573d

layer3.1.weight f4 [64]
1.0440143 1.0404662 1.0507605 1.0367924 1.0525577 1.0434743 1.0520307 1.0463105
1.049627 1.0476832 1.0484842 1.048691 1.0474774 1.0405405 1.061908 1.0458982
1.0521781 1.0455769 1.0333446 1.0473932 1.0367082 1.0421925 1.0457345 1.0439444
1.0451847 1.0462309 1.047257 1.055449 1.0481257 1.030936 1.0455043 1.0464176
1.0475035 1.0467684 1.0567611 1.0433298 1.0375571 1.043879 1.0498787 1.0522778
1.0537485 1.0449249 1.0475409 1.0463271 1.0500716 1.051767 1.0529392 1.041395
1.0497944 1.0380919 1.0507541 1.0586418 1.0395026 1.0494167 1.0550076 1.0458344
1.0502999 1.042662 1.0489875 1.0552466 1.0476846 1.0555482 1.0520042 1.0338237
00000000: 43a2 853f ff2d 853f 527f 863f 9db5 843f
00000010: 36ba 863f 9190 853f f1a8 863f 81ed 853f
00000020: 2d5a 863f 7c1a 863f bb34 863f 823b 863f
00000030: bd13 863f 6e30 853f 9aec 873f fedf 853f
00000040: c6ad 863f 77d5 853f a344 843f fb10 863f
00000050: dbb2 843f 9066 853f a1da 853f f89f 853f
00000060: 9dc8 853f e5ea 853f 840c 863f f418 873f
00000070: fc28 863f b6f5 833f 16d3 853f 03f1 853f
00000080: 9814 863f 82fc 853f f343 873f d58b 853f
00000090: acce 843f d49d 853f 6d62 863f 0ab1 863f
000000a0: 3be1 863f 19c0 853f d215 863f 0cee 853f
000000b0: bf68 863f 4da0 863f b6c6 863f 6e4c 853f
000000c0: aa5f 863f 32e0 843f 1c7f 863f 9381 873f
000000d0: 6c0e 853f 4953 863f 7d0a 873f e7dd 853f
000000e0: 3a70 863f f375 853f 3945 863f 5212 873f
000000f0: 871a 863f 341c 873f 13a8 863f 5654 843f

layer3.1.bias f4 [64]
0.028013567 0.017235344 0.024543714 0.03085428 0.027608097 0.028577715 0.011757607 0.026715476
0.038593937 0.036113616 0.026401589 0.04520811 0.037984125 0.026130194 0.041877083 0.03144717
0.03188978 0.0052398876 0.015962213 0.037814524 0.021865994 0.015419519 0.02680561 0.026022224
0.011793135 0.022189552 0.041669182 0.040573444 0.028359255 0.019109704 0.03745898 0.013285835
0.041592136 0.030863471 0.0474128 0.010257979 0.020869642 0.024461927 0.031292472 0.02827084
0.03560172 0.018002719 0.02101017 0.030978847 0.033217974 0.03836418 0.034382224 0.014032759
0.045508973 0.0067712446 0.031357054 0.04623595 0.015678566 0.03217474 0.043778732 0.021366745
0.036205616 0.035005867 0.033705004 0.041516297 -0.0014295625 0.03829656 0.03341043 0.017291483
00000000: b57c e53c 2331 8d3c e60f c93c 1dc2 fc3c
00000010: 602a e23c d01b ea3c faa2 403c 6ada da3c
00000020: ad14 1e3d dfeb 133d 2548 d83c 242c 393d
00000030: 3e95 1b3d fd0e d63c 4e87 2b3d bfce 003d
00000040: dc9e 023d 5db3 ab3b 30c3 823c 67e3 1a3d
00000050: 5020 b33c 26a2 7c3c 7097 db3c 8f2c d53c
00000060: fe37 413c ddc6 b53c 4ead 2a3d 5730 263d
00000070: ab51 e83c f48b 9c3c 966e 193d d5ac 593c
00000080: 845c 2a3d 64d5 fc3c ed33 423d 1511 283c
00000090: d0f6 aa3c 6164 c83c 892c 003d 4098 e73c
000000a0: 1cd3 113d 707a 933c 851d ac3c 5ac7 fd3c
000000b0: 920f 083d c223 1d3d 60d4 0c3d a8e9 653c
000000c0: 9e67 3a3d 51e1 dd3b 4170 003d e861 3d3d
000000d0: 5670 803c a9c9 033d 5451 333d 5009 af3c
000000e0: 574c 143d 5062 0f3d 420e 0a3d fe0c 2a3d
000000f0: 2860 bbba dbdc 1c3d 60d9 083d dea6 8d3c

layer3.1.running_mean f4 [64]
0.03315923 -0.53025246 0.44221762 -1.0274667 0.93633795 0.62651 0.75151753 0.13548498
-0.43009207 -0.45854995 0.62522703 0.03460476 -0.51715195 -0.26368722 0.62412226 0.40618128
-0.14800672 0.6172619 -1.5074283 0.15158147 -0.97251546 0.5017102 -0.83989084 0.57164997
-0.19614528 0.45752868 -0.42809153 -0.517761 0.6053958 -0.2727719 -0.21496025 -0.027201133
-0.74984545 0.28733197 0.31506947 -0.042691715 -0.087110355 0.3959777 0.08790207 0.5600944
0.62735254 0.6595345 0.43746087 -0.51823574 -0.13973385 -0.25100046 0.20808116 -0.062133346
0.45063424 0.57246333 -0.014666975 0.18733111 0.49375293 -0.086610734 -0.5051557 0.45844164
0.1754086 0.33555475 -0.4166383 0.072069064 1.2413118 0.13696496 0.07109202 0.13224497
00000000: f9d1 073d a0be 07bf 596a e23e 0784 83bf
00000010: d8b3 6f3f f662 203f 7463 403f 93bc 0a3e
00000020: 0735 dcbe 0fc7 eabe e10e 203f b9bd 0d3d
00000030: 1264 04bf 0302 87be 7ac6 1f3f fef6 cf3e
00000040: 138f 17be e004 1e3f 69f3 c0bf 2c38 1b3e
00000050: c6f6 78bf 1470 003f 1603 57bf a757 123f
00000060: 4fda 48be 3341 ea3e d02e dbbe fc8b 04bf
00000070: 38fb 1a3f c2a8 8bbe 8a1e 5cbe e9d4 debc
00000080: dff5 3fbf 2d1d 933e c950 a13e 82dd 2ebd
00000090: ea66 b2bd 97bd ca3e 0006 b43d 5962 0f3f
000000a0: 2d9a 203f 41d7 283f dffa df3e 19ab 04bf
000000b0: 6416 0fbe 2283 80be 3a13 553e 897f 7ebd
000000c0: 88b9 e63e f58c 123f c04d 70bc bad3 3f3e
000000d0: 2fcd fc3e f860 b1bd e251 01bf ddb8 ea3e
000000e0: 509e 333e d5cd ab3e 9e51 d5be f298 933d
000000f0: 4ee3 9e3f 8b40 0c3e b198 913d 3a6b 073e

layer3.1.running_var f4 [64]
0.27249512 0.196511 0.18545191 0.29385024 0.19013299 0.2880651 0.31997433 0.1179356
0.24860297 0.16081946 0.23989779 0.13230963 0.3058672 0.13998836 0.1730701 0.104050055
0.2999563 0.22156806 0.34785682 0.1874928 0.13344216 0.17232005 0.5030049 0.1669438
0.11725768 0.22033802 0.23495331 0.19511573 0.31201994 0.41061738 0.2429023 0.15769252
0.3133185 0.13826571 0.13437332 0.21654606 0.19775684 0.18380348 0.11991312 0.14536972
0.16724585 0.2108876 0.20889674 0.21464574 0.32429716 0.20896798 0.22390994 0.17057846
0.15759492 0.3044133 0.24597497 0.101073585 0.16127115 0.27847514 0.3038725 0.14213441
0.19630288 0.21385384 0.2155489 0.19936958 0.53648126 0.13851544 0.17006502 0.113948055
00000000: 7b84 8b3e 2e3a 493e 1be7 3d3e 8a73 963e
00000010: 39b2 423e 457d 933e add3 a33e 3888 f13d
00000020: c791 7e3e dbad 243e c4a7 753e 2d7c 073e
00000030: a09a 9c3e 1c59 0f3e 4a39 313e 3218 d53d
00000040: df93 993e bde2 623e 4a1a b23e 1dfe 3f3e
00000050: 10a5 083e ab74 303e eec4 003f 51f3 2a3e
00000060: cb24 f03d 4aa0 613e 9a97 703e 6bcc 473e
00000070: 14c1 9f3e 713c d23e 61bb 783e 267a 213e
00000080: 486b a03e 8795 0d3e 2999 093e 40be 5d3e
00000090: c580 4a3e fb36 3c3e 0395 f53d cddb 143e
000000a0: 7f42 2b3e ebf2 573e 07e9 553e 18cc 5b3e
000000b0: 470a a63e b4fb 553e a648 653e 1fac 2e3e
000000c0: 9060 213e 0fdc 9b3e dde0 7b3e abff ce3d
000000d0: 4424 253e 4b94 8e3e 2d95 9b3e af8b 113e
000000e0: 9f03 493e 80fc 5a3e dab8 5c3e 8a27 4c3e
000000f0: d656 093f fed6 0d3e 8625 2e3e 995d e93d

fc1.weight f4 [25, 576]
-0.0012680904 0.0059240567 -0.041642025 -0.014181754 -0.02567601 -0.033724897 -0.00066599733 -0.003210666
0.0069634314 -0.0033486013 0.05996755 0.007296598 0.03487554 -0.023942614 -0.015180856 0.013339952
-0.040084597 -0.038008988 -0.0066679423 -0.013690074 0.039346997 0.015057093 0.005803239 0.02893471
0.056987107 0.039630964 0.026969178 0.04660702 0.009343523 -0.021544842 -0.0050779465 0.02465706
0.011951892 0.05011025 0.053627048 -0.006992271 0.007517367 -0.02015393 -0.017823203 0.017788835
0.014351382 0.062336266 0.022835711 -0.033020414 0.012979714 0.0066120997 0.008176179 0.03696043
-0.020999782 -0.015138874 0.03633243 0.016306719 -0.010266572 0.06647022 -0.051967807 -0.039642625
0.0055823186 -0.05678222 -0.020983072 0.00802985 0.0061688246 -0.062754 -0.019014087 -0.04568878
0.009539151 0.027987234 -0.03526513 0.022744449 0.056454435 0.024454867 0.05928967 0.052575998
0.00826842 0.030416014 0.017786872 0.0055682645 0.06941435 -0.041154124 0.054233305 -0.0013359749
-0.045792866 0.012313236 0.055458594 0.06736756 0.009687439 0.07855883 0.07421216 -0.008348584
0.03946792 0.05005982 -0.052008335 -0.0041857315 -0.015051501 -0.037837524 0.024678625 -0.005464304
0.020694664 0.005772682 0.012913041 0.007314522 0.027613463 0.006444526 0.013008377 0.014019698
0.05258188 -0.00434003 0.020717518 0.05460074 0.015858525 0.0030515492 0.009950012 -0.011849864
-0.015168587 0.05868766 -0.020459626 0.050964635 0.006509199 -0.04720133 0.04820542 0.037029643
0.033667702 -0.048495118 -0.02044355 0.0136073 -0.0280796 0.03705987 -0.019587902 0.0058607473
-0.0075892825 -0.0016972596 0.023726704 0.0063147782 0.034948427 -0.019490259 -0.029191667 -0.018940503
0.00040811417 0.059852898 0.0028083816 -0.027510054 0.010516553 0.008873686 -0.012003592 0.01788039
-0.027171182 0.015319505 0.03357952 0.012639202 0.0054166582 0.047754362 0.04096766 -0.0049706995
0.028954497 -0.03510416 0.0005912824 -0.035115242 0.0010621892 -0.049815003 0.030550031 -0.022715645
-0.031831738 -0.015814869 0.04447599 -0.027490277 0.016367128 -0.0072228 0.0074711624 -0.036853246
-0.01431406 0.018020365 9.565831e-05 0.0050548185 0.05021946 0.00944863 0.010188888 0.030651722
0.017583158 0.032584853 0.053281732 -0.013857337 0.015935954 0.03400136 0.046940494 0.003970993
-0.021735508 0.054490052 0.053656552 0.0018811828 0.019197635 0.00089242397 -0.02548623 -0.0065483116
-0.016257605 0.030873507 -0.0069975825 0.05548315 0.022241127 0.03696289 0.0132028 -0.040224925
0.050384834 0.007892166 -0.013414922 -0.024096902 -0.03089949 -0.05306296 0.0074938443 -0.02870523
-0.026309513 0.0052293297 0.035629284 -0.051608853 0.02679699 -0.0040928912 0.015947208 -0.021147173
-0.0062450655 0.04915506 -0.0041732527 0.04077516 0.022829251 0.06034634 0.078846276 0.01126128
0.01015669 -0.053532355 -0.016413718 0.01945997 -0.013864131 -0.027480219 -0.052820776 0.024027145
-0.034907665 0.0034720604 0.02586087 0.071320124 0.06053086 -0.035424255 0.03368206 0.050171573
0.02182246 0.027784064 0.022991952 0.039711684 -0.008300234 0.0031450589 0.023599591 0.03282327
0.021434274 0.06119227 0.032653905 -0.04896875 -0.015444737 -0.02636366 -0.036362484 -0.051706668
00000000: 0e36 a6ba 971e c23b d490 2abd 965a 68bc
00000010: 7f56 d2bc 1e23 0abd 5396 2eba 096a 52bb
00000020: 7f2d e43b 3574 5bbb 89a0 753d 4d18 ef3b
00000030: a7d9 0e3d 4d23 c4bc 20b9 78bc d08f 5a3c
00000040: bf2f 24bd 50af 1bbd c17e dabb 554c 60bc
00000050: 512a 213d 07b2 763c 1929 be3b 7c08 ed3c
00000060: 506b 693d 1454 223d 77ee dc3c 01e7 3e3d
00000070: 9315 193c cf7e b0bc e764 a6bb 9afd c93c
00000080: ded1 433c 6840 4d3d 09a8 5b3d 6c1f e5bb
00000090: 3f54 f63b db19 a5bc f701 92bc e4b9 913c
000000a0: 0f22 6b3c 5054 7f3d f511 bb3c 6a40 07bd
000000b0: dea8 543c 50aa d83b 61f5 053c d263 173d
000000c0: bc07 acbc 0a09 78bc 50d1 143d ab95 853c
000000d0: 2035 28bc 8a21 883d 32dc 54bd 4e60 22bd
000000e0: e2eb b63b 7994 68bd b1e4 abbc a28f 033c
000000f0: da23 ca3b 2b85 80bd 6ec3 9bbc 2824 3bbd
00000100: 194a 1c3c 7c45 e53c 2b72 10bd 9152 ba3c
00000110: c43c 673d 9355 c83c bad9 723d ee59 573d
00000120: 4478 073c 012b f93c c6b5 913c fd75 b63b
00000130: 1c29 8e3d 3a91 28bd be23 5e3d e11b afba
00000140: 4d91 3bbd 74bd 493c 8d28 633d 01f8 893d
00000150: 10b8 1e3c 74e3 a03d 8cfc 973d 80c8 08bc
00000160: 1da9 213d 870b 4d3d b106 55bd 7628 89bb
00000170: 929a 76bc 85fb 1abd d42a ca3c e70d b3bb
00000180: db87 a93c c428 bd3b 3891 533c a8ae ef3b
00000190: a135 e23c 9a2c d33b 1621 553c e0b2 653c
000001a0: 1960 573d cf36 8ebb c9b7 a93c 07a5 5f3d
000001b0: bde9 813c 80fc 473b 6005 233c ef25 42bc
000001c0: aa85 78bc 7962 703d f29a a7bc 4bc0 503d
000001d0: 1e4b d53b 2f56 41bd 0c73 453d 65ac 173d
000001e0: 25e7 093d d1a2 46bd 3b79 a7bc 27f1 5e3c
000001f0: 3007 e6bc 17cc 173d cf76 a0bc 830b c03b
00000200: 84af f8bb 9576 deba 815e c23c 33ec ce3b
00000210: 1526 0f3d 09aa 9fbc 5d23 efbc 1d29 9bbc
00000220: 28f8 d539 5028 753d d30c 383b c45c e1bc
00000230: 9f4d 2c3c f062 113c b7aa 44bc e579 923c
00000240: 1996 debc a9fe 7a3c ae8a 093d a814 4f3c
00000250: 397e b13b 149a 433d b4cd 273d 40e1 a2bb
00000260: fb31 ed3c 61c9 0fbd 4a00 1b3a 00d5 0fbd
00000270: 2839 8b3a d10a 4cbd 0f44 fa3c 2916 babc
00000280: ff61 02bd 2f8e 81bc 752c 363d 4a33 e1bc
00000290: 5b14 863c 3dad ecbb a7d0 f43b 6ef3 16bd
000002a0: 8585 6abc 729f 933c 2a9c c838 e4a2 a53b
000002b0: ecb2 4d3d 6dce 1a3c 4bef 263c 5219 fb3c
000002c0: 8e0a 903c b277 053d f23d 5a3d e209 63bc
000002d0: 1e8c 823c 0345 0b3d ad44 403d 1b1f 823b
000002e0: aa0e b2bc f630 5f3d f9c6 5b3d 0592 f63a
000002f0: 5c44 9d3c 8ff1 693a 80c8 d0bc 3893 d6bb
00000300: ab2e 85bc 70ea fc3c fa4b e5bb 4d42 633d
00000310: 0633 b63c 6666 173d 8f50 583c e4c2 24bd
00000320: 5460 4e3d 254e 013c 43ca 5bbc de66 c5bc
00000330: ed20 fdbc 8c58 59bd ec8e f53b 3b27 ebbc
00000340: 0c87 d7bc cc5a ab3b 03f0 113d ce63 53bd
00000350: 5c85 db3c a91d 86bb b8a3 823c d63c adbc
00000360: 68a3 ccbb d156 493d c8bf 88bb db03 273d
00000370: 6904 bb3c b92d 773d 287a a13d 3b81 383c
00000380: 3f68 263c be44 5bbd 1076 86bc 846a 9f3c
00000390: 6126 63bc 321e e1bc 995a 58bd 93d4 c43c
000003a0: 57fb 0ebd 828b 633b 2dda d33c 4910 923d
000003b0: 35ef 773d 0619 11bd 33f6 093d b580 4d3d
000003c0: 04c5 b23c 689b e33c 9e59 bc3c b8a8 223d
000003d0: b4fd 07bc 551d 4e3b ee53 c13c b171 063d
000003e0: ee96 af3c bfa4 7a3d 1ac0 053d 7593 48bd
000003f0: ec0b 7dbc 9af8 d7bc d4f0 14bd 5fca 53bd

fc1.bias f4 [25]
-0.023340883 0.022000792 -0.019105613 0.006813185 0.054081682 -0.009001469 0.019822422 0.020450952
0.042075932 -0.02524439 -0.030256838 -0.009257504 0.044349965 -0.014394905 0.038014356 0.03290152
0.05198964 0.035721734 0.050758746 -0.013433671 0.033211723 0.0326646 0.008020446 0.03645212
-0.0090883
00000000: 6135 bfbc 013b b43c 6083 9cbc 2341 df3b
00000010: c184 5d3d e67a 13bc a262 a23c c188 a73c
00000020: d057 2c3d 53cd cebc 30dd f7bc c9ac 17bc
00000030: 4fa8 353d 9cd8 6bbc f1b4 1b3d bfc3 063d
00000040: 17f3 543d f450 123d 67e8 4f3d e618 5cbc
00000050: 0409 083d 51cb 053d 3068 033c d14e 153d
00000060: 18e7 14bc

fc2.weight f4 [5, 25]
0.09467198 0.19658998 0.11581346 -0.2074573 -0.104265854 -0.1274667 -0.010745169 -0.09328504
0.02840448 -0.03943898 -0.024115445 0.1906875 -0.15218945 0.2202322 -0.1333302 -0.21638536
0.23621692 0.022172565 0.2281085 0.045206327 -0.12511778 0.0716863 -0.18375921 -0.152777
0.01700995 0.22495396 -0.07715274 -0.099751025 -0.22477308 0.01815984 -0.006581742 -0.20764601
-0.17705087 -0.06637856 -0.16742387 0.2141297 -0.10596475 -0.022965938 -0.043117266 0.14048654
-0.23977019 -0.23143548 0.011982453 -0.21957324 -0.07807681 -0.118105784 0.087924816 0.22422452
-0.13817969 0.13496153 -0.15775654 -0.172567 -0.119228035 0.14497444 0.0498503 -0.18150157
-0.11302486 -0.13969518 -0.19472271 0.070391655 0.07875724 -0.23914763 -0.16544676 0.14578739
0.013757727 -0.077570654 -0.1933684 0.12975408 -0.13900246 -0.18853663 0.060035843 -0.031159697
0.21194436 -0.11984871 -0.0882599 -0.22806863 -0.18634708 0.15545091 -0.21908332 0.21730095
-0.124396116 0.005398664 -0.1765462 -0.23952504 -0.104735926 -0.106825426 0.0155470185 0.17824146
-0.098775916 -0.13529687 0.08093936 -0.025995098 -0.20952079 0.07536612 -0.16410686 -0.1066571
-0.12777124 -0.12027 0.18331368 0.23067616 -0.14603552 0.15646169 0.05556545 -0.17970896
0.22907919 0.026213787 -0.22858982 0.026267268 0.013572445 -0.047091715 -0.0863913 -0.24902247
0.17356135 0.225783 0.21683131 0.18435109 -0.2143286 -0.24495439 0.012103912 0.14193395
0.12188177 0.059420258 0.097803436 -0.12351716 -0.23995921
00000000: 62e3 c13d e24e 493e 9b2f ed3d b06f 54be
00000010: 5689 d5bd a186 02be 810c 30bc 3a0c bfbd
00000020: 83b0 e83c c58a 21bd c18d c5bc 9643 433e
00000030: 8dd7 1bbe 8d84 613e b687 08be 2094 5dbe
00000040: d9e2 713e 3da3 b53c 4695 693e 452a 393d
00000050: e01e 00be 44d0 923d 602b 3cbe 9371 1cbe
00000060: 7358 8b3c 555a 663e 4102 9ebd 444a ccbd
00000070: ea2a 66be f2c3 943c a7ab d7bb 28a1 54be
00000080: d34c 35be 7cf1 87bd 2a71 2bbe d144 5b3e
00000090: 0c04 d9bd 1023 bcbc bb9b 30bd b4db 0f3e
000000a0: 5186 75be 6cfd 6cbe 0d52 443c cfd7 60be
000000b0: bce6 9fbd 72e1 f1bd ed11 b43d 1d9b 653e
000000c0: fa7e 0dbe 5b33 0a3e ee8a 21be 67b5 30be
000000d0: d42d f4bd 2e74 143e d42f 4c3d 8cdb 39be
000000e0: 9479 e7bd 410c 0fbe 6465 47be 8029 903d
000000f0: 7a4b a13d 1ee3 74be e06a 29be 4a49 153e
00000100: 1768 613c 5ddd 9ebd 5e02 46be 41de 043e
00000110: a956 0ebe bf0f 41be 25e8 753d 9f42 ffbc
00000120: f107 593e 3e73 f5bd 9bc1 b4bd d38a 69be
00000130: c5d1 3ebe 862e 1f3e 6157 60be 2484 5e3e
00000140: 64c3 febd 47e7 b03b 87c8 34be 0d46 75be
00000150: ca7f d6bd 4ac7 dabd ecb8 7e3c ee84 363e
00000160: 074b cabd 438b 0abe 89c3 a53d acf3 d4bc
00000170: 9e8c 56be 8d59 9a3d a10b 28be 0a6f dabd
00000180: 77d6 02be 1e50 f6bd 95b6 3b3e 5f36 6c3e
00000190: 568a 15be 7e37 203e 9998 633d a005 38be
000001a0: bc93 6a3e 4cbe d63c 7313 6abe 742e d73c
000001b0: f65e 5e3c 3ee3 40bd eced b0bd bfff 7ebe
000001c0: 11ba 313e a933 673e 0709 5e3e 88c6 3c3e
000001d0: f578 5bbe 53d5 7abe 7d4f 463c 2257 113e
000001e0: 269d f93d a862 733d 2b4d c83d 91f6 fcbd
000001f0: deb7 75be

fc2.bias f4 [5]
0.10452971 0.11852454 0.075029105 0.10893519 0.10753687
00000000: ac13 d63d febc f23d dca8 993d 6a19 df3d
00000010: 4a3c dc3d

exp_avg f4 [16, 3, 3, 3]
-0.00037206462 -0.00038122054 -0.00031684455 -0.00034247254 -0.00044678463 -0.00044313303 -0.0003493007 -0.00039028673
-0.00036106704 -0.00025456946 -8.65398e-05 5.0719304e-05 9.264829e-05 0.00014810235 0.00017681267 0.00041792242
0.00036829305 0.00029914922 -3.672947e-05 9.15649e-05 0.00017589313 0.00028816343 0.0002927225 0.00027054796
0.00062465447 0.0005691099 0.00048485046 0.0004111003 0.00025016893 0.0003067705 0.00040028853 0.00018717762
0.0001557976 0.00047031709 0.00033631694 0.0002728836 0.00031126483 0.000247404 0.0003837824 0.00040901417
0.00020075735 0.00016369294 0.00034853042 0.00016742482 4.4808818e-05 -1.2972021e-05 -5.9587226e-05 0.00013208363
0.00015420748 -3.397744e-05 -2.4965855e-05 0.0002092715 5.1060422e-05 -5.0867427e-05 -4.743617e-06 -1.9995832e-06
-1.1169578e-05 8.10585e-06 7.1560826e-06 -8.004465e-06 -7.87162e-06 -9.0661e-06 -2.5111487e-05 -1.2279191e-05
-1.5734822e-05 -2.928201e-05 1.2435061e-05 1.530752e-05 -3.286009e-06 1.7358696e-05 1.26069e-05 -1.3682645e-05
3.7412632e-05 2.8337543e-05 4.7041576e-06 8.457279e-05 7.766556e-05 4.9533635e-05 0.00011587259 0.00010080431
6.2257604e-05 0.00012334503 0.0002214065 0.00021862343 0.00017666277 0.00025454836 0.00021411575 0.00030696922
0.00038039472 0.00031595395 -0.00021196292 -0.00012850953 -1.603325e-05 -0.00016799937 -0.000109351786 -5.7718047e-05
-5.38148e-05 -1.9857282e-05 -1.0708027e-07 -2.5292225e-05 5.4699645e-05 0.00013134911 -1.3295212e-06 4.0537256e-05
8.2390274e-05 0.000103462036 0.00011157808 0.00012488308 -1.5704301e-05 -6.0190723e-07 7.230612e-06 -5.1504318e-05
-4.403366e-05 -4.0307983e-05 -0.000127034 -0.00012523057 -0.000108155975 6.6380875e-05 0.000112241665 0.00017943769
4.1899224e-05 7.543519e-05 0.00013876853 -1.1895498e-05 2.4198476e-05 0.00010068571 -0.000118119504 -7.020313e-05
1.9692467e-05 -0.0001670606 -0.00013764697 -5.8829064e-05 -0.00021675344 -0.00018413218 -9.543548e-05 0.00070230884
0.00035966787 -7.837676e-05 0.0007018291 0.0003169898 -0.0002150117 0.00016764706 -0.00015276833 -0.00062789576
0.00071288436 0.0006836451 0.0006300189 0.0006150766 0.00056763494 0.00049506885 -4.1139894e-05 -5.7190307e-05
-9.563763e-05 0.0009264884 0.00088775496 0.0008157048 0.0007935915 0.00074660685 0.00066585257 0.00015840703
0.00016048801 0.00016052829 -0.0004993952 -0.0003939466 -0.0001740113 -0.00038893052 -0.0002999372 -0.00015568803
-0.00031997473 -0.00023437181 -0.00016534186 -0.0002774128 -0.00025471498 -0.00012094913 -0.00026013525 -0.00027218016
-0.00019456512 -0.00023479355 -0.00025294363 -0.00022957401 0.00026949012 0.00023835592 0.00035489126 0.00027954823
0.00022317967 0.00025788858 0.00023428198 0.0001758663 0.00013851836 -3.0902633e-05 -5.678071e-05 -1.7383172e-05
-3.4013832e-05 -6.50889e-05 -1.7308803e-05 -2.8394665e-05 -5.927318e-05 -2.468858e-05 -9.077908e-05 -7.9320926e-05
-4.265021e-05 -8.9086425e-05 -9.458023e-05 -7.504256e-05 -0.00015093428 -0.00017220626 -0.00018195593 -7.765573e-05
-8.4645566e-05 -4.0182094e-05 -7.8000994e-05 -9.694151e-05 -5.545005e-05 -0.00016728921 -0.00020049323 -0.00018576466
0.0002805388 0.0005916634 0.0007697273 0.0001206852 0.0005408074 0.0008465217 0.00039919897 0.000813558
0.0011623361 -0.00066923536 -0.00042041088 -0.00016231718 -0.00094912155 -0.0007025574 -0.00050860434 -0.0009717329
-0.00071855914 -0.0004536698 0.00096289674 0.0011973578 0.0012094767 0.00021282956 0.00045203464 0.00045150658
-0.0003360049 -8.9971116e-05 3.8360013e-05 0.000310368 0.00028757227 0.00031284615 0.00020387741 0.00017809456
0.00021144268 0.000118648655 0.000107936125 0.00016931813 0.00026679318 0.00024104994 0.00025574554 0.00017279158
00000000: ab11 c3b9 8ede c7b9 281e a6b9 e38d b3b9
00000010: 6b3e eab9 4f54 e8b9 5922 b7b9 669f ccb9
00000020: 994d bdb9 bc77 85b9 b47c b5b8 70bb 5438
00000030: 2c4c c238 ec4b 1b39 ca66 3939 991c db39
00000040: 7517 c139 21d7 9c39 f80d 1ab8 8806 c038
00000050: f46f 3839 a414 9739 8d78 9939 55d8 8d39
00000060: dabf 233a 5230 153a 8733 fe39 f388 d739
00000070: 1b29 8339 0ad6 a039 d1dd d139 1c45 4439
00000080: 9a5d 2339 e494 f639 b253 b039 d111 8f39
00000090: 4231 a339 01b6 8139 6736 c939 f470 d639
000000a0: 6482 5239 fda4 2b39 f6ba b639 c28e 2f39
000000b0: 1af1 3b38 68a2 59b7 4ced 79b8 ee7f 0a39
000000c0: c1b2 2139 0083 0eb8 c46d d1b7 e46f 5b39
000000d0: b629 5638 7c5a 55b8 5c2b 9fb6 9430 06b6
000000e0: f964 3bb7 5cfe 0737 481e f036 ea4a 06b7
000000f0: 5a10 04b7 9a1a 18b7 82a6 d2b7 b902 4eb7
00000100: 46fe 83b7 a3a2 f5b7 2ea0 5037 a668 8037
00000110: 3485 5cb6 849d 9137 3982 5337 838e 65b7
00000120: 82eb 1c38 69b6 ed37 68d8 9d36 ac5c b138
00000130: 61e0 a238 56c2 4f38 a000 f338 e766 d338
00000140: 4c90 8238 2e56 0139 5b29 6839 483e 6539
00000150: 8d3e 3939 e774 8539 4284 6039 b6f0 a039
00000160: b76f c739 9fa6 a539 5d42 5eb9 84c0 06b9
00000170: 247f 86b7 fd28 30b9 cb53 e5b8 4816 72b8
00000180: 34b7 61b8 3093 a6b7 00f4 e5b3 a42a d4b7
00000190: 4c6d 6538 c2ba 0939 0072 b2b5 8c06 2a38
000001a0: f1c8 ac38 c2f9 d838 07ff e938 0cf3 0239
000001b0: bbbc 83b7 c092 21b5 7c9e f236 5706 58b8
000001c0: c8b0 38b8 5e10 29b8 6e34 05b9 5350 03b9
000001d0: ccd1 e2b8 f635 8b38 4963 eb38 7027 3c39
000001e0: f3bc 2f38 f632 9e38 6582 1139 c692 47b7
000001f0: d5fd ca37 3b27 d338 edb6 f7b8 053a 93b8
00000200: 4031 a537 fd2c 2fb9 5455 10b9 3abf 76b8
00000210: 4f48 63b9 9b13 41b9 8824 c8b8 261b 383a
00000220: ce91 bc39 345e a4b8 f4fa 373a a731 a639
00000230: c474 61b9 6aca 2f39 7030 20b9 5f99 24ba
00000240: dce0 3a3a a536 333a da27 253a 183d 213a
00000250: 56cd 143a 82c7 013a a08d 2cb8 a0df 6fb8
00000260: 1091 c8b8 96df 723a 3ab8 683a 06d5 553a
00000270: 0609 503a f0b7 433a 9c8c 2e3a 101a 2639
00000280: ac48 2839 7c53 2839 d8e9 02ba 9e8a ceb9
00000290: cd76 36b9 5fe9 cbb9 e440 9db9 3040 23b9
000002a0: 48c2 a7b9 b4c1 75b9 9e5f 2db9 b771 91b9
000002b0: 448b 85b9 12a6 fdb8 c362 88b9 67b3 8eb9
000002c0: 2d04 4cb9 ea32 76b9 859d 84b9 ceb9 70b9
000002d0: 5a4a 8d39 2eef 7939 b310 ba39 5490 9239
000002e0: 5605 6a39 3835 8739 97a9 7539 c068 3839
000002f0: 3d3f 1139 739d 01b8 d327 6eb8 14d2 91b7
00000300: 13aa 0eb8 5680 88b8 5f32 91b7 1431 eeb7
00000310: 189c 78b8 521a cfb7 a660 beb8 1959 a6b8
00000320: 50e3 32b8 e9d3 bab8 6059 c6b8 2b60 9db8
00000330: 1d44 1eb9 4492 34b9 6ccb 3eb9 1adb a2b8
00000340: be83 b1b8 3289 28b8 7794 a3b8 144d cbb8
00000350: 0a93 68b8 5b6a 2fb9 7e3b 52b9 d2c9 42b9
00000360: 4815 9339 dc19 1b3a 86c7 493a 6018 fd38
00000370: f8c4 0d3a 1ce9 5d3a 944b d139 f444 553a
00000380: 8759 983a a06f 2fba 986a dcb9 b033 2ab9
00000390: 78ce 78ba d42b 38ba dc53 05ba e4bb 7eba
000003a0: b05d 3cba 88da edb9 e86a 7c3a a9f0 9c3a
000003b0: 4e87 9e3a 002b 5f39 10ff ec39 30b8 ec39
000003c0: d029 b0b9 e0ae bcb8 c0e4 2038 e3b8 a239
000003d0: 4cc5 9639 8005 a439 edc7 5539 e5be 3a39
000003e0: b6b6 5d39 03d3 f838 c45b e238 fd8a 3139
000003f0: 60e0 8b39 5ac2 7c39 9615 8639 632f 3539
